models/VANE_link_pred_n2v_model/Decoder_epoch_13.pth (torch, 3039 bytes, 6 tensors)

decoder.0.weight f4 [8, 8]
00000000: ec51 283e 281d 24be 8b2f 84be c4e4 66bd
00000010: 47bb 293e 8b7c 8abd 4713 d4bd bbae 92bd
00000020: f833 92bd d1b8 683d 9119 273d 4529 a2be
00000030: 3340 b8be 3ae4 eebd 851c 453e 19de 41be
00000040: dedb 723e c114 9abe 869b 9f3e 8ac9 8e3e
00000050: 0f86 69be da60 a5bd ac3e 5b3e 71e4 9cbe
00000060: 91ba 95be 55d7 febd 7dfd 433e 0503 893c
00000070: 252f 853e eeb4 ae3e b00a 113e e05c d93d
00000080: 0f66 95bd abb8 1b3e 16de 6f3e 3eec 61be
00000090: 4545 893d 85ea 18be f50e a9be e7a6 c83d
000000a0: 7cbe 673d b4dd 3c3e 45c4 ff3d 8c4c 053e
000000b0: 5db4 c7bd e883 c43d 166e b3bc 82fa 163d
000000c0: 59eb b0be cf3e 9bbe f22f f2bc f6e3 a7be
000000d0: d638 9d3d 0cbd 4dbe 8785 d1be 994a 35bd
000000e0: 3854 a93e 549e 50be 7434 a7be dc6e 4c3d
000000f0: e9c7 233e 3c5b 66be 2aac 9e3e 4792 893e
0.164375 -0.16026747 -0.25817522 -0.05637051 0.16575347 -0.06762036 -0.10355239 -0.071622334
-0.071388185 0.05681688 0.040795866 -0.3167211 -0.3598648 -0.116646245 0.1924916 -0.1893238
0.23716685 -0.3009396 0.31173342 0.27888137 -0.22805046 -0.080751136 0.21410626 -0.30643037
-0.292439 -0.12443415 0.19139667 0.016725073 0.2601253 0.34122413 0.14164233 0.106134176
-0.07294857 0.15207164 0.23424563 -0.22062775 0.06702665 -0.14933212 -0.33019224 0.09797459
0.056578144 0.18443948 0.12488607 0.13017482 -0.097511984 0.095954716 -0.021903079 0.036859997
-0.34554556 -0.30321357 -0.029563878 -0.32791108 0.07676856 -0.20091647 -0.40922186 -0.044260595
0.33072066 -0.20372897 -0.32657206 0.04991041 0.15994228 -0.2249574 0.30990726 0.26869413

decoder.0.bias f4 [8]
00000000: 4dd2 5f3c ea1a 97be 20a3 733d 5487 89bc
00000010: 64b7 f8bd dcbe 913e 3687 25be e30a 42be
0.013660979 -0.2951272 0.05948174 -0.016788162 -0.12144354 0.28465927 -0.1616486 -0.18949465

decoder.3.weight f4 [8, 8]
00000000: d2f5 133e 5281 463e 2373 7d3e 9d3c 26be
00000010: e0e5 863e c164 963e af05 8d3e 7905 073e
00000020: 7c4c 5dbe 91a2 583c 3624 b33e 6cfc 2d3c
00000030: b530 7b3e c3d1 b33c 59b8 9bbd 3fa5 ca3d
00000040: 0e3a 343e 91f6 b23d 60a4 98bd ca3b 5a3d
00000050: dbea 96be 3e56 8dbe a3c3 0a3d 07f4 2f3e
00000060: bfdd 8a3e 1247 24bd 99d5 2ebe b926 97be
00000070: 7281 0a3e 28db 45be fdac 1e3e 3cba 9cbd
00000080: d0cf 85be 8d2f 91be 47dd afbd a339 42be
00000090: fc4e 65be 5f3d c1bc 84b9 b5be 46b5 f9bd
000000a0: b057 913e aa4a 28be 8849 8bbd 6fd7 16bd
000000b0: 8d82 a2be f0e8 6dbe 64bf b13e ddf6 3ebe
000000c0: 45a7 edbd d884 77be ccd4 9d3d c481 02be
000000d0: ae84 ce3d 2e77 193e b568 ce3d 0377 0abe
000000e0: 5e46 ab3e ce89 783d 7e16 eebd 2fa8 33be
000000f0: 2e99 fd3d b1c5 803e b41e 253e d93c f93d
0.14449242 0.1938527 0.24750952 -0.1623406 0.26347256 0.29373744 0.275434 0.13185681
-0.21611208 0.013222353 0.34988564 0.010619264 0.24530299 0.021950608 -0.07603521 0.098947994
0.17600271 0.08738435 -0.07453227 0.053279676 -0.29476056 -0.2760486 0.03387798 0.17182933
0.27122304 -0.04010684 -0.17073669 -0.2952173 0.13525942 -0.19321883 0.15495677 -0.07652709
-0.2613511 -0.2835659 -0.08587127 -0.18967299 -0.22393411 -0.023588834 -0.354931 -0.12192778
0.28387213 -0.16434732 -0.06801134 -0.036826547 -0.31740227 -0.2323339 0.34716332 -0.18648858
-0.1160417 -0.2417177 0.077066034 -0.12744814 0.100839004 0.1498687 0.10078565 -0.13521962
0.33452123 0.060678296 -0.11625384 -0.17544626 0.12382732 0.25150827 0.16124994 0.12169809

decoder.3.bias f4 [8]
00000000: 01d4 6abe 1ee1 c33e 8e14 d7bd 52ae 59be
00000010: 015b 16bd 8c70 5abe cf8b 9bbd 2f79 a7bd
-0.22932436 0.38257688 -0.10501967 -0.21257904 -0.03670788 -0.21331996 -0.07595026 -0.08177411

decoder.6.weight f4 [3, 8]
00000000: 19a8 823e 1d69 bd3d eda1 b23e c798 303e
00000010: 9fa7 9c3d bef7 983d 895c c3bd 33a1 68be
00000020: 5d80 59be 69c4 903e fc10 163e c955 dfbe
00000030: a7a3 3b3d 94c3 b5be 5948 513e 7d2f 6f3e
00000040: e509 623e 664e 243e 531c 46be c201 933e
00000050: 45ad abbd 01b9 eebd f07f 0f3e 170b 943e
0.25518873 0.092485644 0.34889165 0.1724578 0.07649159 0.07469128 -0.09539134 -0.22717743
-0.21240373 0.2827485 0.14654917 -0.43620136 0.045810368 -0.35500777 0.20437755 0.23357959
0.22074087 0.16045532 -0.19346742 0.2871228 -0.08382658 -0.116563804 0.14013648 0.2891471

decoder.6.bias f4 [3]
00000000: f785 ad3d 62fa 39bd a2bc 40bc
0.084728174 -0.0454048 -0.011763724
