models/VANE_link_pred_n2v_model/Decoder_epoch_1.pth (torch, 3039 bytes, 6 tensors)

decoder.0.weight f4 [8, 8]
0	0x3e3506d9	0.17678393
1	0xbe15a908	-0.14615262
2	0xbe83393e	-0.2562961
3	0xbd6230a5	-0.055222172
4	0x3e315fe9	0.17321743
5	0xbd07c045	-0.033142347
6	0xbdbaeffc	-0.09127805
7	0xbd96da12	-0.07365812
8	0xbdbadf0b	-0.09124573
9	0x3d34e8c5	0.0441673
10	0x3ccdb05e	0.025108512
11	0xbea4697f	-0.32111737
12	0xbeb43b42	-0.3520146
13	0xbe3d7f34	-0.18505555
14	0x3e223580	0.15840721
15	0xbe45ab83	-0.19303708
16	0x3e6e36c6	0.23263082
17	0xbea22145	-0.31666008
18	0x3e99a8bf	0.30011556
19	0x3e937b9d	0.28805247
20	0xbe66da4d	-0.22544213
21	0xbdd18bb3	-0.10231724
22	0x3e876440	0.26443672
23	0xbe9ea0be	-0.30982012
24	0xbe9255ca	-0.28581077
25	0xbe06d32f	-0.13166498
26	0x3e346f13	0.17620496
27	0x3c880552	0.0166041
28	0x3e83bce8	0.25730062
29	0x3eb6feff	0.35741422
30	0x3e09de3d	0.13463683
31	0x3e01d2eb	0.12678115
32	0xbd9b251e	-0.07575439
33	0x3e1e5b93	0.1546462
34	0x3e7df075	0.24798758
35	0xbe81c70f	-0.25347182
36	0x3d64e781	0.05588484
37	0xbdf2b58f	-0.11851036
38	0xbea0409d	-0.31299296
39	0x3dbee9e4	0.09321955
40	0x3dc0263b	0.09382292
41	0x3e5bd70c	0.21468753
42	0x3e220c48	0.15824997
43	0x3e1d2f7c	0.15350145
44	0xbde7dbc5	-0.113212146
45	0x3e2c888b	0.16848962
46	0x3ca901d8	0.020630762
47	0x3c990c9d	0.018682772
48	0xbea61aa5	-0.32442203
49	0xbe968928	-0.29401517
50	0xbc89fada	-0.016843248
51	0xbea3549d	-0.31900492
52	0x3d046412	0.032321997
53	0xbe37b152	-0.17938736
54	0xbebab7b7	-0.36468288
55	0xbd87e48f	-0.06635391
56	0x3eb462fc	0.3523177
57	0xbe35eebf	-0.17766856
58	0xbe9a7e13	-0.30174312
59	0x3d952f98	0.072844684
60	0x3e33520b	0.17511766
61	0xbe49a2c4	-0.19690996
62	0x3ea3b7a6	0.3197605
63	0x3e8334b4	0.25626147

decoder.0.bias f4 [8]
0	0x3c87b23c	0.016564481
1	0xbe9cb1c0	-0.30604362
2	0x3d47aa08	0.04874614
3	0xbcee1402	-0.029062275
4	0xbdf7fde2	-0.12108971
5	0x3e9d261c	0.30693138
6	0xbe159d7d	-0.14610858
7	0xbe3171df	-0.17328595

decoder.3.weight f4 [8, 8]
0	0x3e01b77a	0.12667647
1	0x3e4b0497	0.1982597
2	0x3e800ad5	0.25008264
3	0xbe573363	-0.21015696
4	0x3e7c958a	0.2466642
5	0x3e942d25	0.28940693
6	0x3e91911a	0.28431016
7	0x3de40b31	0.11134947
8	0xbe5df138	-0.21674049
9	0x3c8e1844	0.017345555
10	0x3ebc487c	0.3677405
11	0x3c9d7e0b	0.019225141
12	0x3e9240e1	0.28565124
13	0x3d3f3ece	0.046690755
14	0xbdab53ae	-0.0836557
15	0x3ddb95cf	0.10721933
16	0x3e4163b7	0.18885694
17	0x3d947e4e	0.07250653
18	0xbdb5b64e	-0.088726625
19	0x3d5d1652	0.053976364
20	0xbe8969eb	-0.26838621
21	0xbe95f9dd	-0.29292193
22	0x3cd64b36	0.02615891
23	0x3e24feeb	0.16112868
24	0x3e875459	0.2643154
25	0xbd8fbd0d	-0.070184804
26	0xbe1805ca	-0.14845958
27	0xbe9491b2	-0.29017407
28	0x3df3f662	0.11912228
29	0xbe383a24	-0.17990929
30	0x3e03d793	0.12875204
31	0xbdf7ba28	-0.12096053
32	0xbe81f33f	-0.25380895
33	0xbe886cea	-0.26645595
34	0xbdea266d	-0.114331104
35	0xbe441006	-0.19146737
36	0xbe5840fc	-0.2111854
37	0xbd4d853d	-0.050175894
38	0xbeb08d29	-0.34482697
39	0xbdcb9e14	-0.099422604
40	0x3e9211e4	0.28529274
41	0xbe5830e8	-0.21112406
42	0xbd3deff3	-0.04637141
43	0xbbe051ec	-0.0068457033
44	0xbe9cfc1b	-0.3066109
45	0xbe5d1115	-0.21588548
46	0x3e9f724d	0.31141892
47	0xbe7d68e4	-0.24747044
48	0xbdde3eed	-0.10851846
49	0xbe8560c5	-0.26050392
50	0x3ddd3ce3	0.10802629
51	0xbdf38c62	-0.1189201
52	0x3dbafd9d	0.09130404
53	0x3e2d68e5	0.16934545
54	0x3dac874a	0.08424242
55	0xbe076eab	-0.1322581
56	0x3eacf5e3	0.33781347
57	0x3d1de2a1	0.03854621
58	0xbd9e71c2	-0.07736541
59	0xbe403f0b	-0.18774049
60	0x3e2b686c	0.16739053
61	0x3e91096f	0.2832751
62	0x3e0abaf9	0.13547887
63	0x3de04818	0.10951251

decoder.3.bias f4 [8]
0	0xbe6b5799	-0.22982635
1	0x3ec1ee11	0.37876943
2	0xbdccb0e9	-0.099946804
3	0xbe3bcc7b	-0.18339722
4	0xbd58f31b	-0.05296622
5	0xbe289097	-0.16461407
6	0xbd7e0673	-0.06201787
7	0xbd6dac1b	-0.05802546

decoder.6.weight f4 [3, 8]
0	0x3e3cec4c	0.18449515
1	0x3dc0de26	0.094173715
2	0x3eac70ae	0.33679718
3	0x3e20b2e2	0.15693238
4	0x3d9c103d	0.07620285
5	0x3d66c7ec	0.056343004
6	0xbe08561c	-0.13314098
7	0xbe852b7c	-0.26009738
8	0xbe441220	-0.19147539
9	0x3e916197	0.28394768
10	0x3e32864f	0.17434047
11	0xbed18028	-0.40918088
12	0x3d868968	0.06569177
13	0xbe9c8ff1	-0.3057857
14	0x3e46bcca	0.19407955
15	0x3e6ba7b7	0.23013197
16	0x3e8a6d81	0.2703667
17	0x3e21de76	0.15807518
18	0xbe57f4a0	-0.21089411
19	0x3e8d2cab	0.2757314
20	0xbdd5385f	-0.104111426
21	0xbe18a4ac	-0.14906567
22	0x3e42601a	0.18981972
23	0x3ea6b73b	0.3256167

decoder.6.bias f4 [3]
0	0x3de2fdb9	0.1108355
1	0xbdae510f	-0.085115544
2	0x3b09a627	0.0021003576
