models/VANE_link_pred_n2v_model/Decoder_epoch_11.pth (torch, 3039 bytes, 6 tensors)

decoder.0.weight f4 [8, 8]
000000 1d af 2a 3e 89 4c 25 be 7a 38 83 be fe 72 57 bd
       0.16668363 -0.16142477 -0.25629026 -0.0525999
000010 46 f8 2a 3e 75 dd 8e bd 6c 1e d8 bd 12 0e 94 bd
       0.16696271 -0.06975833 -0.105526775 -0.07229246
000020 99 91 86 bd f3 ef 7c 3d 48 81 39 3d d0 ac 9f be
       -0.06570739 0.06175227 0.045289308 -0.31186533
000030 f6 e3 b5 be b4 34 eb bd 9a 4d 41 3e c5 53 47 be
       -0.35525483 -0.11484662 0.18877259 -0.1946555
000040 d3 50 76 3e 4c 4c 98 be 04 41 a1 3e 5e f5 90 3e
       0.2405427 -0.2974571 0.31494915 0.283122
000050 e4 96 65 be 36 60 9d bd 56 8c 58 3e ab b4 9e be
       -0.22420841 -0.076843664 0.21147284 -0.30997214
000060 f7 35 97 be a6 62 04 be c6 21 3f 3e 7f 35 53 3c
       -0.2953336 -0.12928256 0.18665227 0.012891172
000070 dc 82 82 3e 6d 2a ae 3e a7 12 16 3e 56 c7 e0 3d
       0.25490463 0.34016743 0.14655553 0.1097552
000080 f9 d5 8a bd 2d 25 23 3e e3 d2 79 3e 51 d6 58 be
       -0.06779093 0.1593215 0.24396853 -0.21175505
000090 98 00 9f 3d 2d 45 11 be 19 d8 ac be 7f f3 c2 3d
       0.07763785 -0.14186545 -0.3375862 0.095190994
0000a0 46 30 80 3d 8f 6e 42 3e df e2 07 3e 06 4b 0c 3e
       0.062592074 0.18987487 0.13270138 0.13700494
0000b0 14 a2 b5 bd f3 bc cb 3d 80 f7 00 bd 36 9d 11 3d
       -0.088688046 0.099481486 -0.031486034 0.03555032
0000c0 d0 21 ad be fc e8 97 be c8 c6 a4 bc 87 df a3 be
       -0.3381486 -0.2966994 -0.020114318 -0.32006475
0000d0 9c 86 a7 3d 61 49 45 be 64 d5 d6 be 5d cb 51 bd
       0.081799716 -0.19266273 -0.4195968 -0.051219333
0000e0 b8 db ab 3e a1 7b 49 be cf 13 a3 be fd 0a 69 3d
       0.3356607 -0.19676067 -0.3185105 0.056895245
0000f0 f9 c4 29 3e a2 1c 64 be 59 7b 9a 3e ca b3 87 3e
       0.16579045 -0.22276548 0.30172232 0.26504356

decoder.0.bias f4 [8]
000000 4d d4 6e 3c 59 b7 94 be 69 ac 7e 3d 06 40 a4 bc
       0.014576984 -0.29046133 0.062176142 -0.02005006
000010 5a 35 ee bd 52 d9 93 3e cb 4b 1c be 29 6b 3d be
       -0.1163127 0.2887674 -0.15263288 -0.1849791

decoder.3.weight f4 [8, 8]
000000 ad 22 13 3e a7 63 40 3e 81 8a 81 3e 7a 7f 25 be
       0.14368697 0.18788014 0.25300983 -0.1616191
000010 71 88 87 3e c4 74 99 3e 84 df 8a 3e be 9d ff 3d
       0.26471284 0.29971898 0.27123654 0.12481259
000020 53 06 5f be 15 43 38 3c e3 52 b2 3e 67 7e 52 3c
       -0.21779756 0.011246462 0.34828863 0.0128475195
000030 47 0e 7e 3e 7a 32 bb 3c 14 4f 9e bd ef 69 c9 3d
       0.24810134 0.022851218 -0.07729927 0.09834658
000040 9b ac 3a 3e 62 91 ad 3d 0a 74 97 bd be 41 61 3d
       0.18229906 0.08474995 -0.073951796 0.054994337
000050 f0 44 9a be 42 8a 8d be bc ef 06 3d d2 9a 2e 3e
       -0.3013072 -0.27644545 0.032943472 0.17051247
000060 aa 99 8c 3e 4d 03 2c bd ad 35 2b be 5a d9 97 be
       0.27460986 -0.041995335 -0.16719694 -0.29658014
000070 62 fd 0c 3e c0 87 44 be 52 77 1d 3e 3c 2e a3 bd
       0.13768533 -0.1919241 0.15377548 -0.07967803
000080 a4 d3 85 be 7d a5 91 be e8 c7 b0 bd df 39 3e be
       -0.2613803 -0.2844657 -0.08631879 -0.18576764
000090 d0 c2 6b be b9 e9 c4 bc 17 f5 b5 be f3 1e fa bd
       -0.23023534 -0.024037229 -0.3553855 -0.12212934
0000a0 26 4b 92 3e e6 a2 29 be b8 73 84 bd 94 76 15 bd
       0.2857296 -0.16566047 -0.06467384 -0.036490038
0000b0 b6 b0 a1 be a1 95 6b be 55 d4 b0 3e 0e 34 41 be
       -0.31580132 -0.23006298 0.34536996 -0.18867514
0000c0 48 d4 eb bd db 5a 77 be 29 30 99 3d a4 e7 01 be
       -0.11515099 -0.24155752 0.07479889 -0.1268602
0000d0 ed a6 d8 3d 34 8a 19 3e 2a 9e ce 3d 4f 25 0a be
       0.105787136 0.14994127 0.10088761 -0.13490795
0000e0 15 a7 ac 3e cc 58 6f 3d b4 33 ec bd 3f 79 34 be
       0.33721223 0.058434293 -0.11533299 -0.17624377
0000f0 d0 82 08 3e c2 43 82 3e 2a 1e 23 3e 03 c7 f6 3d
       0.13331151 0.2544232 0.15929475 0.12049677

decoder.3.bias f4 [8]
000000 51 a1 64 be c9 ef c3 3e 86 df d2 bd 6c bf 57 be
       -0.22327162 0.3826888 -0.1029654 -0.21069115
000010 57 12 15 bd 00 47 58 be fe 93 9c bd c2 b2 a2 bd
       -0.036394443 -0.21120834 -0.07645415 -0.079442516

decoder.6.weight f4 [3, 8]
000000 bf a5 7f 3e 21 a4 bd 3d 04 b2 b1 3e 0f a3 2f 3e
       0.24965571 0.09259821 0.34706128 0.17152046
000010 ea ef 9f 3d 8c 09 97 3d a0 d2 c7 bd 12 f0 6c be
       0.07809432 0.07374868 -0.097569704 -0.23138455
000020 42 35 5f be c9 c2 90 3e af e4 18 3e 5c 6a de be
       -0.2179766 0.2827361 0.14930986 -0.4344052
000030 c5 0d 36 3d 87 47 b4 be 6a 80 4c 3e ea 53 6e 3e
       0.044446725 -0.3521082 0.19970861 0.23274198
000040 75 cf 6d 3e c6 34 24 3e 1b 22 47 be 86 90 92 3e
       0.2322367 0.16035756 -0.19446604 0.28625888
000050 9a 28 ac bd 90 f5 f2 bd 4b ad 16 3e 38 a4 96 3e
       -0.08406182 -0.118632436 0.14714544 0.29422164

decoder.6.bias f4 [3]
000000 4b 49 b0 3d ef e7 3f bd fe 4d 3f bc
       0.086077295 -0.04685205 -0.01167631
