models/VANE_link_pred_n2v_model/Discriminator_epoch_6.pth (torch, 35999 bytes, 5 tensors)

main.0.weight f4 [64, 64]
-0.113844 -0.11280145 0.008740052 0.027279155 -0.104563884 -0.15010664 -0.025457826 -0.0021096629
0.014319168 0.06341132 -0.09033597 0.0027325724 -0.08959107 0.026157731 -0.025714006 -0.069969155
-0.06774813 -0.051681206 -0.045555044 0.03312029 -0.05312962 0.021141665 0.050160553 -0.017727247
-0.0900103 -0.015999004 -0.13370654 -0.0037807089 -0.08109512 0.06703518 0.08753842 0.010559439
0.08724202 0.03399762 -0.05249269 0.115757905 -0.10653862 -0.026511492 -0.085210666 -0.004167663
-0.090916134 0.07155757 -0.005889382 -0.00807012 0.08217008 -0.018244265 0.029541785 -0.00014974001
0.09105849 0.07850799 -0.085000016 -0.09847603 -0.08772534 0.12428563 0.14651176 -0.07675992
0.04713744 -0.0534469 0.13202985 0.083813414 0.051885046 -0.04471048 -0.058954097 -0.090902396
-0.017313113 0.13668346 0.1228076 -0.004564499 -0.0023282967 0.09228908 -0.146626 0.030891245
0.05487675 -0.07766826 0.009266096 0.08210595 -0.006647158 -0.045245316 0.051506445 0.09829215
0.052986424 0.052233107 -0.010459396 0.008036714 0.14251629 -0.026092239 -0.037502434 0.15715039
-0.010094849 0.050383918 -0.14881644 -0.1334179 0.06792361 0.07855584 0.06563772 0.0155610815
-0.107866414 -0.06375829 -0.15123434 0.070535414 0.013644462 -0.04304329 0.030650133 -0.012614363
-0.0149615295 -0.066236526 0.12426488 0.14004487 -0.010527148 0.08161788 0.07119677 0.010466608
0.113673255 0.05916882 -0.03224496 0.070353985 0.12980938 -0.026099732 0.055197705 0.076145396
0.01553313 0.0066911685 -0.029986495 -0.02641353 -0.029883783 -0.010173093 -0.006798123 -0.08717072
0.1136796 0.06623141 -0.07249057 0.123693265 -0.013195759 0.036653895 0.021627814 0.00033115933
0.008509443 0.058188222 0.13517953 -0.06678016 0.0039185723 0.10791118 0.067584224 -0.12125382
0.104159065 0.043887805 -0.038576763 0.017307317 -0.13054569 -0.097678035 0.021715764 -0.011479561
-0.07535845 0.014779189 0.020674244 -0.014148592 0.0439166 0.0030446372 0.074051574 0.12292555
-0.094528124 0.007162038 -0.02416088 0.002112691 -0.04507432 0.042248435 0.075630605 0.02573841
-0.0072966847 -0.0129872775 0.11623481 -0.04647337 -0.13489828 -0.016046608 0.017473739 0.01028726
0.056901474 0.02190292 -0.044440556 0.013304967 0.117185205 0.14476976 0.08067848 0.009806209
-0.05517277 -0.1363319 0.024912642 -0.054570116 0.020099964 -0.016380291 -0.079435535 0.013675054
-0.044123467 0.042581726 0.003817797 0.023723768 -0.10621312 0.014782448 0.098676845 -0.103520975
0.10339998 -0.039749987 0.082649454 -0.054018114 0.046148732 -0.0846048 -0.0362006 0.05685037
0.064667985 0.03396762 0.043165546 -0.040294424 0.029709872 -0.024336383 0.01871395 0.030401153
0.084199056 -0.09167834 0.039828546 -0.050853606 0.11847386 0.045826133 -0.06571575 0.0831592
-0.04867574 -0.057971362 -0.0031772954 0.011718221 -0.0030536032 -0.03025391 0.096058026 0.012943014
-0.04823582 0.063055865 0.052191235 -0.024238927 -0.10249014 -0.02411017 0.09873908 0.052353393
-0.057277262 0.065008506 0.047317337 -0.060685523 -0.12517917 0.047123462 -0.05829897 -0.028670592
0.071856886 -0.061676905 -0.018186955 -0.05528914 -0.140739 0.00073163415 -0.020158196 0.027848624
00000000: 0b27 e9bd 7204 e7bd 6f32 0f3c 8978 df3c
00000010: 9725 d6bd 8eb5 19be ee8c d0bc 4542 0abb
00000020: f29a 6a3c cbdd 813d 1102 b9bd f514 333b
00000030: 867b b7bd bd48 d63c 2ea6 d2bc fd4b 8fbd
00000040: 88bf 8abd acaf 53bd ed97 3abd 24a9 073d
00000050: 729e 59bd 4931 ad3c 2775 4d3d bb38 91bc
00000060: 5257 b8bd 5810 83bc 5eea 08be c5c5 77bb
00000070: 3315 a6bd be49 893d 5847 b33d 7f01 2d3c
00000080: f2ab b23d 1741 0b3d 9302 57bd 7b12 ed3d
00000090: ec30 dabd a12e d9bc ee82 aebd e490 88bb
000000a0: 3d32 babd c68c 923d b8fb c0bb 8938 04bc
000000b0: c948 a83d ff74 95bc 9d01 f23c 8703 1db9
000000c0: e07c ba3d ccc8 a03d 7d14 aebd cdad c9bd
000000d0: 58a9 b3bd 7789 fe3d 2e07 163e 4e34 9dbd
000000e0: 3013 413d 23eb 5abd d532 073e 5ea6 ab3d
000000f0: 6a85 543d 5622 37bd da79 71bd 092b babd
00000100: 3bd4 8dbc c0f6 0b3e 8d82 fb3d cb91 95bb
00000110: 5696 18bb 0f02 bd3d 2025 16be a30f fd3c
00000120: 71c6 603d 8910 9fbd d3d0 173c 2a27 a83d
00000130: 67d0 d9bb 2753 39bd 6cf8 523d 654d c93d
00000140: 4b08 593d 62f2 553d e35d 2bbc 6cac 033c
00000150: caef 113e 64bf d5bc 279c 19bd 08ec 203e
00000160: de64 25bc 5e5f 4e3d 5663 18be b49e 08be
00000170: 891b 8b3d e2e1 a03d 126d 863d e8f3 7e3c
00000180: 11e9 dcbd b593 82bd 2ddd 1abe df74 903d
00000190: 068d 5f3c 294e 30bd fd15 fb3c 79ac 4ebc
000001a0: 3421 75bc 04a7 87bd 967e fe3d ec67 0f3e
000001b0: 0f7a 2cbc 4627 a73d 9dcf 913d 237c 2b3c
000001c0: 86cd e83d 015b 723d 4b13 04bd c015 903d
000001d0: c0ec 043e 1bcf d5bc fd16 623d 1ef2 9b3d
000001e0: ab7e 7e3c 9741 db3b 3da6 f5bc 3061 d8bc
000001f0: d6ce f4bc 0bad 26bc cac2 debb 9086 b2bd
00000200: dad0 e83d 55a4 873d f075 94bd e552 fd3d
00000210: 0633 58bc 6522 163d d02c b13c 749f ad39
00000220: 316b 0b3c c656 6e3d 816c 0a3e 09c4 88bd
00000230: 5e67 803b 8900 dd3d 9969 8a3d ec53 f8bd
00000240: 5951 d53d b3c3 333d ab02 1ebd 13c8 8d3c
00000250: c5ad 05be 6c0b c8bd 42e5 b13c c514 3cbc
00000260: 8855 9abd 6924 723c 085d a93c 7fcf 67bc
00000270: e5e1 333d 8988 473b 5aa8 973d 64c0 fb3d
00000280: f697 c1bd 87af ea3b 0aed c5bc 1375 0a3b
00000290: da9f 38bd b20c 2d3d 38e4 9a3d 5cd9 d23c
000002a0: 0719 efbb 97c8 54bc 840c ee3d dc5a 3ebd
000002b0: c622 0abe 2d74 83bc 1625 8f3c e58b 283c
000002c0: 8511 693d c16d b33c 4d07 36bd 14fd 593c
000002d0: ccfe ef3d 863e 143e c23a a53d 39aa 203c
000002e0: d8fc 61bd 979a 0bbe 9915 cc3c ea84 5fbd
000002f0: aea8 a43c f62f 86bc 19af a2bd 550d 603c
00000300: cfba 34bd 2d6a 2e3d 0134 7a3b 5958 c23c
00000310: 4486 d9bd 1532 723c 1617 ca3d ce02 d4bd
00000320: 5ec3 d33d e2d0 22bd 1e44 a93d 1942 5dbd
00000330: 7406 3d3d 4845 adbd 1547 14bd efdb 683d
00000340: a670 843d a221 0b3d 5bce 303d c40b 25bd
00000350: 1e62 f33c 185d c7bc ff4d 993c d70b f93c
00000360: 8e70 ac3d dbc1 bbbd 4223 233d df4b 50bd
00000370: 6ca2 f23d 2fb4 3b3d fb95 86bd 5f4f aa3d
00000380: 3660 47bd 6173 6dbd 2c3a 50bb c8fd 3f3c
00000390: f61e 48bb 0cd7 f7bc 12ba c43d ef0e 543c
000003a0: ec92 45bd 6f23 813d 7ac6 553d b790 c6bc
000003b0: 5ae6 d1bd b182 c5bc b737 ca3d 8370 563d
000003c0: 909b 6abd 2e23 853d d3cf 413d 6291 78bd
000003d0: f82e 00be 8804 413d e7ca 6ebd 97de eabc
000003e0: b429 933d eca0 7cbd cffc 94bc de76 62bd
000003f0: e21d 10be 23cb 3f3a cd22 a5bc cc22 e43c

main.0.bias f4 [64]
-0.067560904 0.0501632 -0.023585869 0.10029027 -0.002744637 -0.0613706 -0.021311425 0.11366119
0.12382979 0.066071846 -0.08434683 0.12062086 0.004682025 -0.03647598 0.038176965 -0.103854656
-0.083078474 0.000111987174 -0.060245544 -0.06516369 0.008754844 0.10128448 -0.0914155 0.069724515
-0.017530875 -0.00563126 0.124413446 -0.044339467 -0.06584021 -0.04915773 0.0772223 -0.048716716
0.06104815 0.023628112 -0.065294355 -0.08711117 -0.023772743 -0.10025613 -0.0805082 -0.023112966
0.1350869 -0.085992 -0.052324716 -0.09083394 0.05557913 -0.097398095 -0.07903729 -0.014834217
-0.07287835 -0.06789458 0.029199809 -0.03177419 0.07006839 -0.07176552 -0.06293558 -0.00017719595
-0.10436261 -0.049066145 0.004971325 -0.085163996 -0.09665886 0.08451668 -0.017757753 -0.09816807
00000000: 5f5d 8abd ed77 4d3d 2737 c1bc fc64 cd3d
00000010: 5edf 33bb bd5f 7bbd 4c95 aebc 33c7 e83d
00000020: 799a fd3d ad50 873d 08be acbd 1208 f73d
00000030: ac6b 993b d667 15bd 735f 1c3d c0b1 d4bd
00000040: 0c25 aabd a8da ea38 08c4 76bd 8a74 85bd
00000050: 7a70 0f3c 3d6e cf3d 0d38 bbbd bacb 8e3d
00000060: e99c 8fbc 6f86 b8bb 7acc fe3d 4d9d 35bd
00000070: 3bd7 86bd 9e59 49bd ba26 9e3d 2e8b 47bd
00000080: a00d 7a3d be8f c13c 0cb9 85bd 5767 b2bd
00000090: 0ebf c2bc 1653 cdbd 7ce1 a4bd 6757 bdbc
000000a0: 3854 0a3e 931c b0bd 7152 56bd 2507 babd
000000b0: f1a6 633d a778 c7bd 4dde a1bd 370b 73bc
000000c0: 3f41 95bd 500c 8bbd 7034 ef3c a725 02bd
000000d0: 0480 8f3d cdf9 92bd 5fe4 80bd adcd 39b9
000000e0: 10bc d5bd 95f9 48bd 7fe6 a23b 766a aebd
000000f0: 15f5 c5bd 1517 ad3d b578 91bc 570c c9bd

main.3.weight f4 [64, 64]
0.12593716 0.062471885 -0.056948785 0.111126296 0.14626832 -0.06850264 -0.07763145 0.08966609
0.029713184 -0.040856607 0.052018683 0.019715587 -0.11121029 -0.11155461 0.105657615 -0.003607964
0.027409265 0.06749766 0.07530624 -0.0054870513 -0.05212833 -0.003115343 0.026678888 0.08137209
0.079304 -0.047732964 0.042587724 -0.08266221 0.054730073 -0.0055520395 -0.015788857 -0.045977995
-0.049426705 0.08359014 0.11129412 0.037559565 0.062233265 -0.05329214 -0.062489446 -0.09958886
0.08341951 -0.072697565 -0.03442071 -0.076923996 0.1128144 -0.02130384 -0.06920417 0.08918223
0.0061894357 -0.016829003 0.061694134 0.12803435 0.001068045 0.08091933 -0.029264417 -0.021220502
-0.07179604 0.018175205 0.0039608683 0.036553957 0.0151620945 -0.0705975 -0.0011717121 0.08951903
-0.07731445 -0.12172135 -0.07526219 0.019070253 0.014825023 0.083702065 -0.034746163 -0.10531611
-0.042632185 -0.02638113 0.06765577 -0.12144106 -0.13755009 -0.018239371 0.012491637 -0.086059935
-0.05146849 -0.02434606 -0.087156005 0.09887692 -0.14527398 0.016420774 -0.09228762 0.028905403
-0.12987207 0.08133498 0.040197406 -0.07216163 0.056992494 -0.09014129 -0.05015586 0.046573218
0.088210106 -0.03885468 0.078829914 -0.119504005 -0.1172398 0.049674425 0.0708425 -0.07698562
-0.055701457 0.038433015 0.124148935 0.10850195 -0.022450864 0.03293612 -0.10884327 0.032383718
-0.060330234 -0.016618816 0.08427307 0.06692132 0.117147 -0.039091118 0.093386464 0.0884712
0.04639623 0.07972395 -0.10281205 -0.062584125 0.11883368 0.031332873 -0.07590899 0.1130274
-0.08274855 -0.034752965 -0.038536627 -0.06366888 -0.037271928 0.047774684 -0.11459889 -0.13365316
-0.077173494 0.011525168 0.032837816 -0.012187217 -0.0027177546 -0.0869317 -0.12516919 0.12757735
-0.009263403 -0.010092902 -0.0037647018 -0.047351133 -0.06323985 -0.026202712 0.00091620046 0.024316292
0.027843902 -0.030909738 -0.08113503 0.10497723 -0.10529982 0.0046972735 -0.056529693 -0.034783214
-0.15836075 0.01614791 0.09966923 -0.11367693 -0.072949365 -0.026702238 -0.017430855 -0.03348565
-0.056844655 0.021570925 -0.0060455874 0.14900011 0.06064893 -0.094136626 -0.031151095 0.068213075
-0.005907904 -0.06601545 0.07780427 0.08132076 0.020774117 -0.10998856 -0.028736504 0.063270845
-0.089367986 -0.020927276 -0.07480452 0.05853043 0.1364589 0.028327612 -0.015184754 -0.0022506102
0.05176973 -0.064032264 -0.033411507 0.06665365 0.09251689 0.09085885 -0.018246586 0.068894334
0.07291846 -0.084842846 0.12874997 0.060570594 -0.04509475 0.011417025 0.069124326 0.1179202
0.14898007 0.09889432 0.068649635 -0.04220122 -0.17155214 -0.044902544 -0.012041324 0.0638213
0.028281437 0.07334617 0.1270051 0.014827169 0.020515792 -0.056930304 -0.15613455 -0.031632103
0.076814994 0.066280745 0.05095933 0.13204685 -0.00942149 -0.084564984 0.06872778 -0.03548868
0.09256529 0.13781652 -0.022785082 -0.08270564 0.010583308 -0.005412945 0.0012178833 -0.05954841
0.020528715 0.13714933 -0.033340022 -0.022296496 0.00971222 -0.058632743 0.012132035 0.109437324
0.023509156 -0.014154122 -0.047829762 -0.002425981 0.0072385245 -0.02657714 -0.029822918 -0.012973734
00000000: acf5 003e 85e2 7f3d 2143 69bd 2f96 e33d
00000010: 5dc7 153e 1d4b 8cbd 3dfd 9ebd dba2 b73d
00000020: 1069 f33c 4259 27bd 8b11 553d 9582 a13c
00000030: 38c2 e3bd be76 e4bd 0563 d83d 9773 6cbb
00000040: 6589 e03c 373c 8a3d 283a 9a3d b9cc b3bb
00000050: 8484 55bd c82a 4cbb af8d da3c 69a6 a63d
00000060: 236a a23d a483 43bd 7770 2e3d ce4a a9bd
00000070: a42c 603d e2ed b5bb a257 81bc 6c53 3cbd
00000080: a873 4abd 4f31 ab3d 2cee e33d 0fd8 193d
00000090: 4fe8 7e3d dc48 5abd eff4 7fbd 3ff5 cbbd
000000a0: d9d7 aa3d 76e2 94bd bbfc 0cbd 548a 9dbd
000000b0: 3c0b e73d 6485 aebc eaba 8dbd 2ca5 b63d
000000c0: c0d0 ca3b fadc 89bc fdb2 7c3d 701b 033e
000000d0: a5fd 8b3a 09b9 a53d eebb efbc 9ed6 adbc
000000e0: cd09 93bd 2be4 943c 2cca 813b 9ab9 153d
000000f0: 6f6a 783c 6c95 90bd 2294 99ba c155 b73d
00000100: 0a57 9ebd 0b49 f9bd 1023 9abd 3839 9c3c
00000110: a7e4 723c fd6b ab3d fe51 0ebd f9af d7bd
00000120: 169f 2ebd 3d1d d8bc 1c8f 8a3d 17b6 f8bd
00000130: eed9 0cbe bc6a 95bc b9a9 4c3c 3140 b0bd
00000140: a0d0 52bd 6371 c7bc d97e b2bd fc7f ca3d
00000150: b4c2 14be dc84 863c 4b01 bdbd 06cb ec3c
00000160: 2ffd 04be f492 a63d 09a6 243d 7ac9 93bd
00000170: f670 693d ff9b b8bd 3b70 4dbd 8fc3 3e3d
00000180: 80a7 b43d 1626 1fbd 9471 a13d 84be f4bd
00000190: 6c1b f0bd 6977 4b3d df15 913d a3aa 9dbd
000001a0: 3627 64bd f06b 1d3d cc41 fe3d 4536 de3d
000001b0: e0ea b7bc 06e8 063d 38e9 debd caa4 043d
000001c0: d61c 77bd 2f24 88bc 5c97 ac3d 0c0e 893d
000001d0: c4ea ef3d 021e 20bd 6741 bf3d 6330 b53d
000001e0: f909 3e3d 4f46 a33d 208f d2bd 1b2c 80bd
000001f0: 135f f33d e656 003d 2c76 9bbd e97a e73d
00000200: 1278 a9bd 2059 0ebd 95d8 1dbd d464 82bd
00000210: 73aa 18bd 63af 433d d3b2 eabd 60dc 08be
00000220: 230d 9ebd 0fd4 3c3c f280 063d e5ac 47bc
00000230: 5b1c 32bb 3f09 b2bd 5a2c 00be a3a3 023e
00000240: 87c5 17bc b35c 25bc 37b9 76bb 43f3 41bd
00000250: e583 81bd 12a7 d6bc 2c2d 703a f632 c73c
00000260: e518 e43c 6b36 fdbc 1f2a a6bd 4dfe d63d
00000270: 6fa7 d7bd 96eb 993b ae8b 67bd d878 0ebd
00000280: 5229 22be 9f48 843c 621f cc3d 73cf e8bd
00000290: 7a66 95bd a7be dabc 27cb 8ebc 4028 09bd
000002a0: f1d5 68bd 82b5 b03c 101a c6bb 7c93 183e
000002b0: 036b 783d b4ca c0bd 9530 ffbc 4cb3 8b3d
000002c0: 1797 c1bb 1c33 87bd d857 9f3d 808b a63d
000002d0: 7b2e aa3c af41 e1bd d168 ebbc 2594 813d
000002e0: 9006 b7bd ae6f abbc 1d33 99bd 9bbd 6f3d
000002f0: e2bb 0b3e 4f0f e83c 79c9 78bc f97e 13bb
00000300: 7f0c 543d 5923 83bd 81da 08bd b581 883d
00000310: 7f79 bd3d 3414 ba3d dd79 95bc 7918 8d3d
00000320: 4656 953d 16c2 adbd 08d7 033e df18 783d
00000330: 46b5 38bd 790e 3b3c 0e91 8d3d 2580 f13d
00000340: 3b8e 183e 1b89 ca3d 2e98 8c3d 30db 2cbd
00000350: 5dab 2fbe bbeb 37bd f948 45bc beb4 823d
00000360: 79ae e73c 8436 963d a00d 023e a7ed 723c
00000370: bc10 a83c c02f 69bd bce1 1fbe aa90 01bd
00000380: 2e51 9d3d 33be 873d bbba 503d 4a37 073e
00000390: 985c 1abc 6830 adbd 26c1 8c3d 945c 11bd
000003a0: df92 bd3d c61f 0d3e c8a7 babc 9361 a9bd
000003b0: 9c65 2d3c 135f b1bb 62a1 9f3a 09e9 73bd
000003c0: d62b a83c e070 0c3e 8c8f 08bd 24a7 b6bc
000003d0: 0120 1f3c e328 70bd 71c5 463c ad20 e03d
000003e0: 4696 c03c b1e6 67bc 24e9 43bd 35fd 1ebb
000003f0: 2531 ed3b 4db8 d9bc 314f f4bc c98f 54bc

main.3.bias f4 [64]
-0.10966482 -0.09925256 0.047640637 -0.04154275 -0.09374939 0.09948421 0.1079855 -0.052317824
0.0041158968 0.02208946 -0.09560788 0.025988692 0.058993213 -0.046121128 0.02769298 -0.045838036
0.12254588 -0.058138195 -0.03107179 0.011196166 0.0004237703 0.036533657 -0.057494693 -0.10706985
0.038669437 0.04034007 -0.04288765 0.05769182 0.12851684 0.049744714 0.10400828 0.0431698
-0.12083723 -0.0119982185 0.022383088 0.083140954 -0.053057756 0.028071692 -0.08803299 -0.097106494
0.0008593448 -0.03836504 0.06063017 -0.05265307 0.13796534 -0.06587936 0.06339815 0.012310168
0.009844335 -0.1040747 0.040255416 0.032162458 -0.09588265 -0.009304413 0.07098477 0.060133852
-0.017293505 0.033652548 -0.035235684 0.03463518 -0.0938847 0.06645358 0.09016857 -0.07541775
00000000: f397 e0bd ed44 cbbd d422 433d bb28 2abd
00000010: aeff bfbd 61be cb3d 8027 dd3d 374b 56bd
00000020: a5de 863b f5f4 b43c 10ce c3bd 3de6 d43c
00000030: dea2 713d 82e9 3cbd 63dc e23c aac0 3bbd
00000040: 56f9 fa3d 5122 6ebd 448a febc 2070 373c
00000050: 7d2d de39 51a4 153d 8e7f 6bbd 7047 dbbd
00000060: d863 1e3d a13b 253d f6aa 2fbd 424e 6c3d
00000070: eb99 033e 1dc1 4b3d 4b02 d53d d1d2 303d
00000080: 8279 f7bd 2d94 44bc bd5c b73c ce45 aa3d
00000090: 1753 59bd 9bf6 e53c a44a b4bd c5df c6bd
000000a0: a745 613a a924 1dbd 5757 783d bfaa 57bd
000000b0: c946 0d3e c2eb 86bd e4d6 813d 96b0 493c
000000c0: 224a 213c 1e25 d5bd dde2 243d c8bc 033d
000000d0: 1f5e c4bd 8971 18bc 7760 913d ea4e 763d
000000e0: 1cab 8dbc 41d7 093d 4b53 10bd 9edd 0d3d
000000f0: 9f46 c0bd d118 883d 4daa b83d 9f74 9abd

main.6.weight f4 [1, 64]
-0.07602703 -0.05839152 0.01077098 -0.040970966 -0.12591185 -0.06037549 0.039968234 0.11624294
-0.038421206 0.03327698 -0.05900612 -0.072648704 -0.059506763 0.017597277 0.07386871 -0.054019026
-0.059230015 -0.038716488 0.009840598 -0.093495324 -0.026429592 -0.0032635585 0.04744069 0.04498572
-0.07902382 0.048726548 -0.117829986 0.0660651 0.045613736 -0.060169425 -0.015962997 -0.07464305
0.07355114 -0.0050937557 0.05689784 -0.007942691 -0.022953404 -0.04551691 0.06874101 0.08607101
-0.0148788635 -0.048430942 -0.08829246 -0.10748416 0.0370193 0.009176781 0.0060237153 -0.098282345
-0.06740141 0.037003797 -0.099816374 0.044238232 0.12407658 0.023244916 0.013135148 0.0013442005
-0.055414252 -0.12985823 -0.09773769 -0.01611542 0.051667377 0.05193678 -0.04323846 0.058571212
00000000: 0fb4 9bbd f22b 6fbd c478 303c 2cd1 27bd
00000010: 09ef 00be 4a4c 77bd bbb5 233d c710 ee3d
00000020: 8e5f 1dbd 714d 083d 67b0 71bd d8c8 94bd
00000030: 5dbd 73bd 2a28 903c 7a48 973d 0e43 5dbd
00000040: 2c9b 72bd 2e95 1ebd 763a 213c 7a7a bfbd
00000050: df82 d8bc 6de1 55bb 2b51 423d f242 383d
00000060: 3ed7 a1bd 7d95 473d d950 f1bd 244d 873d
00000070: 78d5 3a3d 3774 76bd d5c4 82bc 75de 98bd
00000080: fba1 963d 85e9 a6bb b60d 693d 1022 02bc
00000090: c708 bcbc f06f 3abd 16c8 8c3d ff45 b03d
000000a0: 7ac6 73bc 865f 46bd add2 b4bd a820 dcbd
000000b0: 8da1 173d 365a 163c 9662 c53b 4148 c9bd
000000c0: c009 8abd 4b91 173d 876c ccbd 2633 353d
000000d0: dd1b fe3d 1f6c be3c ce34 573c e22f b03a
000000e0: 0efa 62bd 8ef9 04be b32a c8bd 7c04 84bc
000000f0: 2ca1 533d a9bb 543d d01a 31bd 5ee8 6f3d
