models/VANE_link_pred_n2v_model/Discriminator_epoch_7.pth (torch, 35999 bytes, 5 tensors)

main.0.weight f4 [64, 64]
00000000: 62e4 eabd b574 e6bd a31e 223c 46f0 d93c
00000010: 111b d6bd db54 19be 6a92 d0bc 2e77 b2ba
00000020: 93ab 763c 6705 813d eb82 b8bd 35f1 2e3b
00000030: c598 babd 775f da3c 4378 d4bc acb7 8ebd
00000040: 9c42 8cbd 3d1c 53bd c1ae 3abd ea89 073d
00000050: 984e 53bd 92b7 c83c e5aa 4d3d 4bd4 90bc
00000060: d1b9 b7bd 62ec 7cbc 74eb 09be 0eec 70bb
00000070: 41e1 a5bd 9cb1 893d 7b09 b13d a4de 323c
00000080: 7c71 b03d cb09 0d3d a457 60bd 78f8 ec3d
00000090: 94a5 dbbd 7c27 dbbc a0f3 acbd 72fd 87bb
000000a0: a6df b5bd e9ce 923d 385e acbb a3d1 1fbc
000000b0: 582d a83d 8ddb 82bc 2489 eb3c c5cc 79b8
000000c0: 7040 bc3d cf12 9b3d b262 aebd e14a cbbd
000000d0: 6c9a b4bd 49ce ff3d 0948 153e 8e4f a3bd
000000e0: 8771 3e3d a508 5ebd 7f55 073e f234 ab3d
000000f0: 61dd 513d b771 34bd 0581 77bd e7dc b8bd
00000100: 03b0 bcbc d998 093e 7151 023e a00c 19bc
00000110: ea5a 03bc 3633 bc3d 4cf7 17be de3c 103d
00000120: 5320 5c3d d817 a0bd cf02 b73b 1bf1 a43d
00000130: 2c92 2fbc 0626 2fbd 597c 343d 5e9b c73d
00000140: 7492 513d 9f69 643d a2ed 30bc 845c f8b9
00000150: 2eea 143e 1cbf 6fbc 7ab2 23bd cffb 213e
00000160: a384 07bc 0f1b 613d 7a58 1ebe 02ca 08be
00000170: 4ad8 813d cadd a03d 453f 7d3d 5d9d 9c3c
00000180: 2c78 e3bd 275f 7fbd 6c4c 1fbe 7972 9d3d
00000190: aa74 2b3c db74 33bd c54d 0c3d a840 84bc
000001a0: 95a0 8cbb d959 71bd 6bda 013e b75b fe3d
000001b0: 9c02 5fbc 5049 b33d 3340 913d 9570 693c
000001c0: 8cb1 f23d b8e4 443d cfd3 13bd 023c 873d
000001d0: e3eb fb3d 477a bbbc 4ab0 373d deba 893d
000001e0: 2881 bd3b 7e83 573b 4cae f3bc ddee d7bc
000001f0: d4e2 d3bc bf22 ef3a 8f9f 62bc c951 acbd
00000200: a798 e83d 2b2d 883d f186 93bd f322 fb3d
00000210: 5a6a 6bbc 333f 193d 2a8f b83c 9122 6f3a
00000220: b242 093c 240e 723d 44eb 093e 3b56 87bd
00000230: de0c 4f3b 8a4f dd3d 0ae3 883d 1bb3 f8bd
00000240: 778b d43d 9c1f 383d bcb4 21bd 6873 8f3c
00000250: 3ad8 04be 7e44 c5bd cdfa af3c 31b1 2ebc
00000260: 6cbb 98bd 6ae1 6d3c 32e4 ae3c c545 65bc
00000270: 6daf 343d 4e07 493b 3437 963d bc7b fb3d
00000280: 18d6 bfbd e0f9 133c 2b21 cbbc 59cb 223b
00000290: f9ce 39bd 271a 2e3d 81a6 993d 3bea c83c
000002a0: 813e fdbb 3e58 5fbc dd06 ef3d 4423 3bbd
000002b0: a565 0abe efc3 74bc 3a99 873c 6b8e 243c
000002c0: b07d 6a3d 44a7 b53c 178b 35bd 0b16 513c
000002d0: bb49 ef3d 535c 143e 36ad a53d 1e4c 203c
000002e0: 061f 5ebd efcf 0bbe c9bf c73c 417d 60bd
000002f0: a0b5 a33c 01cc 86bc 414b a3bd 6c30 5c3c
00000300: a939 0dbd b612 363d dc50 59bb 0115 ba3c
00000310: 1642 ecbd 744c 753c d541 d33d 6853 dcbd
00000320: 2370 c53d d3ca 20bd 10b2 aa3d 9a0c 51bd
00000330: 07e6 253d 7c37 a6bd 561d 17bd 1faf 813d
00000340: 711d 8d3d 1003 033d 8e44 2f3d ee72 34bd
00000350: 429f b13c 186c 0cbd d09f a13c 66eb fd3c
00000360: 6f01 a73d 8d41 bfbd 50b0 633d ca6e 3bbd
00000370: c22c f93d 2d90 193d 07bf 7bbd 6b17 9e3d
00000380: 20bf 35bd 9e1c 83bd 02a9 f83b c8d4 ca3b
00000390: 4220 89bb f130 f0bc a3fb c83d 663a 723c
000003a0: 7804 6cbd e381 823d b1f6 593d c906 05bb
000003b0: 48a4 c7bd 8e73 f0bc d1c4 ca3d 9c59 583d
000003c0: f7a2 78bd f93c a33d 341d 613d 7fa4 68bd
000003d0: 8eeb f5bd 774d 0f3d cb21 5abd bbf8 84bc
000003e0: 4df8 953d 4f8d 6fbd ddaf 57bc 5180 68bd
000003f0: 62b7 0cbe 54dc 3bbc 27c4 7dbc 3aa1 e23c
-0.11469342 -0.11252729 0.009895 0.02660383 -0.10454381 -0.14973776 -0.02546044 -0.001361584
0.015055555 0.062998585 -0.090093456 0.0026694064 -0.0911117 0.02665685 -0.025936252 -0.069686264
-0.06848642 -0.051540602 -0.045576815 0.03309051 -0.051588625 0.024501596 0.050211806 -0.017679354
-0.089709885 -0.015437217 -0.13468724 -0.0036761793 -0.080996044 0.067233294 0.086443864 0.0109173395
0.086153954 0.034433167 -0.05477108 0.11570829 -0.10724941 -0.026752226 -0.08444905 -0.004150086
-0.08880548 0.07168371 -0.005260255 -0.009754571 0.08211774 -0.01597383 0.028751917 -5.9556933e-05
0.09191978 0.07571947 -0.085149184 -0.099263914 -0.08818516 0.12490518 0.1457826 -0.07974158
0.046494987 -0.054207463 0.13216208 0.08359708 0.051236514 -0.04405376 -0.060425777 -0.09026509
-0.023033148 0.13437213 0.1272638 -0.009341389 -0.008017281 0.09189455 -0.1484043 0.035214297
0.053741764 -0.07817048 0.0055850516 0.080538 -0.010716002 -0.04276087 0.0440639 0.09746431
0.05116506 0.05576479 -0.010798844 -0.00047371176 0.14542457 -0.014632966 -0.03996513 0.15818714
-0.008271369 0.054957446 -0.15463439 -0.1335831 0.06340082 0.07854803 0.061827917 0.019118005
-0.11106905 -0.062346604 -0.15556496 0.076878496 0.010464827 -0.043812614 0.034253854 -0.016144112
-0.004291604 -0.058923576 0.12680976 0.12419837 -0.013611462 0.087542176 0.07092323 0.014248033
0.11850271 0.048069686 -0.03609067 0.066032425 0.12300851 -0.022885455 0.044845857 0.06725095
0.005783219 0.0032884772 -0.029746197 -0.026359016 -0.025864996 0.0018244608 -0.013831987 -0.08414037
0.11357241 0.0664924 -0.072034724 0.122625254 -0.014368618 0.037413787 0.022529203 0.0009122277
0.008377718 0.059095517 0.13468653 -0.06608244 0.0031593363 0.108061865 0.06683929 -0.12143537
0.10378163 0.04495202 -0.039479002 0.017511085 -0.12973109 -0.096322045 0.021481896 -0.010662363
-0.07457623 0.014519075 0.021349046 -0.013993685 0.04411261 0.003067452 0.07334748 0.1227946
-0.09367007 0.009031743 -0.02479609 0.0024840443 -0.0453634 0.04250541 0.07502461 0.024525752
-0.0077283983 -0.013631878 0.11671231 -0.04568793 -0.13515337 -0.014939292 0.016552556 0.010043721
0.05724877 0.022174485 -0.0443221 0.012761603 0.11683985 0.14488344 0.08089678 0.009783773
-0.054228805 -0.13653539 0.024383442 -0.05480695 0.019984066 -0.016454699 -0.07973338 0.013439279
-0.034478817 0.044451438 -0.0033159768 0.022715094 -0.115360424 0.014971841 0.10315291 -0.10758096
0.09640529 -0.03925593 0.08334744 -0.05103741 0.040502574 -0.081160516 -0.03689321 0.0633223
0.06890381 0.031985343 0.04278999 -0.044054918 0.021682385 -0.034282774 0.019729525 0.030996036
0.0815457 -0.09338675 0.055588067 -0.045759954 0.1216674 0.037491012 -0.061461475 0.077193104
-0.044371724 -0.06401943 0.0075885067 0.0061899163 -0.0041847536 -0.029320212 0.09813621 0.014784431
-0.05762145 0.0637243 0.05321378 -0.0020298234 -0.09748131 -0.029351976 0.09900821 0.052819833
-0.06070229 0.07970614 0.05495949 -0.0567975 -0.12007819 0.034985986 -0.053254884 -0.016231885
0.0732275 -0.05848437 -0.013164488 -0.056762997 -0.1374183 -0.011466105 -0.015488661 0.02766477

main.0.bias f4 [64]
00000000: 7100 8bbd 52c8 5c3d 3e75 d2bc 10bf c93d
00000010: f22a 07bb 18dc 7cbd 23cf a2bc dfa5 e83d
00000020: f551 fb3d fa5a 903d 1ea4 acbd ffc2 ec3d
00000030: aa56 a93b cbe7 1dbd 47a8 163d e6cc d4bd
00000040: 92b9 b7bd f017 56bb 0d9b 74bd 8c1c 86bd
00000050: 880a 7d3b abf9 bf3d b66c b6bd 5d2b 8b3d
00000060: 3d1f 9fbc 60ed 893c 1ca9 f03d d557 37bd
00000070: c90c 87bd 836b 49bd b2b4 a63d c7a8 3abd
00000080: 1a92 623d 1bd4 903c 3f39 87bd 321a b4bd
00000090: dc32 3dbc fb6e c7bd 0083 a4bd 6833 ebbc
000000a0: 5372 093e a821 9abd 8c8e 3bbd 0a12 bbbd
000000b0: 20c8 653d 1369 c7bd b554 9ebd c43e 7bbc
000000c0: 10f7 94bd fd6a 83bd c4ff ca3c 6446 dbbc
000000d0: 8fbd 853d 401a 83bd f2ba 81bd 5d57 82bb
000000e0: efa8 d5bd 4c88 33bd d3e7 883b ef14 afbd
000000f0: 802a c8bd bc12 a53d 8add bbbc d7ac cabd
-0.067871936 0.053901978 -0.025690671 0.098508954 -0.0020624963 -0.061733335 -0.019874161 0.113597624
0.122714914 0.070486024 -0.0842974 0.1156063 0.005167802 -0.038551133 0.036781576 -0.10390644
-0.089709416 -0.0032668076 -0.05971818 -0.06548414 0.0038611013 0.09373792 -0.08907454 0.0679538
-0.019424075 0.016836822 0.11751005 -0.044761498 -0.065942355 -0.049174797 0.08139934 -0.045571115
0.055315115 0.017679265 -0.06602716 -0.08794059 -0.01154777 -0.09737965 -0.08032799 -0.028711036
0.13422517 -0.07525951 -0.04579024 -0.091343 0.056099057 -0.09736838 -0.07731 -0.015334789
-0.07273686 -0.06416891 0.024780162 -0.026766963 0.06530296 -0.06401491 -0.06334485 -0.0039776997
-0.10432612 -0.043831155 0.004178026 -0.08548915 -0.09773731 0.08060214 -0.022932786 -0.09896248

main.3.weight f4 [64, 64]
00000000: e805 013e 3dd3 7f3d ec93 69bd c969 e33d
00000010: 8c7b 153e 164c 8cbd 5fc2 9ebd c16f b73d
00000020: 07bb f23c 6796 28bd 4931 553d 056c a03c
00000030: a241 e1bd 60b0 e4bd 079f d73d 1549 6abb
00000040: 2117 e03c abb7 893d 195f 9a3d 5928 b2bb
00000050: d7c8 54bd 2656 4ebb 5b7a db3c b6be a53d
00000060: 5c5d a23d 5d80 3fbd 94f0 2c3d 5150 a9bd
00000070: e2f5 5f3d f795 b5bb 768b 7fbc bea5 3dbd
00000080: e083 4abd 7442 ab3d 6111 e43d 0ed5 193d
00000090: 6da4 7c3d 2909 5abd d929 80bd 76d8 cbbd
000000a0: c8e3 aa3d 425d 94bd 3c49 0ebd c795 9dbd
000000b0: 3702 e73d be19 aebc f0a9 8dbd 7d66 b63d
000000c0: f270 cd3b e832 88bc 468b 7e3d 1831 033e
000000d0: f1d6 0b3a dbe3 a53d 1f95 efbc f6cd aebc
000000e0: 7a09 93bd c199 933c f286 743b c13d 153d
000000f0: 6517 783c 89f4 8fbd b124 b8ba 1b62 b73d
00000100: 2caf 9cbd 60ea f1bd 1a30 9bbd 4ad6 ce3c
00000110: 5338 fb3b 5315 ab3d d2cc 0fbd 315c d1bd
00000120: 9adf 2cbd 1afd 1abd 900d 8b3d 88bc 01be
00000130: b92c 00be f54a a7bc b5d2 293b aa8c b0bd
00000140: 7491 54bd 691c ddbc 3efe adbd 4db1 cc3d
00000150: 6efb 0ebe f54f ac3c e6df b9bd c359 893c
00000160: b11c 06be 2a48 c73d 5a27 093d 1918 94bd
00000170: f938 653d 4697 b8bd 7781 36bd ee79 2f3d
00000180: 4613 bc3d 556a 15bd 1868 a33d 2a53 f5bd
00000190: fc81 fdbd 548a 543d 913c 903d 2613 9cbd
000001a0: d848 3bbd 884a 393d 40a0 f43d 7038 dc3d
000001b0: 14d6 9bbc f2c3 063d 70c0 dcbd d3ab f53c
000001c0: d7e5 73bd ca3d 61bc f193 c93d 76bf 8b3d
000001d0: 1696 dd3d 7e0f 1bbd f03e bf3d ebec af3d
000001e0: 6bdf 3d3d 9fa0 a03d fd9d debd 0432 86bd
000001f0: 8b18 f33d b2b7 1b3d d2fc a8bd 2bba e83d
00000200: 46aa a9bd b115 11bd e4b2 1dbd c968 82bd
00000210: f506 16bd 22d1 433d 58b2 eabd 299f 08be
00000220: 5c1e 9cbd 2fd9 4c3c 231e 063d 347d 29bc
00000230: bb79 63bb 9694 b1bd 2415 fcbd cd9d 023e
00000240: 67f3 13bc fb5f 13bc 93db 7ebb 8a8c 42bd
00000250: 7eee 83bd f74b d4bc e7a0 ea3a 84e8 d73c
00000260: a6eb e53c 4ccf 02bd e7c9 a5bd c8fb d63d
00000270: f496 d7bd 42e0 993b 9158 6cbd 0d71 0dbd
00000280: 1be8 23be 7834 793c 48db cb3d bf86 e8bd
00000290: e308 93bd 1fd9 dcbc c992 8ebc ea2b 0cbd
000002a0: ad52 69bd 2a76 ad3c 83e6 9fbb 9ab2 183e
000002b0: 8db4 753d acc5 c0bd 411e ffbc c671 8c3d
000002c0: f217 c3bb 6d89 87bd 458f 993d e60a a53d
000002d0: b6cc b63c 22a3 e1bd 757b ecbc e4b2 823d
000002e0: 2ee3 b6bd 53a3 a0bc 103f 98bd 6d21 703d
000002f0: f2b9 0b3e a0e8 e03c ad83 5fbc 93f1 09bb
00000300: 6f49 5b3d 09de 8cbd 3b23 09bd 7d8a 7c3d
00000310: ad01 b73d fc5c ba3d 4639 a5bc 1f62 6a3d
00000320: 7fb2 763d e2b9 c9bd d38c 043e 1781 4a3d
00000330: eac5 20bd 7b0e 083c caed 733d 4fe3 f93d
00000340: 2fec 183e 9936 b83d 82f7 8f3d b79a 29bd
00000350: 60f2 30be ffec 60bd 2f78 c0bb b42e 573d
00000360: 505a e13c 3d44 633d e98c ea3d 71ec 7f3c
00000370: 0bc6 af3c 626f 66bd eef0 26be 623c 14bd
00000380: 33a0 9c3d a160 803d 201f 7b3d 5011 083e
00000390: daf4 67bc 3548 aabd 93b1 8f3d e8a3 0ebd
000003a0: d077 ab3d 46d5 103e ba63 cfbc bc17 a8bd
000003b0: 8f98 5a3b 0a92 15bb 5d43 4f3b 7cb2 7ebd
000003c0: 2118 c43c a235 0e3e 028b 08bd 1b42 b8bc
000003d0: b68d bbbb ee6c 6cbd a77f 4f3c ddc9 dc3d
000003e0: 7c01 c23c ef38 bcbc 7d8d 55bd bd5b 303a
000003f0: 8b72 023c 9d4e 0abd efd2 33bd d049 0abc
0.1259991 0.062457312 -0.057025835 0.11104161 0.1459791 -0.0685045 -0.07751917 0.08956862
0.029630197 -0.04115906 0.052048955 0.019582758 -0.109988466 -0.11166453 0.10528379 -0.0035749127
0.027354779 0.06724485 0.0753767 -0.0054369387 -0.05194935 -0.0031484454 0.026791742 0.08093016
0.07927963 -0.046753276 0.04222162 -0.08267272 0.05467785 -0.005541559 -0.015597215 -0.046300642
-0.049442172 0.08362284 0.11136127 0.0375567 0.061680246 -0.053231392 -0.06257982 -0.09953396
0.08344227 -0.0724435 -0.03473781 -0.076945834 0.11279719 -0.02125251 -0.06917179 0.08906267
0.0062695676 -0.016625836 0.06214454 0.12811697 0.0005334458 0.081001006 -0.029245911 -0.021338444
-0.07179542 0.018017652 0.003731188 0.036435846 0.015142296 -0.07029063 -0.0014049021 0.08954259
-0.07650599 -0.118122816 -0.07577534 0.025248665 0.0076666265 0.08353677 -0.03510744 -0.10222662
-0.04220543 -0.037839033 0.06789696 -0.12669575 -0.1251706 -0.020421484 0.0025912945 -0.086205795
-0.051896527 -0.026991086 -0.084957585 0.09994755 -0.139631 0.02103422 -0.09075908 0.016766435
-0.13096882 0.09730561 0.033484794 -0.07231159 0.055962536 -0.09013228 -0.04455706 0.04284089
0.091833636 -0.03647836 0.07978839 -0.11978753 -0.12378308 0.051889732 0.07042802 -0.0762084
-0.045723766 0.045237094 0.11944628 0.10752952 -0.019022979 0.03290171 -0.10778892 0.029989159
-0.059545364 -0.013747642 0.09842671 0.06823628 0.10819642 -0.03785657 0.09338176 0.085901104
0.046355646 0.07843136 -0.108699776 -0.065525085 0.118699156 0.038016982 -0.08251347 0.11363634
-0.0828443 -0.035421077 -0.03850068 -0.063676424 -0.03662773 0.047806866 -0.114597976 -0.13341965
-0.07622978 0.0125029525 0.032743584 -0.010344792 -0.0034710008 -0.08670919 -0.1230872 0.12755509
-0.0090302 -0.0089950515 -0.00388882 -0.04749731 -0.06441973 -0.02591513 0.0017900736 0.02635599
0.028066467 -0.031935975 -0.080951504 0.10497242 -0.10526839 0.004695923 -0.05770165 -0.03453164
-0.1600651 0.015210263 0.09953934 -0.11353826 -0.071794294 -0.026959 -0.017403977 -0.034221567
-0.05696361 0.02117451 -0.004879774 0.14911881 0.05998664 -0.09412703 -0.031142356 0.06857638
-0.0059537822 -0.06618009 0.074980296 0.08058719 0.02231441 -0.11017443 -0.028867463 0.06381777
-0.0893005 -0.019609129 -0.07433903 0.058625627 0.13645151 0.027454674 -0.013642234 -0.002104853
0.05353683 -0.06878287 -0.033480864 0.06165551 0.089358665 0.090997666 -0.020168912 0.05722248
0.06022882 -0.098499075 0.12944345 0.049439516 -0.039251246 0.008304234 0.059552945 0.12201559
0.14933847 0.08994789 0.0702963 -0.041407313 -0.17279959 -0.054913517 -0.005873702 0.052534774
0.027508885 0.055485 0.11452658 0.015620337 0.021456739 -0.056258567 -0.16302845 -0.036190398
0.07647743 0.062684305 0.06130898 0.13287854 -0.014157498 -0.08314554 0.070162915 -0.034824282
0.08372462 0.14143857 -0.025316108 -0.08207652 0.0033355092 -0.0022822642 0.0031625845 -0.062181935
0.023937287 0.13887647 -0.033335693 -0.022492459 -0.0057236804 -0.05772107 0.012664712 0.1078069
0.023682348 -0.022976367 -0.052136887 0.0006727537 0.0079618795 -0.033766378 -0.043902334 -0.00844045

main.3.bias f4 [64]
00000000: bee1 e0bd dfb6 ccbd a2ca 443d f78c 5dbd
00000010: e10b c2bd c8b2 cd3d e82d d93d 2e98 56bd
00000020: c704 233c 6069 9d3c be44 cabd 19cf 193d
00000030: 96cf 843d 426d 39bd 6944 003d 211b 35bd
00000040: ace8 fe3d ce28 4bbd 1b94 fdbc b9f7 2d3c
00000050: c369 99bb f00d 163d d4b7 6cbd 5ac1 dbbd
00000060: 154a 0f3d 1356 273d a615 1fbd b67e 5c3d
00000070: d5ad 053e e207 3c3d 9748 d23d 751c 263d
00000080: 1dc2 f5bd e7bf 64bc 0bfd b43c 3abe ad3d
00000090: 8a13 4dbd bf36 bc3c d4ee adbd b17b c6bd
000000a0: 8679 723a f68a 3bbd 7198 863d 9e5a 57bd
000000b0: 6a88 0c3e 2259 86bd e3cf 7e3d 97b0 343c
000000c0: 4d1a 9c3a bf84 d3bd df13 223d a05a 133d
000000d0: 1d50 c6bd 8ba8 11bc b3c3 8c3d 5066 813d
000000e0: 1907 c8bc 2768 003d 9e19 c2bc f6f4 233d
000000f0: c003 c0bd 79e6 7c3d 2302 ab3d 5053 9abd
-0.10980557 -0.099958174 0.04804481 -0.054089513 -0.09474922 0.100438654 0.10604459 -0.052391224
0.0099498695 0.019215286 -0.09876393 0.03755102 0.064849064 -0.045270212 0.03131524 -0.044215325
0.124467224 -0.04959946 -0.030954411 0.010618144 -0.004681797 0.036634386 -0.0577925 -0.10730238
0.03498276 0.04085357 -0.038839005 0.05383178 0.13054593 0.045905955 0.10267752 0.040554482
-0.11999915 -0.013961769 0.022093317 0.084835485 -0.050067462 0.022975324 -0.084928185 -0.09691561
0.0009249676 -0.04578682 0.06572045 -0.052576654 0.13723913 -0.065599695 0.062209975 0.01102843
0.0011909694 -0.10328054 0.03956973 0.0359751 -0.09683249 -0.008890281 0.06873264 0.06318343
-0.024417447 0.031349327 -0.023693856 0.040028535 -0.09375715 0.061743233 0.08350017 -0.07535422

main.6.weight f4 [1, 64]
00000000: 9027 9bbd 9fd7 5bbd 6aed 2f3c dd2e 03bd
00000010: 0972 00be 37d6 63bd 0689 013d 3e4d eb3d
00000020: 02ee 2dbd 3a7e ad3c 9acb 6dbd eb27 a0bd
00000030: c8ff 6bbd b84c 943c 459c 893d 41de 61bd
00000040: 5773 47bd 388f 36bd 28b0 2d3c 3ecf bebd
00000050: 9fa2 a9bc 0e8e 2d3a 09cc 523d a4f4 3b3d
00000060: 5fde 94bd f575 813d 6991 e3bd 370b 573d
00000070: d52a 253d 3f54 86bd 28da 58ba e443 5dbd
00000080: bc4c bc3d 6a22 023b deaa 6b3d cfc5 25bc
00000090: 8ece f7bc b845 36bd bb5f 703d 9500 ab3d
000000a0: a6b3 51bc 879b 3cbd f606 b0bd a859 dbbd
000000b0: f43e 1c3d ef4e 8b3c 9bf4 8b3a acf2 c8bd
000000c0: 34df 83bd 1153 2a3d 64ae c9bd 5a22 663d
000000d0: 1348 f53d 5b6b c13c fa20 793c 2463 8f3c
000000e0: d519 56bd 0289 03be a909 cbbd 16dd 1dbd
000000f0: 8afb 5f3d 4ab4 3d3d fedf 34bd 0522 6f3d
-0.07575905 -0.05367243 0.010737756 -0.032027114 -0.12543501 -0.055624213 0.031624816 0.11489342
-0.04246331 0.021178354 -0.058055498 -0.07820114 -0.05761698 0.018102989 0.06719259 -0.0551436
-0.04869398 -0.044570178 0.010601081 -0.09316872 -0.020707427 0.0006620594 0.051464114 0.045887604
-0.072689764 0.06321327 -0.11111719 0.05250093 0.04032405 -0.065590374 -0.0008272254 -0.054019824
0.091943234 0.0019856938 0.057536 -0.010117962 -0.03024986 -0.044500083 0.058685046 0.083497204
-0.012799179 -0.04604676 -0.08595078 -0.1071046 0.038145974 0.017005412 0.0010677757 -0.09811911
-0.06439057 0.041583125 -0.098477155 0.056185104 0.11976638 0.023610761 0.015205616 0.017503329
-0.05227073 -0.12845233 -0.09913952 -0.038540922 0.054683246 0.046314515 -0.044158928 0.058382053
