models/VANE_link_pred_n2v_model/Discriminator_epoch_2.pth (torch, 35999 bytes, 5 tensors)

main.0.weight f4 [64, 64]
0	0xbdd930ef	-0.106050365
1	0xbde334b0	-0.11094034
2	0x3c87023b	0.016480556
3	0x3d087c51	0.033321682
4	0xbde0db43	-0.10979321
5	0xbe0dcb14	-0.13847
6	0xbcb42b46	-0.02199329
7	0x3bf8cc4d	0.007592714
8	0x3c4755ca	0.01216645
9	0x3d7c5ea3	0.06161369
10	0xbdb53adf	-0.088491194
11	0x3bd11083	0.006380142
12	0xbdb6925b	-0.08914634
13	0x3cdaaa66	0.02669258
14	0xbce30e2d	-0.02771672
15	0xbd70699b	-0.058694463
16	0xbd615cde	-0.055020206
17	0xbd477882	-0.04869891
18	0xbd05a531	-0.032628242
19	0x3d0a1708	0.03371337
20	0xbd5ef3b3	-0.05443163
21	0x3cf17cc6	0.029478442
22	0x3d3b3b17	0.04571065
23	0xbc614424	-0.013749156
24	0xbdb5e5cb	-0.0888172
25	0xbc36c83b	-0.011156137
26	0xbe043f47	-0.12914763
27	0xbbaf5860	-0.0053511113
28	0xbdab6887	-0.083695464
29	0x3d711afc	0.058863625
30	0x3dbb0734	0.09132233
31	0x3c46c2d6	0.012131413
32	0x3dac7b88	0.08421999
33	0x3cfbdb5d	0.030744249
34	0xbd3c0c30	-0.04591006
35	0x3de257d1	0.11051906
36	0xbdd04bfc	-0.10170743
37	0xbcda90ae	-0.026680317
38	0xbdb12c25	-0.08650998
39	0xbb6a1ab7	-0.003572149
40	0xbdcde802	-0.100540176
41	0x3d9803a5	0.0742257
42	0xbb25306a	-0.002520586
43	0xbb689f0a	-0.0035495185
44	0x3dae84b7	0.08521407
45	0xbc665d25	-0.014060293
46	0x3ca46aea	0.020070512
47	0xb976854b	-0.00023510044
48	0x3dba1b60	0.090872526
49	0x3d98439b	0.0743477
50	0xbdb0b618	-0.086284816
51	0xbdc903b9	-0.09815163
52	0xbdbd88fd	-0.09254644
53	0x3dfaa9c4	0.122394115
54	0x3e1125c9	0.1417457
55	0xbdb0696f	-0.0861386
56	0x3d22ec98	0.039776415
57	0xbd4f920e	-0.050676398
58	0x3e08b638	0.13350761
59	0x3d97658e	0.07392417
60	0x3d54e525	0.05197634
61	0xbd3950b7	-0.04524299
62	0xbd6d176a	-0.057883658
63	0xbdbb19f6	-0.09135811
64	0x3b603856	0.0034213266
65	0x3da033e4	0.07822397
66	0x3d195f79	0.037444565
67	0xbaf37b31	-0.0018576143
68	0x3d11f40f	0.035633143
69	0x3d9c1c69	0.07622606
70	0xbe1dc65c	-0.154077
71	0xbd17f168	-0.037095457
72	0x3cf064fc	0.029345028
73	0x3bde3452	0.0067811394
74	0xbcc65310	-0.02420953
75	0xbc581fde	-0.0131911915
76	0x3ad4e673	0.0016242996
77	0xbd51bf95	-0.051208097
78	0x3d8b8f40	0.06814432
79	0x3d3d98db	0.046288352
80	0xbb194e0e	-0.0023392471
81	0x3cad16e0	0.021129072
82	0xbd3d2f44	-0.046187654
83	0x3cb938de	0.022610124
84	0x3e16bb68	0.14719927
85	0xbd254fb1	-0.040359203
86	0xbda8d1c8	-0.082431376
87	0x3e172edd	0.1476397
88	0xbad6544a	-0.0016352024
89	0x3d947682	0.07249166
90	0xbde4c7a6	-0.111708924
91	0xbde760d7	-0.112977676
92	0x3d8aa61b	0.06769963
93	0x3e1dff88	0.15429509
94	0x3d3f643a	0.046726443
95	0x3d9ae55c	0.07563278
96	0xbdca45c2	-0.098765865
97	0xbde0b3a1	-0.109717615
98	0xbe0ef892	-0.1396201
99	0x3d93b4cb	0.07212218
100	0x3cc7e70a	0.02440216
101	0xbd1e35cd	-0.038625527
102	0x3d9c26a9	0.07624561
103	0xbcbcda56	-0.02305333
104	0x3d7587b6	0.059943877
105	0xbc87d29b	-0.016579917
106	0x3d915f36	0.07098238
107	0x3dd7e0b4	0.105409056
108	0xbd430b6e	-0.047618322
109	0x3d3d3c0a	0.046199836
110	0x3cd8a27c	0.026444666
111	0x3d430b76	0.047618352
112	0x3d6b20a7	0.057404187
113	0x3d7ceddc	0.061750278
114	0xbdce0092	-0.100587025
115	0x3d8fd4bc	0.07022998
116	0x3dff2eaf	0.12460076
117	0xbd378fe4	-0.04481496
118	0x3d8b4086	0.06799416
119	0x3d7675bf	0.060170885
120	0x3d2a0c68	0.041515738
121	0xbb845190	-0.0040380433
122	0x3c670af4	0.0141017325
123	0xbd5e66a1	-0.054297093
124	0xbd9d6aea	-0.07686408
125	0xbc54416e	-0.012955053
126	0x3ce636b2	0.028102253
127	0xbe1b6026	-0.15173396
128	0x3df9a0b2	0.12188853
129	0x3d8c9668	0.06864625
130	0xbd97dd6b	-0.07415279
131	0x3e0a012c	0.1347701
132	0xbc73cf53	-0.014880973
133	0x3d13a100	0.036042213
134	0x3cfa3e62	0.030547325
135	0xbc0b9aa9	-0.008520761
136	0x3cbb4f31	0.02286491
137	0x3d3b1adb	0.04567991
138	0x3e129038	0.14312828
139	0xbd810647	-0.063000254
140	0x3c0c297f	0.008554815
141	0x3ddf846e	0.10913931
142	0x3d8d9c4c	0.06914577
143	0xbde8c9e6	-0.11366634
144	0x3ddc9061	0.107697256
145	0x3d3b528c	0.04573302
146	0xbc97e572	-0.018542025
147	0x3ca6ea38	0.020375356
148	0xbe091927	-0.13388501
149	0xbdc50b27	-0.09621268
150	0x3ca1f30c	0.019769214
151	0xbcbd5cfb	-0.023115626
152	0xbdb16bcd	-0.086631395
153	0x3c9e8079	0.01934837
154	0x3c152dd6	0.009105166
155	0xbc4e7f24	-0.012603555
156	0x3d34e7d0	0.044166386
157	0xbb0a9b49	-0.0021149686
158	0x3d9a1adc	0.07524654
159	0x3dfd6874	0.123734385
160	0xbdcee9e9	-0.101032086
161	0x3c10e745	0.008844201
162	0xbcdc1cc0	-0.026869178
163	0x35bc0e00	1.4011166e-06
164	0xbd018691	-0.031622473
165	0x3d378d83	0.04481269
166	0x3da4de2e	0.0805019
167	0x3d0aef9d	0.03391992
168	0xbc583ac0	-0.013197601
169	0xbc2a5c91	-0.010398046
170	0x3dd6f3d0	0.10495722
171	0xbd1d3336	-0.038378917
172	0xbdfa67b9	-0.12226815
173	0xbca2328a	-0.01979949
174	0x3c88019f	0.016602335
175	0x3c928f46	0.017890584
176	0x3d6d3b11	0.05791766
177	0x3c1adae0	0.009451598
178	0xbd3654b6	-0.04451438
179	0x3cce231a	0.025163222
180	0x3deaee5d	0.114712454
181	0x3e1337fa	0.14376822
182	0x3d981638	0.07426113
183	0x3bebcbea	0.0071959393
184	0xbd911763	-0.07084539
185	0xbe018411	-0.12648036
186	0x3ccc47ab	0.024936518
187	0xbd3f45b9	-0.046697352
188	0x3cbcb2f3	0.023034548
189	0xbc83a561	-0.01607007
190	0xbdaaba01	-0.08336259
191	0x3d045b7e	0.032313816
192	0xbcef1f78	-0.02918981
193	0x3dce4a93	0.10072818
194	0x3d698928	0.057015568
195	0x3d202cba	0.039105155
196	0xbdfc3ddf	-0.123164885
197	0x3c603fa5	0.013687049
198	0x3dc1a403	0.09455111
199	0xbdca1f04	-0.09869197
200	0x3de7044a	0.11280115
201	0xbd8ccd74	-0.068751246
202	0x3dd6e86c	0.1049355
203	0xbd02aad9	-0.031901214
204	0x3d99ccfb	0.075098
205	0xbda3e353	-0.08002343
206	0xbd7113ea	-0.058856882
207	0x3decb0ac	0.11557135
208	0x3dc8a2ad	0.09796653
209	0x3d389588	0.04506448
210	0x3d557f49	0.05212334
211	0xbd41e32d	-0.047335792
212	0x3d00ea34	0.031473354
213	0xbc2a076c	-0.010377746
214	0x3c9448e1	0.018101158
215	0x3d1e32b4	0.038622573
216	0x3db40f3c	0.08791968
217	0xbd8ea772	-0.069655314
218	0x3d4d0ad5	0.05005916
219	0xbd005285	-0.031328697
220	0x3de37c63	0.11107709
221	0x3b8c1cbb	0.004275886
222	0xbd6eba0c	-0.058282897
223	0x3d59c167	0.05316296
224	0xbdc948ae	-0.09828316
225	0xbd9748d2	-0.07386936
226	0x3bc4df0a	0.0060080336
227	0x3bb439ac	0.005500039
228	0xbba5b102	-0.0050565014
229	0xbcea1d53	-0.028578436
230	0x3db87dfb	0.09008404
231	0x3c0b7e0d	0.00851394
232	0xbd6adb9e	-0.05733835
233	0x3d66046c	0.05615656
234	0x3d955fc7	0.07293659
235	0xbccd1484	-0.025034197
236	0xbd76feab	-0.060301464
237	0xbcdef36e	-0.027215686
238	0x3dcec1e9	0.10095579
239	0x3d456a5a	0.048197128
240	0xbd0c9914	-0.034325674
241	0x3d7cdc0f	0.0617333
242	0x3da140be	0.07873677
243	0xbd8920bd	-0.066956975
244	0xbdfa0701	-0.12208367
245	0x3db5ed8e	0.088832006
246	0xbd5c9801	-0.0538559
247	0xbca88e3c	-0.020575635
248	0x3d85bacf	0.065297715
249	0xbd5c03e5	-0.05371465
250	0xbccf159f	-0.025278864
251	0xbd760af7	-0.06006905
252	0xbdc9356b	-0.09824642
253	0xbc924aec	-0.017857991
254	0xbbf47e2c	-0.00746133
255	0x3d763296	0.060106836

main.0.bias f4 [64]
0	0xbd968e60	-0.073513746
1	0x3d853ddb	0.065059386
2	0xbc5e4e43	-0.013568464
3	0x3dd0006e	0.10156332
4	0xbcb320bb	-0.021866193
5	0xbd4b2dd4	-0.049604252
6	0xbd927ea1	-0.07153059
7	0x3e052996	0.13004145
8	0x3dfdab98	0.123862445
9	0x3db34f3a	0.08755346
10	0xbd9a7106	-0.07541089
11	0x3df877ef	0.121322505
12	0xbc41c5c9	-0.011826941
13	0xbd014a71	-0.031565133
14	0x3d0b3f41	0.03399587
15	0xbdc09f22	-0.09405352
16	0xbdd2165d	-0.10258172
17	0xbc630335	-0.013855745
18	0xbd81a15d	-0.06329606
19	0xbda8813d	-0.08227775
20	0x3cfb61b5	0.030686239
21	0x3dd500b7	0.10400527
22	0xbdae40de	-0.08508466
23	0x3d8edfbe	0.06976269
24	0xbbb5ad61	-0.00554435
25	0xbbcac2ea	-0.0061877863
26	0x3dd33b31	0.10314024
27	0xbd290438	-0.04126379
28	0xbd7855e5	-0.06062879
29	0xbcee1b2c	-0.029065691
30	0x3d8a7941	0.067614086
31	0xbd2f48cc	-0.042794034
32	0x3cf2a72c	0.02962073
33	0x3cd3c876	0.025852423
34	0xbd9e0f36	-0.07717745
35	0xbda069d1	-0.07832683
36	0xbcf51c95	-0.029920856
37	0xbdb41891	-0.08793748
38	0xbda675af	-0.08127915
39	0xbc3c8322	-0.011505874
40	0x3e11393b	0.14181988
41	0xbd9d20a8	-0.07672244
42	0xbd4db93b	-0.050225478
43	0xbda75417	-0.08170336
44	0x3d802fa2	0.06259085
45	0xbdbe31bd	-0.092868306
46	0xbd96fc93	-0.073723935
47	0xbb14b336	-0.0022689826
48	0xbd85fc01	-0.065422066
49	0xbd791df8	-0.060819596
50	0x3d4696b4	0.048483565
51	0xbcfe3bc0	-0.03103435
52	0x3d651594	0.05592878
53	0xbd8a7b98	-0.06761855
54	0xbd7f5e3c	-0.06234573
55	0x3d0b430e	0.033999495
56	0xbdbfb5b2	-0.093608275
57	0xbd8c4d4e	-0.06850682
58	0x3cba5815	0.022747079
59	0xbdbfd450	-0.09366667
60	0xbdaed00b	-0.08535775
61	0x3db2c148	0.08728272
62	0xbc4c18af	-0.012457057
63	0xbdc57bd3	-0.09642758

main.3.weight f4 [64, 64]
0	0x3df9e7dd	0.122024275
1	0x3dd99d47	0.106257014
2	0xbd5482c3	-0.051882517
3	0x3dd6a57f	0.104807846
4	0x3e071ac1	0.131938
5	0xbd8d83f9	-0.069099374
6	0xbda91540	-0.08256006
7	0x3dab3020	0.083587885
8	0x3d60f7c0	0.054923773
9	0xbd253cef	-0.040341314
10	0x3d5b16aa	0.05348841
11	0x3d26268c	0.040564105
12	0xbda24059	-0.079224296
13	0xbdd89301	-0.10574914
14	0x3dd8b391	0.105811246
15	0xbaaaae08	-0.0013021836
16	0x3ccb8edd	0.024848396
17	0x3d2b4853	0.04181702
18	0x3d98a28e	0.0745288
19	0xbc2c3cbd	-0.010512528
20	0xbd42a60b	-0.047521632
21	0xbbd9b6f2	-0.0066441232
22	0x3cbfa9ac	0.023396336
23	0x3dab3a7b	0.08360764
24	0x3da38c7e	0.07985781
25	0xbca5de24	-0.020247526
26	0x3d79fc80	0.06103182
27	0xbda3f48f	-0.0800563
28	0x3d5d40bd	0.054016817
29	0xbb7458ba	-0.003728433
30	0x3cb798dd	0.022411758
31	0xbd3a70d3	-0.045517754
32	0xbd3405d9	-0.04395089
33	0x3daa89c1	0.08327056
34	0x3de36818	0.11103839
35	0x3d273a91	0.040827338
36	0x3d9e9784	0.07743743
37	0xbd5686d0	-0.05237466
38	0xbd802748	-0.06257492
39	0xbde79a55	-0.113087334
40	0x3d874a61	0.066059835
41	0xbd94bd17	-0.072626285
42	0xbc895431	-0.016763778
43	0xbda2f1b3	-0.07956257
44	0x3dec036c	0.1152409
45	0xbc8d8feb	-0.01728054
46	0xbd8e4fd0	-0.06948817
47	0x3d9c47ee	0.07630907
48	0x3bf99a53	0.007617274
49	0xbc9cdf53	-0.019149458
50	0x3da85791	0.08219827
51	0x3df48e28	0.11941177
52	0x3cdc4e95	0.02689294
53	0x3da5b4bd	0.08091114
54	0xbce4fa8f	-0.027951507
55	0xbca196c7	-0.019725217
56	0xbd91385b	-0.07090827
57	0x3d01f9d2	0.031732388
58	0x3caf84e4	0.021425672
59	0x3d075de9	0.033048544
60	0x3c475ffb	0.01216888
61	0xbd6ebc1b	-0.05828486
62	0xbbef36c1	-0.0073002283
63	0x3db30988	0.08742052
64	0xbdb3f0f5	-0.08786193
65	0xbdf9c2ac	-0.12195334
66	0xbd9e622f	-0.07733571
67	0x3caa38a2	0.020778958
68	0x3c0d3249	0.008617946
69	0x3dadf6fd	0.08494375
70	0xbd366fa1	-0.04454005
71	0xbdd606a9	-0.10450489
72	0xbd166a34	-0.036722377
73	0xbd0d675e	-0.034522407
74	0x3d8f2b4f	0.06990682
75	0xbdfcd494	-0.123452336
76	0xbdfe906c	-0.1242989
77	0xbc9c2dbd	-0.019064778
78	0x3bc69388	0.0060600676
79	0xbd9f03e1	-0.07764412
80	0xbd69bf1b	-0.057067018
81	0xbc8ba68d	-0.017047191
82	0xbdbcfa31	-0.09227408
83	0x3dbb0959	0.09132642
84	0xbe0809ac	-0.1328494
85	0x3cdf934b	0.027291914
86	0xbdba8c3e	-0.0910878
87	0x3cb0af4e	0.021567967
88	0xbe04f863	-0.12985377
89	0x3db54a8e	0.08852111
90	0x3d07a7f4	0.033119157
91	0xbd93cfbc	-0.072173566
92	0x3d61a739	0.055091117
93	0xbdabfaa7	-0.083974175
94	0xbd28f803	-0.041252147
95	0x3d24d6cb	0.040243905
96	0x3dc4328b	0.09579953
97	0xbcf640b4	-0.03006015
98	0x3d804507	0.06263166
99	0xbde3637e	-0.11102961
100	0xbdda04b0	-0.10645425
101	0x3d6e242b	0.05813996
102	0x3d8ab414	0.067726284
103	0xbd929224	-0.0715678
104	0xbd6181cb	-0.05505542
105	0x3d2c3726	0.04204478
106	0x3defe027	0.117126755
107	0x3de3f539	0.11130757
108	0xbc955f24	-0.018233843
109	0x3d0c619e	0.034272783
110	0xbddc1cca	-0.107476786
111	0x3d306ac0	0.043070555
112	0xbd735740	-0.05940938
113	0xbc616817	-0.013757727
114	0x3db802cb	0.08984908
115	0x3d88eac1	0.06685401
116	0x3df64535	0.12024919
117	0xbd1f7e66	-0.038938902
118	0x3dcedd58	0.10100812
119	0x3db3c9db	0.08778735
120	0x3d50eb25	0.0510055
121	0x3d9f23a8	0.07770473
122	0xbdd3e572	-0.103464976
123	0xbd93ec03	-0.0722275
124	0x3df52c6e	0.11971365
125	0x3d140ced	0.03614514
126	0xbd88c058	-0.06677312
127	0x3dea7a8d	0.11449156
128	0xbdab2159	-0.0835597
129	0xbcbfc6a0	-0.023410141
130	0xbd12b4fb	-0.035817128
131	0xbd6eda02	-0.058313377
132	0xbca2e601	-0.019885065
133	0x3d43d7d4	0.04781325
134	0xbdd4fe95	-0.1040012
135	0xbdfb2968	-0.12263757
136	0xbd55cc89	-0.052197013
137	0xbc57e307	-0.013176686
138	0x3d0614fc	0.032734856
139	0x3bb84031	0.0056228866
140	0x3c837cfc	0.016050808
141	0xbdb7cc46	-0.08974509
142	0xbe023951	-0.12717177
143	0x3e020b5c	0.12699646
144	0xbc2fa189	-0.010719665
145	0xbc813d25	-0.015776226
146	0xbba66a00	-0.005078554
147	0xbd43bb3e	-0.04778599
148	0xbd8d07ed	-0.06886277
149	0xbd00ffef	-0.031494077
150	0xba76613f	-0.0009398646
151	0x3d4dd15f	0.0502485
152	0x3cdc2409	0.026872652
153	0xbc821351	-0.015878351
154	0xbd85eff2	-0.065399066
155	0x3dd810b2	0.105500594
156	0xbdd6e380	-0.10492611
157	0x3c0329a6	0.008005535
158	0xbd6947ee	-0.056953363
159	0xbce3b93a	-0.027798284
160	0xbe0826d8	-0.13296068
161	0x3d2c376a	0.042045034
162	0x3dc7b0b5	0.09750501
163	0xbde5a46e	-0.11213003
164	0xbcf1df7d	-0.029525513
165	0xbce6ea29	-0.028187828
166	0xbc8a4336	-0.016877752
167	0xbd3b654e	-0.04575091
168	0xbd69d515	-0.057087976
169	0x3cb04124	0.021515436
170	0xbcc48f9a	-0.023994256
171	0x3e178806	0.14797983
172	0x3d86f671	0.06589974
173	0xbdc13697	-0.0943424
174	0xbd062182	-0.0327468
175	0x3d833f0d	0.0640851
176	0xbbc678fc	-0.006056903
177	0xbd884217	-0.06653231
178	0x3d8e9150	0.0696131
179	0x3dabb38c	0.08383855
180	0x3ce10dcf	0.027472405
181	0xbde279ed	-0.11058412
182	0xbced841d	-0.02899366
183	0x3d9b5494	0.07584491
184	0xbdb837aa	-0.08994992
185	0xbd3c0f3d	-0.04591297
186	0xbd229084	-0.039688602
187	0x3d720a79	0.05909202
188	0x3e0ace08	0.13555157
189	0x3d4ab787	0.04949143
190	0xbc9e1aaa	-0.019299824
191	0x3b821c42	0.0039706538
192	0x3d223d6d	0.03960936
193	0xbc41e13a	-0.011833483
194	0xbd02d790	-0.031943858
195	0x3d5f13f8	0.054462403
196	0x3d7b0d3d	0.061291922
197	0x3dba0978	0.09083837
198	0xbd53b7e9	-0.051689062
199	0x3d6f1fd8	0.058379978
200	0x3d626ab3	0.055277538
201	0xbde5112c	-0.11184916
202	0x3e0770f8	0.13226688
203	0x3d6b39f9	0.057428334
204	0xbc294afd	-0.01033282
205	0x3cc0860c	0.023501419
206	0x3d7b1dca	0.061307706
207	0x3e092055	0.1339124
208	0x3e117497	0.14204632
209	0x3dc9eb5d	0.09859345
210	0x3d8b8f94	0.06814495
211	0xbd398a60	-0.04529798
212	0xbe07be2f	-0.13256143
213	0xbda21b82	-0.07915403
214	0xbc2df326	-0.010617053
215	0x3d10d602	0.035360344
216	0x3c88a921	0.01668221
217	0x3df6b9e7	0.12047177
218	0x3dbd71b3	0.09250202
219	0x3c8259c1	0.015911939
220	0x3c8fb22f	0.01754102
221	0xbd60ed9f	-0.054914113
222	0xbdf97c36	-0.121818945
223	0xbcf0895b	-0.029362371
224	0x3d837267	0.06418305
225	0x3d4e10ed	0.05030911
226	0x3d340faf	0.04396027
227	0x3e0bf57a	0.1366786
228	0xbc38f23e	-0.011288224
229	0xbda22835	-0.07917825
230	0x3d834b98	0.06410903
231	0xbdb796fc	-0.08964345
232	0x3d48d3b2	0.049030013
233	0x3e0fa764	0.14028698
234	0xbd4a4472	-0.04938168
235	0xbdab7f88	-0.08373934
236	0x3b3f27b9	0.0029167964
237	0x3bc6e9cc	0.006070351
238	0x3b7ae999	0.0038286208
239	0xbd8c060d	-0.068370916
240	0x3cbb5963	0.022869771
241	0x3e0fd7ae	0.14047119
242	0xbcdc7902	-0.02691317
243	0xbd3a97a4	-0.045554772
244	0x3ca259af	0.019818155
245	0xbd71fd56	-0.05907949
246	0x3ca188fd	0.019718641
247	0x3ddcbdd4	0.10778394
248	0x3cd7f3b1	0.026361318
249	0x3d5bb3e1	0.053638343
250	0xbd691965	-0.056908984
251	0xbc46bf5f	-0.012130587
252	0x3c2e84f4	0.010651816
253	0xbd62d128	-0.05537525
254	0xbc722833	-0.014780092
255	0xbcc74d6a	-0.024328906

main.3.bias f4 [64]
0	0xbdd8c7bc	-0.10584971
1	0xbdd70b7f	-0.105002396
2	0x3d824d13	0.06362357
3	0xbd8a4b1c	-0.06752607
4	0xbdafa75b	-0.085768424
5	0x3dd66ad3	0.10469594
6	0x3dc9e520	0.09858155
7	0xbd5604df	-0.05225074
8	0x3b79d19a	0.0038119317
9	0x3c8f17c3	0.017467385
10	0xbdde4bf2	-0.10854329
11	0x3d54da47	0.051965978
12	0x3d5f0056	0.05444368
13	0xbd373006	-0.044723533
14	0x3d004835	0.031318862
15	0xbd404150	-0.046937287
16	0x3de5fdec	0.112300724
17	0xbd296389	-0.04135469
18	0xbd01f0c2	-0.031723745
19	0x3c8d3e07	0.017241491
20	0x3acc8d2b	0.0015606036
21	0x3d14b716	0.036307417
22	0xbd67f8ce	-0.056633763
23	0xbddd8520	-0.10816407
24	0x3d4719ff	0.048608776
25	0x3d4da32b	0.050204437
26	0xbd2449fd	-0.040109623
27	0x3d87cdcd	0.0663105
28	0x3e086d93	0.13323049
29	0x3d101dcf	0.035184678
30	0x3db195b9	0.086711355
31	0x3c85b93d	0.01632368
32	0xbde8b91e	-0.11363433
33	0xbcab4bfc	-0.020910256
34	0x3cefcbd7	0.029272003
35	0x3dacbf8c	0.08434972
36	0xbd623f1f	-0.05523598
37	0x3d5447d3	0.05182631
38	0xbd9fc510	-0.078012586
39	0xbdc6d16f	-0.09707915
40	0xbd00beb4	-0.03143187
41	0xbd80413d	-0.06262443
42	0x3db41c13	0.08794417
43	0xbd5876fb	-0.052847844
44	0x3e0a7c48	0.13523972
45	0xbd86ac98	-0.065758884
46	0x3d589718	0.05287847
47	0x3ca553fc	0.020181648
48	0xbb2c372d	-0.0026278005
49	0xbdd721d0	-0.10504496
50	0x3ceb2f93	0.028709209
51	0x3d1c8511	0.03821284
52	0xbdc1dcd1	-0.094659455
53	0xbc133c23	-0.008986506
54	0x3d8713e8	0.06595594
55	0x3d8b7efd	0.068113305
56	0xbc7ffd6a	-0.015624383
57	0x3cf149e2	0.029454175
58	0xbd450a82	-0.048105724
59	0x3d1c7b97	0.038203802
60	0xbdbe8f93	-0.09304728
61	0x3d86ceb3	0.065823935
62	0x3de01845	0.10942129
63	0xbd992098	-0.0747692

main.6.weight f4 [1, 64]
0	0xbd9d7d43	-0.076899074
1	0xbd80eb70	-0.06294906
2	0xba787c41	-0.00094789645
3	0xbd2eddd2	-0.042692013
4	0xbe0390cc	-0.12848204
5	0xbd8f942f	-0.07010686
6	0x3d414630	0.047186077
7	0x3dedeb9b	0.11617204
8	0xbd3467e9	-0.04404441
9	0x3d315887	0.043297317
10	0xbd23593b	-0.03988002
11	0xbda5bcb7	-0.08092635
12	0xbd8f6a2f	-0.07002675
13	0x3c968259	0.018372701
14	0x3dc95f06	0.098325774
15	0xbd68b02e	-0.056808643
16	0xbd5a593c	-0.053307757
17	0xbd880b41	-0.066427715
18	0x3c1fa9bf	0.0097450605
19	0xbdc0ae26	-0.09408216
20	0xbceeb715	-0.029140035
21	0x3bebd928	0.007197518
22	0x3d3e1dfd	0.046415318
23	0x3d49fccd	0.049313355
24	0xbdb2e19b	-0.08734437
25	0x3da36c59	0.0797965
26	0xbdf03e17	-0.11730593
27	0x3d9c215a	0.07623549
28	0x3d6df7e7	0.058097746
29	0xbd9c3adb	-0.07628413
30	0xb7954760	-1.779542e-05
31	0xbda80b9c	-0.08205339
32	0x3db9c3ff	0.090705864
33	0xbc9d909c	-0.019233994
34	0x3d87b802	0.066268936
35	0xbcc1a12e	-0.023636427
36	0xbd1a7f4f	-0.037719067
37	0xbd28362c	-0.041067287
38	0x3d886aea	0.06661017
39	0x3db1d7d7	0.08683746
40	0xbcc38d51	-0.023871096
41	0xbd04f4d5	-0.032460053
42	0xbdaa0111	-0.08300985
43	0xbde12890	-0.10994065
44	0x3d58463d	0.05280136
45	0x3c680de9	0.014163473
46	0x3b1572d4	0.0022804039
47	0xbdce3314	-0.10068336
48	0xbdaad2db	-0.08340999
49	0x3d574850	0.052559197
50	0xbdc9751b	-0.09836789
51	0x3d952d80	0.07284069
52	0x3e0196c1	0.12655164
53	0x3cbfc409	0.023408907
54	0x3cbeda4e	0.023297455
55	0x3d0ceed9	0.03440747
56	0xbd8e98fa	-0.06962772
57	0xbe060469	-0.1308762
58	0xbdd5513d	-0.104158856
59	0xbd2b8358	-0.041873306
60	0x3d6624e1	0.056187514
61	0x3d7c53a3	0.0616032
62	0xbd8e8c32	-0.06960334
63	0x3d6f4c90	0.058422625
