models/VANE_link_pred_n2v_model/Discriminator_epoch_8.pth (torch, 35999 bytes, 5 tensors)

main.0.weight f4 [64, 64]
-0.113571405 -0.11255386 0.010116848 0.025804149 -0.1051765 -0.14820476 -0.02524053 -0.0001241208
0.013160747 0.062121406 -0.09006459 0.003098548 -0.09088068 0.027246434 -0.026157552 -0.0691968
-0.06957356 -0.05135769 -0.044581622 0.03344853 -0.05279261 0.02664642 0.050243534 -0.017931921
-0.08937117 -0.015363023 -0.1342279 -0.0036300507 -0.081763126 0.06796858 0.086290404 0.010949831
0.0872036 0.034791645 -0.0570525 0.116562374 -0.107375726 -0.027243212 -0.08378767 -0.0050797192
-0.08830282 0.07149786 -0.005493726 -0.010441678 0.08115874 -0.015138866 0.029540572 0.00017075779
0.091340795 0.075653575 -0.08512177 -0.09970332 -0.087769605 0.1245708 0.14574909 -0.08002337
0.046367157 -0.054500137 0.13303453 0.08338859 0.050900225 -0.044948023 -0.061271016 -0.08999951
-0.017720768 0.13153711 0.12615122 -0.014956138 -0.013380795 0.09809953 -0.14639027 0.037529368
0.038159013 -0.07973411 0.0038014438 0.08130992 -0.014364063 -0.037258446 0.040168524 0.10068963
0.050227344 0.05991597 -0.01079897 -0.0013749884 0.14105086 -0.00739876 -0.041606255 0.15554228
-0.0057770167 0.058229107 -0.15107672 -0.13180171 0.063699834 0.079613596 0.061201558 0.021198587
-0.106960624 -0.06328881 -0.15947737 0.080047086 0.009931994 -0.040764008 0.03902684 -0.017015498
-0.004623411 -0.05761738 0.12686951 0.119011074 -0.0155188 0.090366244 0.073883265 0.016622083
0.1181448 0.05130085 -0.03871542 0.060617745 0.12240906 -0.02506652 0.043010354 0.0708256
0.0035616534 0.0033834302 -0.026387393 -0.027155453 -0.026219048 0.0021005562 -0.015062612 -0.08491524
0.11391147 0.06668091 -0.07178016 0.122075856 -0.014848079 0.038078822 0.022924472 0.0017340252
0.0076229973 0.059168525 0.13449164 -0.06569022 0.0034934036 0.10828213 0.06692779 -0.121595845
0.103243016 0.0453863 -0.03948434 0.017963793 -0.12978327 -0.09581203 0.021267753 -0.010582547
-0.07417738 0.0142235495 0.02167728 -0.013981652 0.043674327 0.0033212889 0.07310735 0.122914664
-0.09269535 0.01015222 -0.025323182 0.0027221942 -0.045882642 0.042511426 0.07481995 0.023670249
-0.0079140235 -0.014229168 0.11628697 -0.045523997 -0.13546063 -0.014593598 0.01642272 0.00981418
0.057120733 0.022387573 -0.044489767 0.012497298 0.116928786 0.14483874 0.08102807 0.009813743
-0.053804792 -0.13636601 0.024403367 -0.054900218 0.019823976 -0.01669446 -0.08005299 0.013314447
-0.03102135 0.044936974 -0.0070931343 0.020116357 -0.11291479 0.015459061 0.10812896 -0.10771106
0.095634356 -0.038010206 0.07875963 -0.049815323 0.052095916 -0.083334304 -0.037503667 0.05869952
0.06569946 0.024683848 0.044195935 -0.044866696 0.01426071 -0.039291874 0.020594934 0.037137628
0.08291826 -0.09813043 0.054075737 -0.051958878 0.11222515 0.03782259 -0.05114153 0.06830359
-0.045035638 -0.0597422 0.015456137 0.0072816596 -0.003350975 -0.039491657 0.097500436 -0.004978619
-0.052154496 0.06385598 0.054972906 -0.011684277 -0.100417845 -0.03500317 0.108419836 0.051592506
-0.06370287 0.07164347 0.061633702 -0.046510153 -0.11856047 0.041426577 -0.056233294 -0.02306847
0.07296504 -0.063155055 -0.007484536 -0.05112807 -0.13328552 -0.022731442 -0.024021389 0.027311532
00000000: 2098 e8bd a382 e6bd 23c1 253c 3963 d33c
00000010: c766 d7bd fdc2 17be 3ac5 cebc 6c26 02b9
00000020: 2ca0 573c 0473 7e3d c973 b8bd 0211 4b3b
00000030: a61f babd ea33 df3c 5d48 d6bc 0db7 8dbd
00000040: 957c 8ebd 715c 52bd 389b 36bd 5301 093d
00000050: 103d 58bd 9849 da3c 2acc 4d3d f7e5 92bc
00000060: 3b08 b7bd 30b5 7bbc 0a73 09be 25e6 6dbb
00000070: 6d73 a7bd 1c33 8b3d 06b9 b03d ec66 333c
00000080: cd97 b23d af81 0e3d e2af 69bd 41b8 ee3d
00000090: cee7 dbbd 282d dfbc df98 abbd c673 a6bb
000000a0: 1cd8 b4bd 786d 923d b704 b4bb 9213 2bbc
000000b0: 8e36 a63d 0209 78bc 12ff f13c 720d 3339
000000c0: e210 bb3d 43f0 9a3d 5354 aebd 4131 ccbd
000000d0: 8dc0 b3bd fa1e ff3d 403f 153e 4be3 a3bd
000000e0: 7deb 3d3d 893b 5fbd 343a 083e a3c7 aa3d
000000f0: c17c 503d 6b1b 38bd 51f7 7abd aa51 b8bd
00000100: 252b 91bc aab1 063e c92d 013e 970a 75bc
00000110: 1f3b 5bbc 68e8 c83d 55e7 15be 65b8 193d
00000120: a04c 1c3d a34b a3bd a521 793b d185 a63d
00000130: 3f57 6bbc 509c 18bd c087 243d 5d36 ce3d
00000140: 30bb 4d3d 736a 753d 2aee 30bc f438 b4ba
00000150: a36f 103e 4c71 f2bb 526b 2abd 7a46 1f3e
00000160: 214d bdbb a581 6e3d dbb3 1abe 07f7 06be
00000170: 0f75 823d 740c a33d 7cae 7a3d a9a8 ad3c
00000180: 2c0e dbbd 909d 81bd 094e 23be baef a33d
00000190: cdb9 223c 29f8 26bd 9cda 1f3d 1664 8bbc
000001a0: fc7f 97bb 3400 6cbd 15ea 013e 14bc f33d
000001b0: 9142 7ebc f011 b93d 1c50 973d 092b 883c
000001c0: e7f5 f13d d720 523d 0f94 1ebd 504a 783d
000001d0: 9ab1 fa3d 4d58 cdbc a02b 303d 030d 913d
000001e0: a16a 693b 8abc 5d3b 602a d8bc 1d75 debc
000001f0: 54c9 d6bc 7ca9 093b 2cc9 76bc 0be8 adbd
00000200: 6b4a e93d 0090 883d 7a01 93bd e802 fa3d
00000210: 5b45 73bc 8af8 1b3d 1acc bb3c 3b48 e33a
00000220: 56ca f93b b25a 723d 2db8 093e 9888 86bd
00000230: 96f1 643b 05c3 dd3d 7011 893d 3e07 f9bd
00000240: 1371 d33d fce6 393d 55ba 21bd ce28 933c
00000250: e8e5 04be 1939 c4bd b639 ae3c 6b62 2dbc
00000260: 4fea 97bd e409 693c 8d94 b13c 4d13 65bc
00000270: dae3 323d fba9 593b 4eb9 953d afba fb3d
00000280: 0fd7 bdbd 7f55 263c 9072 cfbc d766 323b
00000290: 70ef 3bbd 7620 2e3d 343b 993d 1ce8 c13c
000002a0: d2a9 01bc 7521 69bc dd27 ee3d 5f77 3abd
000002b0: 31b6 0abe fd19 6fbc f188 863c a8cb 203c
000002c0: 6ef7 693d 2566 b73c e73a 36bd 78c1 4c3c
000002d0: 5c78 ef3d 9b50 143e 0bf2 a53d d2c9 203c
000002e0: 6a62 5cbd 88a3 0bbe 92e9 c73c 0ddf 60bd
000002f0: e465 a23c d2c2 88bc d2f2 a3bd d724 5a3c
00000300: 7c20 febc d50f 383d 866d e8bb 0fcb a43c
00000310: df3f e7bd 0048 7d3c b772 dd3d 9e97 dcbd
00000320: f2db c33d 97b0 1bbd bb4c a13d 270b 4cbd
00000330: 8762 553d 2dab aabd 729d 19bd e86e 703d
00000340: 708d 863d c835 ca3c cc06 353d 24c6 37bd
00000350: c1a5 693c 84f0 20bd b5b6 a83c a01d 183d
00000360: 0cd1 a93d 9bf8 c8bd 857e 5d3d d5d2 54bd
00000370: 4dd6 e53d dceb 1a3d c879 51bd c1e2 8b3d
00000380: 4a77 38bd 3db4 74bd bd3b 7d3c fd9a ee3b
00000390: 089c 5bbb 01c2 21bd 4fae c73d af23 a3bb
000003a0: f49f 55bd edc6 823d 452b 613d 696f 3fbc
000003b0: dfa7 cdbd 7c5f 0fbd 380b de3d aa52 533d
000003c0: a676 82bd d0b9 923d 9f73 7c3d 6e81 3ebd
000003d0: d5cf f2bd eaae 293d e254 66bd 17fa bcbc
000003e0: b26e 953d 7057 81bd d740 f5bb ab6b 51bd
000003f0: 007c 08be 4a37 babc 81c8 c4bc 6fbc df3c

main.0.bias f4 [64]
-0.06810128 0.052971058 -0.026368149 0.09715927 -0.012077644 -0.061900947 -0.030875755 0.10816082
0.12326917 0.066619374 -0.080368474 0.11300221 0.0077223224 -0.039444294 0.028797586 -0.10096586
-0.09406335 0.00647619 -0.059028395 -0.06667649 0.0017029673 0.09407553 -0.09156816 0.0699266
-0.01950695 0.012217739 0.122392826 -0.04478862 -0.06588877 -0.049157076 0.07421317 -0.019266276
0.05899 0.023688091 -0.06606448 -0.08650756 -0.012386143 -0.09363415 -0.079328135 -0.02013715
0.12709455 -0.076514065 -0.051192865 -0.09124771 0.05551899 -0.096776016 -0.07842815 -0.013425795
-0.06765896 -0.06394471 0.023494735 -0.023016602 0.06810184 -0.066006996 -0.059188407 -0.003945088
-0.104904674 -0.032802444 0.008101547 -0.08588543 -0.098259754 0.076044075 -0.028591994 -0.10005612
00000000: af78 8bbd 2ef8 583d 0402 d8bc 70fb c63d
00000010: 4fe1 45bc d98b 7dbd 27ef fcbc 6c83 dd3d
00000020: 8c74 fc3d bd6f 883d 3a98 a4bd b46d e73d
00000030: 890b fd3b 5790 21bd eae8 eb3c 30c7 cebd
00000040: 49a4 c0bd 3836 d43b c2c7 71bd af8d 88bd
00000050: 1a36 df3a acaa c03d 1688 bbbd ad35 8f3d
00000060: 0acd 9fbc e92c 483c 17a9 fa3d 4674 37bd
00000070: b1f0 86bd ee58 49bd 13fd 973d 4fd4 9dbc
00000080: 809f 713d 870d c23c d04c 87bd e02a b1bd
00000090: 40ef 4abc 43c3 bfbd ca76 a2bd aaf6 a4bc
000000a0: 1325 023e 68b3 9cbd 9caf 51bd 14e0 babd
000000b0: e167 633d 8132 c6bd f09e a0bd def7 5bbc
000000c0: c890 8abd 72f5 82bd 0878 c03c 508d bcbc
000000d0: fa78 8b3d ad2e 87bd 8b6f 72bd cc45 81bb
000000e0: 43d8 d6bd db5b 06bd 5abc 043c b3e4 afbd
000000f0: 693c c9bd ffbc 9b3d c239 eabc 39ea ccbd

main.3.weight f4 [64, 64]
0.12600258 0.0622941 -0.057031296 0.1107979 0.14616492 -0.06850835 -0.07831916 0.08945449
0.029515896 -0.041125998 0.05215315 0.019524077 -0.1095733 -0.111776024 0.10534915 -0.0031906501
0.027261179 0.06666239 0.075427815 -0.0054796017 -0.05180934 -0.0034052748 0.026760746 0.08096123
0.0792898 -0.048195157 0.04234228 -0.082620904 0.054647587 -0.0055002873 -0.01600242 -0.04722999
-0.049673174 0.083169214 0.111457154 0.03763806 0.061749704 -0.05317706 -0.06254269 -0.09976482
0.083124824 -0.07244778 -0.03478822 -0.07693055 0.11243399 -0.021054592 -0.069205634 0.08893007
0.0064574694 -0.016585823 0.062123176 0.12821752 0.0010760891 0.08099043 -0.029401641 -0.021358237
-0.07179772 0.017681241 0.0034485396 0.036392104 0.015088366 -0.07076245 -0.001006132 0.08942682
-0.076925814 -0.11913823 -0.07590658 0.02106208 0.01719978 0.0833763 -0.039511357 -0.10000439
-0.042631473 -0.03412627 0.068841465 -0.1266032 -0.121920526 -0.022349915 0.006322924 -0.0827154
-0.054554492 -0.03197874 -0.08354489 0.099395186 -0.13515292 0.019125588 -0.091220625 0.022278711
-0.13133433 0.08604241 0.040049963 -0.0722123 0.055557873 -0.08913796 -0.049686868 0.032013778
0.08991964 -0.04921357 0.08178951 -0.117592804 -0.11399346 0.053963937 0.07046678 -0.081097685
-0.055829186 0.04536476 0.11824854 0.10769155 -0.025231281 0.033580914 -0.10889564 0.026923625
-0.056916904 -0.013304398 0.09548214 0.06929367 0.11935409 -0.038111355 0.090887435 0.085312776
0.046135947 0.07682326 -0.11381126 -0.066258326 0.11823313 0.027339201 -0.07630766 0.1128765
-0.08276966 -0.036289435 -0.03847711 -0.06265675 -0.04022504 0.04787728 -0.11390377 -0.13336873
-0.07939759 0.008578228 0.032439586 -0.009997242 -0.0006434135 -0.086413406 -0.12202578 0.12739855
-0.008647065 -0.008431353 -0.0038406062 -0.04745183 -0.065326 -0.025158484 0.0029108187 0.025358422
0.02817385 -0.03423762 -0.083744116 0.104974546 -0.10522418 0.00463844 -0.05658552 -0.03377239
-0.16013671 0.017114904 0.09976319 -0.11389287 -0.072398946 -0.027042575 -0.017330635 -0.033080906
-0.057938833 0.021082595 -0.0043938057 0.14913765 0.06048371 -0.09413683 -0.030825432 0.069007695
-0.006079467 -0.06619933 0.07671155 0.07996616 0.019079974 -0.11005516 -0.028755918 0.06399379
-0.08927767 -0.022325123 -0.07367244 0.05877027 0.13660112 0.030524004 -0.0141613735 -0.0017458607
0.053652935 -0.07012119 -0.033578765 0.059441913 0.092178814 0.09103037 -0.02271377 0.05709704
0.059370037 -0.098296456 0.13082626 0.04823799 -0.040034145 0.007111583 0.058829702 0.1247297
0.14866367 0.08353509 0.07073761 -0.04170359 -0.17329508 -0.05622714 -0.006172084 0.05239616
0.027422935 0.048821263 0.1148408 0.01577432 0.021161998 -0.055928648 -0.16435252 -0.043122623
0.074193954 0.059071142 0.062153734 0.13391751 -0.012558282 -0.08284274 0.06980421 -0.03543615
0.08085316 0.141278 -0.026050504 -0.08183627 -0.001209683 -0.0015183004 0.002807663 -0.06305703
0.026077338 0.13918637 -0.03383406 -0.021400517 0.0003524636 -0.057829257 0.012354201 0.10743324
0.023676569 -0.027940216 -0.05326065 0.0009960234 0.007454167 -0.037212066 -0.041670397 -0.008539684
00000000: d206 013e 1928 7f3d a699 69bd 02ea e23d
00000010: 42ac 153e 1b4e 8cbd cc65 a0bd ea33 b73d
00000020: 52cb f13c bc73 28bd 8b9e 553d f5f0 9f3c
00000030: f767 e0bd d4ea e4bd 4cc1 d73d 3a1a 51bb
00000040: d652 df3c 4b86 883d e679 9a3d 3b8e b3bb
00000050: 0836 54bd 082b 5fbb 5a39 db3c 00cf a53d
00000060: b162 a23d 4968 45bd 196f 2d3d 2635 a9bd
00000070: 26d6 5f3d c13b b4bb 8217 83bc 3c74 41bd
00000080: 1976 4bbd 9f54 aa3d a643 e43d 5e2a 1a3d
00000090: 42ed 7c3d 30d0 59bd 6216 80bd 7f51 ccbd
000000a0: 593d aa3d 805f 94bd 187e 0ebd c48d 9dbd
000000b0: cb43 e63d ae7a acbc afbb 8dbd f820 b63d
000000c0: 2e99 d33b fede 87bc df74 7e3d 744b 033e
000000d0: 8f0b 8d3a 50de a53d b6db f0bc 78f7 aebc
000000e0: af0a 93bd 40d8 903c e500 623b e30f 153d
000000f0: 3235 773c e7eb 90bd 30e0 83ba 6925 b73d
00000100: 488b 9dbd bffe f3bd e974 9bbd 628a ac3c
00000110: 8ee6 8c3c 32c1 aa3d a9d6 21bd 1acf ccbd
00000120: 579e 2ebd fdc7 0bbd c1fc 8c3d 45a4 01be
00000130: 78b1 f9bd 2b17 b7bc 8830 cf3b b166 a9bd
00000140: 8874 5fbd 24fc 02bd 9519 abbd b48f cb3d
00000150: 8765 0abe 44ad 9c3c e1d1 babd d881 b63c
00000160: 827c 06be 0137 b03d 6e0b 243d 0be4 93bd
00000170: a790 633d f68d b6bd 7584 4bbd e120 033d
00000180: ca27 b83d 2b94 49bd 4281 a73d 7fd4 f0bd
00000190: 6775 e9bd 4a09 5d3d e350 903d 8b16 a6bd
000001a0: 25ad 64bd 66d0 393d 4a2c f23d 638d dc3d
000001b0: d5b1 cebc 248c 093d ad04 dfbd ef8e dc3c
000001c0: b321 69bd b1fa 59bc 248c c33d d7e9 8d3d
000001d0: eb6f f43d a71a 1cbd 3123 ba3d 77b8 ae3d
000001e0: 0cf9 3c3d 8355 9d3d e115 e9bd 72b2 87bd
000001f0: 3624 f23d 76f6 df3c 3147 9cbd cb2b e73d
00000200: 2483 a9bd 3ba4 14bd 2d9a 1dbd 2f52 80bd
00000210: 03c3 24bd f71a 443d 6146 e9bd d091 08be
00000220: 349b a2bd b28b 0c3c 5fdf 043d 79cb 23bc
00000230: c0aa 28ba 83f9 b0bd a7e8 f9bd c474 023e
00000240: 6bac 0dbc a823 0abc aeb2 7bbb da5c 42bd
00000250: a3c9 85bd 2a19 cebc 6fc3 3e3b 77bc cf3c
00000260: d9cc e63c bf3c 0cbd 0982 abbd e5fc d63d
00000270: c67f d7bd 0efe 973b 38c6 67bd eb54 0abd
00000280: e1fa 23be 8e34 8c3c a550 cc3d aa40 e9bd
00000290: e645 94bd 6488 ddbc faf8 8dbc d87f 07bd
000002a0: 4551 6dbd 68b5 ac3c eaf9 8fbb 8ab7 183e
000002b0: c4bd 773d cfca c0bd 9e85 fcbc e853 8d3d
000002c0: 4436 c7bb 8493 87bd f21a 9d3d 4cc5 a33d
000002d0: 9b4d 9c3c 9a64 e1bd 8891 ebbc 2d0f 833d
000002e0: 36d7 b6bd 2de3 b6bc 94e1 96bd 18b9 703d
000002f0: 2ae1 0b3e 7a0d fa3c 1b05 68bc 5dd5 e4ba
00000300: 2ec3 5b3d b39b 8fbd e389 09bd 5d79 733d
00000310: 3fc8 bc3d 216e ba3d 3a12 babc 96de 693d
00000320: ff2d 733d a74f c9bd 52f7 053e 3395 453d
00000330: d8fa 23bd 4808 e93b 6af7 703d 4972 ff3d
00000340: 4a3b 183e 7214 ab3d e1de 903d 62d1 2abd
00000350: 4474 31be 6e4e 66bd 313f cabb 5b9d 563d
00000360: 10a6 e03c cef8 473d a731 eb3d 2639 813c
00000370: ed5b ad3c 7015 65bd 074c 28be 59a1 30bd
00000380: 00f3 973d 95f4 713d ea94 7e3d ac21 093e
00000390: 41c1 4dbc 74a9 a9bd 82f5 8e3d 7f25 11bd
000003a0: 5796 a53d 2eab 103e de67 d5bc c699 a7bd
000003b0: 3a8e 9eba b501 c7ba c500 383b 0b24 81bd
000003c0: 24a0 d53c df86 0e3e 9595 0abd 2350 afbc
000003d0: ddca b839 5fde 6cbd 4669 4a3c f505 dc3d
000003e0: 5df5 c13c e1e2 e4bc d727 5abd 008d 823a
000003f0: 1642 f43b ae6b 18bd 94ae 2abd 08ea 0bbc

main.3.bias f4 [64]
-0.10994265 -0.10067017 0.045649853 -0.055149022 -0.09440236 0.09668559 0.10095499 -0.052407343
0.010552138 0.026588034 -0.099508874 0.03507502 0.069303416 -0.040010616 0.028482087 -0.03832047
0.12179281 -0.055989083 -0.031197425 0.010290729 -0.0086237015 0.036303155 -0.0583754 -0.10810597
0.039075106 0.040946197 -0.0376301 0.057155535 0.12978654 0.04664731 0.09675087 0.043729104
-0.12369162 -0.011358499 0.02211358 0.08275334 -0.05842769 0.029304324 -0.08595643 -0.09665195
0.0003550212 -0.044586852 0.06631419 -0.048160147 0.13608338 -0.06713705 0.06310872 0.009123566
0.010947489 -0.10678211 0.03747806 0.035186 -0.09339476 -0.0089815445 0.069079965 0.07322725
-0.026624665 0.0342665 -0.024881385 0.043589745 -0.09363049 0.05748158 0.08634241 -0.07538519
00000000: 9d29 e1bd 292c cebd 57fb 3a3d f1e3 61bd
00000010: 0656 c1bd 1803 c63d 7dc1 ce3d 15a9 56bd
00000020: e0e2 2c3c 26cf d93c 4fcb cbbd d3aa 0f3d
00000030: f3ee 8d3d 2ce2 23bd 4453 e93c edf5 1cbd
00000040: 826e f93d cf54 65bd be91 ffbc 729a 283c
00000050: 6d4a 0dbc 9eb2 143d 0b1b 6fbd aa66 ddbd
00000060: 380d 203d 33b7 273d 0522 1abd ec1b 6a3d
00000070: c3e6 043e 4011 3f3d 5225 c63d 4a1d 333d
00000080: 0852 fdbd ff18 3abc 8a27 b53c 957a a93d
00000090: e051 6fbd 9f0f f03c ed09 b0bd 75f1 c5bd
000000a0: 2422 ba39 b4a0 36bd bccf 873d 9343 45bd
000000b0: 7159 0b3e 267f 89bd 253f 813d 027b 153c
000000c0: 195d 333c 94b0 dabd 9882 193d 321f 103d
000000d0: c045 bfbd 5427 13bc cc79 8d3d 2bf8 953d
000000e0: f81b dabc 085b 0c3d 0cd4 cbbc 298b 323d
000000f0: 58c1 bfbd ce71 6b3d 4ad4 b03d 8d63 9abd

main.6.weight f4 [1, 64]
-0.07584168 -0.054934356 0.0098794885 -0.030924413 -0.12545918 -0.06208105 0.033603773 0.113765195
-0.042146925 0.01777624 -0.058203053 -0.080962524 -0.06401513 0.019208936 0.07134766 -0.070526585
-0.04491385 -0.04116702 0.009833815 -0.093169555 -0.018693393 0.0029858125 0.055078752 0.047229264
-0.08325979 0.04994688 -0.11132832 0.06333441 0.041626483 -0.044481702 -0.009414739 -0.06507094
0.082536794 -0.009361329 0.04164155 -0.008465962 -0.016852345 -0.045495134 0.06868023 0.08700358
-0.011534756 -0.047901142 -0.08562594 -0.10836331 0.027462628 0.011325249 0.013784432 -0.097693205
-0.06781622 0.039795775 -0.09818523 0.054701008 0.116848044 0.022899544 0.003471524 0.013363188
-0.050221097 -0.12932254 -0.09785075 -0.02540372 0.0542682 0.040008485 -0.03988535 0.05865421
00000000: e252 9bbd d902 61bd 94dd 213c 3255 fdbc
00000010: 5f78 00be b348 7ebd 1ca4 093d bafd e83d
00000020: 41a2 2cbd 7a9f 913c 5366 6ebd aecf a5bd
00000030: 5d1a 83bd 0f5c 9d3c b91e 923d 3e70 90bd
00000040: 96f7 37bd c09e 28bd 021e 213c aecf bebd
00000050: e322 99bc 9fad 433b 429a 613d 7973 413d
00000060: 1c84 aabd 1a95 4c3d 1a00 e4bd 79b5 813d
00000070: 8880 2a3d 7232 36bd 4740 1abc ea43 85bd
00000080: 0d09 a93d 4260 19bc 5490 2a3d d1b4 0abc
00000090: ee0d 8abc 1b59 3abd 38a8 8c3d ef2e b23d
000000a0: 46fc 3cbc fd33 44bd a75c afbd 95ed ddbd
000000b0: 4ef9 e03c 8a8d 393c 19d8 613c 6013 c8bd
000000c0: 3be3 8abd e500 233d 5615 c9bd 2a0e 603d
000000d0: 074e ef3d d397 bb3c 8282 633b 46f1 5a3c
000000e0: a3b4 4dbd 216d 04be f965 c8bd 761b d0bc
000000f0: 5548 5e3d f0df 233d d25e 23bd 663f 703d
