models/VANE_link_pred_n2v_model/Extractor_epoch_9.pth (torch, 229143 bytes, 5 tensors)

encoder.weight f4 [850, 64]
000000 f4 c4 49 bd cb 04 8b 3d 89 91 d0 bc b6 83 3b 3d
       -0.049260095 0.067880236 -0.025460022 0.045779906
000010 03 50 84 3d 56 f5 95 bd 27 5e ed bd 65 50 93 bd
       0.064605735 -0.07322185 -0.11590224 -0.071930684
000020 72 57 c1 3c 98 52 b3 3c 9f 48 6e 3c e3 e9 7f bd
       0.023601267 0.02188997 0.014543681 -0.06247891
000030 49 c6 c3 3c f5 50 15 bd 2a 21 04 bd a5 bd 98 3d
       0.02389826 -0.03645416 -0.03225819 0.07458047
000040 e9 a5 a1 3d 6e ca 93 bd c0 e7 61 bc e7 69 0c 3d
       0.07892973 -0.07216345 -0.013788164 0.034280684
000050 fb 12 57 bb b5 dd 9f 3d cd 09 12 3d c8 4e 12 bd
       -0.003281771 0.07805959 0.035653878 -0.035719663
000060 eb 52 1e 3b 59 f2 7b bd 8a fe 3f bd 2b ce 68 bd
       0.002415831 -0.061510418 -0.046873607 -0.056837242
000070 53 2e c9 bd 5e ae 08 bd 1e bf c7 bd 94 fd 42 bd
       -0.09823289 -0.033369415 -0.097532496 -0.047605112
000080 e9 cd 02 bd f2 b7 61 bc e5 f3 03 3e c0 97 e0 bc
       -0.031934652 -0.013776766 0.12886007 -0.02741611
000090 bd 6c 20 bc bd e8 f1 bd 75 b5 9e 3d 2f 55 14 bd
       -0.00979155 -0.118119694 0.07749454 -0.03621405
0000a0 5f a2 09 bd 9d 91 95 3d 35 99 63 bd fb 3c a0 bc
       -0.033602115 0.07303164 -0.05556603 -0.019560328
0000b0 d9 6b 35 3d 4c c5 3c 3d a0 bc 3c 3d 5a 4d 7e bd
       0.044292305 0.046086594 0.046078324 -0.062085487
0000c0 13 04 c9 3c ce 87 81 bd 72 8a e6 bc 45 4c eb 3b
       0.024538076 -0.06324731 -0.028142188 0.007180723
0000d0 c3 0a 8a bc 29 0a 64 bd 26 4d 88 bd c4 b8 1b bb
       -0.016850835 -0.055673752 -0.0665534 -0.0023761252
0000e0 60 0e b3 3d f1 92 80 3d 22 a9 20 bd dc c8 64 bd
       0.08742976 0.06278027 -0.039223798 -0.055855617
0000f0 9e 6d 04 3a d9 50 95 3d a7 31 78 3d 14 6e 30 3c
       0.00050517346 0.07290811 0.060594227 0.010768432
000100 59 c9 5b bd d6 dc c2 3d af b9 dc bc 47 13 e2 3c
       -0.053658817 0.09514777 -0.02694401 0.027597083
000110 6a b0 88 3d e9 d3 87 bd 26 25 bd bd 6a ee 0f bd
       0.06674273 -0.066322155 -0.09235601 -0.03513948
000120 06 1a c8 3c 7c 79 7c 3c 13 96 87 3c f7 fb 9c bd
       0.024426471 0.0154098235 0.016551053 -0.07665246
000130 a4 9b bc ba de 12 f0 bc e5 9b 22 bd 71 af ab 3d
       -0.0014389646 -0.029305872 -0.039699454 0.08383072
000140 92 fd ed 3d 52 fb 77 bd ca 3d 06 bd 39 b4 8e 3b
       0.1162063 -0.060542412 -0.03277377 0.0043549803
000150 4c 11 0c bd c0 75 fb 3d 66 3f 62 3d a7 c6 15 bd
       -0.034196183 0.122783184 0.055236243 -0.036566403
000160 37 e5 c4 3c 60 78 c1 bd 40 94 5c bd ef 38 c3 bd
       0.02403508 -0.09446788 -0.05385232 -0.095323436
000170 0f 41 ac bd e2 33 fa bb 2e 6e 8c bd bd bb 5f bd
       -0.084108464 -0.0076355794 -0.068569526 -0.0546224
000180 8a 27 3d b9 03 a3 80 bc 39 2d ea 3d ec 63 ba bb
       -0.00018039174 -0.01570273 0.11434407 -0.005688181
000190 55 7c 3d bd 50 56 a6 bd a9 60 94 3d 8d d2 69 bd
       -0.04626115 -0.081219316 0.07244999 -0.057085562
0001a0 2b 1d 2f bd 5b 83 8f 3d d6 a9 83 bd 86 03 ef 3a
       -0.042752426 0.07007476 -0.06428878 0.0018235303
0001b0 ba 3b 8f 3d c1 93 ff 3c 23 b7 d2 3c dd 05 19 bd
       0.06993814 0.031198384 0.025722092 -0.037359107
0001c0 07 64 a7 3d f8 bb 82 bd 5a 03 9f bd 1c 17 a3 3c
       0.081733756 -0.063835084 -0.07764311 0.01990848
0001d0 6f f4 2b bd 63 4a 81 bd 4c 9f 43 bd 58 42 81 bc
       -0.041981157 -0.06313016 -0.04775934 -0.015778705
0001e0 7a 29 f5 3d 27 35 8d 3d 30 c8 12 bd 30 d3 b9 bc
       0.11970802 0.06894904 -0.035835445 -0.02268371
0001f0 88 bf df bc d5 84 5d 3d 0a 1e 28 3d 07 23 6c 3d
       -0.027313009 0.054081757 0.041044272 0.057650592
000200 21 20 c4 bc e6 c1 f6 bc 46 77 4d bd 8e c6 a9 3b
       -0.023941102 -0.030121755 -0.050162576 0.0051811403
000210 98 c0 b5 3d 9e ba 9d bd cf 1b a5 bd 38 0f b4 bc
       0.08874625 -0.0770161 -0.08061945 -0.021979913
000220 67 48 c9 3c c5 92 d1 bd 34 7a a4 3c 61 e2 aa bd
       0.024570657 -0.10233072 0.020077802 -0.083439596
000230 72 36 15 3d e7 2d b5 bd 16 38 0f 3d 99 d7 81 3d
       0.036428876 -0.08846646 0.034965597 0.0633995
000240 a3 c6 87 3d 19 47 8b bc df a0 52 3c 41 0e a0 bb
       0.06629684 -0.017001675 0.0128557375 -0.0048845117
000250 47 4e e6 3c 87 e5 ad 3c 9a 5f 1d 3c e8 df 9f bd
       0.028113497 0.021227611 0.009605313 -0.078063786
000260 1f 62 cf bd 0b 73 0d 3d 0a 58 e5 bc f5 f2 1d bd
       -0.10126137 0.03453354 -0.027996082 -0.03856178
000270 2e b8 c0 bd 31 e8 00 bc 05 4e b4 bb 58 3d 0c 3d
       -0.094101295 -0.007867859 -0.0055024647 0.03423819
000280 98 2e f9 bd d1 a0 67 bd b6 38 cf 3c 30 71 83 bd
       -0.1216709 -0.05654985 0.025295597 -0.06418073
000290 b4 7b b3 3d 80 5a a1 bd 47 72 8a 3d 93 1a 83 3d
       0.08763829 -0.0787859 0.06760078 0.06401553
0002a0 85 2b ca 3d 10 1b 86 3d 61 cf 98 bd 87 a5 ae bd
       0.09871582 0.065481305 -0.074614294 -0.085276656
0002b0 6c 9c 04 3d b4 05 7a bd 78 de 3a 3d 28 47 0d 3d
       0.032375738 -0.061040595 0.04562232 0.034491688
0002c0 df 19 18 bd 61 47 f4 bc 3e 22 b3 3b 28 ea 0b 3d
       -0.037134048 -0.029819192 0.0054667285 0.034158856
0002d0 76 af 2f bc 72 01 94 bd bb 88 e2 bd 3e c1 55 3b
       -0.0107229855 -0.07226838 -0.110612355 0.0032616402
0002e0 cf f0 20 bc 80 72 cb ba db 9d 81 bc 36 81 88 3c
       -0.009823038 -0.0015521795 -0.015822342 0.016663175
0002f0 64 d7 78 3d f7 01 00 bc a1 d2 29 bd 78 d5 36 3c
       0.060752288 -0.007812968 -0.041460637 0.011159293
000300 57 e7 67 3c 3c 94 3e bd 0c b2 6e 3d 41 e1 a9 bc
       0.014154277 -0.046528086 0.058275267 -0.020737292
000310 ce 09 d4 3d fe 70 ce 39 77 f3 5d bd 8f eb 9b 3d
       0.103534326 0.00039375568 -0.054187264 0.076132886
000320 c9 aa 9d 3d cf 45 5b 3d aa bf a5 bd 74 31 b7 bb
       0.0769859 0.05353337 -0.08093198 -0.005590612
000330 2f 89 dc 3d 3d fe d3 bd c0 0d 7e bd ea 2d b0 3d
       0.10768353 -0.103512265 -0.06202483 0.086025074
000340 9b ba ec 3d ae c9 cb 3d c9 04 1e bc 94 bb 97 3d
       0.1155903 0.09950577 -0.009644696 0.074088246
000350 4c 12 5b 3d 46 c1 2d 3c d9 8b 9d bb 51 3f 33 3b
       0.053484246 0.010605162 -0.004807931 0.0027350972
000360 49 6d 03 be e5 9e c8 3c 79 7a 23 3c c0 65 85 bc
       -0.12834658 0.02448983 0.00997793 -0.01628387
000370 0a b9 40 bd 43 e3 d0 3c 7c 7b 04 be e9 e5 e7 3c
       -0.047051467 0.025498992 -0.1293773 0.028307872
000380 04 85 0f bc 0d cc 15 be 8f de 10 3d f8 c5 2d bd
       -0.008759741 -0.1462862 0.0353685 -0.042425126
000390 8a 15 29 3c fb b6 2b 3c df 72 ac 3d a7 6f 6c 3d
       0.010320077 0.010480638 0.084203474 0.057723667
0003a0 bf 24 bd 3d fc 14 1d 3d 9f a8 23 bc 28 24 83 bd
       0.092355244 0.03835009 -0.009988933 -0.06403381
0003b0 6d 04 f6 bc e2 c5 ae 3d 94 fa 3c bd cb 1e a3 bd
       -0.030031407 0.08533837 -0.046137407 -0.07964858
0003c0 e9 b9 6b bc 22 c0 07 be e0 4e 03 ba 1b 03 f1 bc
       -0.014387586 -0.13256887 -0.00050090067 -0.029420426
0003d0 a6 24 5d bd e0 29 4c bd 3e 5e 17 bd 62 8a ff 3c
       -0.05399003 -0.049844623 -0.03695511 0.031193916
0003e0 c4 00 41 bd 27 dd b8 3d 27 47 ab bc 65 52 dd bd
       -0.04711987 0.090265565 -0.020907952 -0.10806731
0003f0 a2 dd 8a 3d 65 a4 59 bd 44 8a 5d bd 06 ff 55 bc
       0.06780554 -0.053135294 -0.05408694 -0.013061291

rnn.weight_ih_l0 f4 [32, 64]
000000 0c 14 8f 3d ab b5 11 be 1a 70 06 be 4e 2c 0e 3e
       0.069862455 -0.14229457 -0.13128701 0.13884088
000010 d2 e2 56 3e 34 68 96 3e 18 59 7e 3d 7a c5 85 be
       0.20984963 0.29376376 0.062096685 -0.26127225
000020 2b 50 ac be 8c 61 e5 bd c2 5a 4f 3e 83 a8 9b bb
       -0.33654913 -0.11200246 0.20249465 -0.004750313
000030 8c b8 81 be cc 14 ba 3e 6f 70 85 3e 3e 75 81 be
       -0.2533611 0.36343992 0.26062343 -0.2528476
000040 36 67 81 3d 69 f8 09 be e7 66 b5 3e d5 69 cd bc
       0.06318514 -0.13473667 0.3543007 -0.025074879
000050 54 e4 01 be 1e 3c 30 3e 37 e7 a7 3e 83 0b 44 3e
       -0.12684757 0.17210433 0.3279359 0.19145016
000060 9c ae 5b bd 9c 4b 9e be 8e 7a 21 bd 1c 29 b6 bd
       -0.053633317 -0.3091706 -0.039423518 -0.0889456
000070 a0 c6 e4 3e 42 5f fb 3d 02 4e 88 be b7 a6 a6 be
       0.4468279 0.12274028 -0.26622015 -0.32549068
000080 19 8c 49 be 1a 4c f3 bc 8e 65 fa bd d0 9e b4 be
       -0.1968235 -0.029699374 -0.12226401 -0.35277414
000090 a7 bb 16 be 71 ef 91 be 8b 95 ba bd 4f 36 be be
       -0.14720021 -0.28502992 -0.09110554 -0.3715081
0000a0 4e 9b 18 be 09 96 b7 3e e4 6e fb bd d2 0b fb 3d
       -0.14902994 0.35856655 -0.1227701 0.12258114
0000b0 f6 e9 b6 3e 9e 95 37 3d 12 a7 99 3d fc 47 60 be
       0.35725373 0.04482042 0.07502569 -0.2190246
0000c0 ed 62 9c 3e e8 ff 8a bc 1b 47 d7 3d 5e 53 82 3d
       0.30544224 -0.016967729 0.10511609 0.06363557
0000d0 db 48 9f 3e 06 ea e3 bd d7 29 83 be a4 0e 6e be
       0.31110272 -0.11128621 -0.2561786 -0.23247772
0000e0 0b 88 cd 3d 73 97 93 3d f5 59 5a bd 9c 24 b5 bd
       0.10035714 0.07206621 -0.053308446 -0.08844873
0000f0 4d ee 0e bb c8 91 3e 3d 8b 11 76 bc 9a 26 84 be
       -0.0021809519 0.046525747 -0.015018831 -0.258107
000100 2e c8 8f 3e 32 8f 5e 3e d8 1e 39 3e eb 5a 13 3e
       0.28082412 0.21734312 0.18078172 0.14390151
000110 1d 26 2d bd 97 05 73 be 28 72 8e bd 10 67 a0 3e
       -0.042272676 -0.23732601 -0.06955367 0.3132863
000120 17 25 60 bd a8 dc c4 bd 5d 65 0c be 4e b6 fd 3d
       -0.05472287 -0.09612399 -0.13710542 0.123882875
000130 e2 2e 08 3e 22 f6 9e 3e cc de 91 3e a7 10 23 be
       0.13299134 0.3104716 0.28490293 -0.15924321
000140 9f 39 7a 3e a4 f7 6a be 20 0a 50 be ce 77 72 be
       0.24436043 -0.2294603 -0.20316362 -0.23678514
000150 0f a1 d1 bd 1f 0c ab be e0 98 ed 3d 18 07 94 3e
       -0.102357976 -0.33407685 0.11601424 0.28911662
000160 fe e3 8b be bf 38 50 3e ab 5d b5 bd a3 6f c6 be
       -0.27322382 0.20334147 -0.08855756 -0.38757047
000170 e0 cc 35 be b0 04 c6 bc ce 50 49 3e ee 96 88 3d
       -0.17753935 -0.024172157 0.19659731 0.066694126
000180 b4 78 ac 3d 18 34 70 3e d6 1e b3 3d a9 45 c2 bd
       0.0842146 0.23457372 0.08746116 -0.09485943
000190 ce 2c a1 3e 63 18 c3 be 28 fb b4 be 3e 52 a4 be
       0.31479496 -0.38104543 -0.35347867 -0.32093996
0001a0 14 e9 39 be 22 e6 cf 3e 73 27 41 be f7 76 a0 bc
       -0.18155318 0.40605265 -0.18862705 -0.019587977
0001b0 be bf b0 bc b2 b6 a1 3e b8 c3 ea bd 52 92 63 3e
       -0.021575805 0.31584698 -0.11463112 0.22223786
0001c0 b5 cd da bc d4 b8 51 be 13 02 20 be 55 d2 90 3e
       -0.026709417 -0.20480663 -0.15625791 0.2828547
0001d0 94 f5 7f 3e c4 be 0a 3e 4d 6e 1b be 20 96 a3 bb
       0.24996024 0.13549334 -0.15178795 -0.0049922615
0001e0 e3 94 3b be 37 6c f2 bd 69 78 aa 3e ac 00 d0 be
       -0.18318515 -0.118370466 0.3329499 -0.40625513
0001f0 54 1e 2c 3e ea 30 9a 3e 32 1e 94 3e dd 75 81 bd
       0.16808444 0.30115443 0.28929287 -0.06321309
000200 65 f5 5e 3e 85 51 0d 3e 91 86 2d 3e 50 4e 09 bd
       0.21773298 0.13800628 0.16945864 -0.03352195
000210 36 09 08 3e 18 56 99 be d1 3e 3b bd 4e cc 2a be
       0.13284764 -0.29948497 -0.045714203 -0.16679499
000220 d5 e6 3d 3d 59 1e a5 3e 9c d0 a9 be 5f 1b b5 bd
       0.046362717 0.32249716 -0.3316697 -0.08843111
000230 9f b6 81 bd f1 eb 4c 3e 2b 0d d4 3d 27 30 f0 bb
       -0.0633366 0.2001188 0.10354074 -0.007329959
000240 70 45 87 be c3 a7 79 be 32 ce 28 3e 43 63 60 be
       -0.26420164 -0.24380402 0.16484907 -0.21912865
000250 6a 4e 6b 3e 21 90 b1 be 7d af 90 bd 8c e2 45 be
       0.22979131 -0.34680274 -0.07064722 -0.19324702
000260 e2 1f 0d 3e 3d fc 13 be 99 58 51 be f0 f2 82 3c
       0.13781694 -0.1445169 -0.20443954 0.015984982
000270 d7 46 0d 3e 14 a5 15 be 3d ef a0 3d 65 d4 4f be
       0.13796555 -0.14613754 0.07858131 -0.20295866
000280 4c cc 2a be 59 c7 93 3e b5 c7 85 3e f2 b3 13 ba
       -0.16679496 0.28863028 0.26128927 -0.0005634419
000290 88 71 aa 3e a9 9a 6a 3e 7d 5f 40 3e cd 61 ad bd
       0.33289742 0.2291056 0.18786426 -0.0846592
0002a0 aa 59 84 3e 65 5c c9 bd 0b 19 44 be 1d b1 98 3e
       0.25849658 -0.09832076 -0.19150178 0.29822627
0002b0 04 c1 2d 3e 29 ef d6 bd 59 b3 e7 3d 62 8b 8d 3e
       0.16968161 -0.10494835 0.11313505 0.27645403
0002c0 a1 d0 82 3e 11 90 1c 3e d5 25 98 3d 0b 80 f7 bd
       0.25549796 0.15289332 0.07429091 -0.12084969
0002d0 84 a6 8c 3d b7 1d 70 bc ed 37 52 be 5d 42 91 3d
       0.06867698 -0.014655522 -0.20529146 0.07092736
0002e0 43 c0 b3 3e 1e 56 a9 be fa c9 d7 bd 4b 29 5f bd
       0.35107622 -0.33073515 -0.10536571 -0.05448274
0002f0 4e cf 7e 3e 7d d5 64 3e b3 f3 05 be ed 3a 34 3e
       0.24883768 0.22347064 -0.13081245 0.17600603
000300 ec b0 df 3d 4d 0f 23 be 4f f1 5e be 19 41 c4 3e
       0.10922417 -0.15923806 -0.2177174 0.38330916
000310 d4 16 83 be 32 1b 82 3e 95 17 21 3e 2f aa 4e be
       -0.25603354 0.25411373 0.15731652 -0.20182107
000320 c4 81 31 3e 93 f2 64 be fa c1 ae 3e ea 00 94 3d
       0.17334658 -0.2235816 0.34132367 0.07226737
000330 da 8f 13 bd 9a 00 94 3d e1 e9 fe 3d 9a 73 1e be
       -0.03602586 0.07226677 0.124469526 -0.15473786
000340 81 93 2b bd 24 d9 b7 be 98 07 95 3e 80 fc ae be
       -0.041888718 -0.35907853 0.29107356 -0.34177017
000350 3d 0f 14 be c3 4a 95 3e 00 6d 8a be fc e5 cb 3d
       -0.14458938 0.291586 -0.27036285 0.099559754
000360 94 6e 88 be c9 f4 cf bd af 71 25 3e 32 a8 4e 3e
       -0.26646864 -0.10154111 0.16156648 0.20181349
000370 63 97 3c 3e 81 05 a0 bd 04 c0 fe bd 75 46 9b be
       0.18417124 -0.0781355 -0.12438968 -0.30327192
000380 38 4a 73 3e 74 5b 9e be 40 04 25 3e c2 66 75 3b
       0.23758781 -0.30929148 0.16114902 0.0037445282
000390 fa e8 2f 3d 10 b7 cc 3d 4f 69 ef bd 72 c3 be bd
       0.042946793 0.09995854 -0.11690008 -0.09314622
0003a0 93 96 92 3e 42 fb e8 bd 26 46 df be 42 d7 a0 bd
       0.28630504 -0.113760486 -0.43608207 -0.07853557
0003b0 02 fe 8b be 9e 7b 5f be c6 d5 81 3e c1 a1 a1 3e
       -0.2734223 -0.218245 0.2535841 0.3156872
0003c0 7a 53 0b be 9e 09 cc 3e 43 e0 cf be b9 fc a3 3e
       -0.13606063 0.39851087 -0.40600786 0.3202875
0003d0 0d 6e a6 3e e1 ea fc bd d4 a7 54 3d 64 ab 44 3e
       0.32505837 -0.12349487 0.051917866 0.19206005
0003e0 fb 8e 42 bd cb d0 68 3e 3b 67 dd 3c d6 10 83 be
       -0.047499638 0.22735898 0.027026763 -0.25598782
0003f0 b5 5a af bd d6 8a ac 3e 4f 4c 06 be 62 e4 2a be
       -0.08562223 0.33699673 -0.13115047 -0.16688684

rnn.weight_hh_l0 f4 [32, 8]
000000 9e 64 45 3d a8 62 a3 3e 62 11 36 be 8b 9a c7 3e
       0.04819166 0.31911206 -0.17780069 0.38985094
000010 ff c8 96 3d 4d c8 8a be 6b c7 9e be 22 f5 80 3e
       0.07362556 -0.27105942 -0.3101152 0.25187021
000020 47 7b 01 3e 77 d2 9f 3e ec e0 90 3d ba 4c cc 3e
       0.12644683 0.3121526 0.070741504 0.39902288
000030 e9 9c 0d be a8 5f dd bc 8a 8f c9 bd da c0 cc be
       -0.13829388 -0.027023152 -0.09841831 -0.39990884
000040 3a 5c 71 be 9f cc 50 be fe 8d c5 3e d3 47 66 3e
       -0.23570338 -0.20390557 0.38584894 0.22488336
000050 ae 24 86 3e 71 9f 26 3e b2 04 0b 3e c1 a8 c9 3d
       0.2619986 0.1627176 0.1357601 0.098466404
000060 86 aa cb 3e 8a 5d 9b 3e a2 db 78 3d f8 6e 86 3d
       0.39778537 0.30344802 0.060756333 0.06564134
000070 5f e2 23 3e 3e 91 93 3e d7 59 95 3e af d0 3b 3e
       0.16004322 0.28821748 0.29170105 0.18341325
000080 e2 62 8f 3d a8 be 5c 3e 5b c9 52 be 73 2a 9c 3e
       0.07001282 0.21557105 -0.20584624 0.30501136
000090 f6 fa ca 3e e8 e1 b6 3d cf 0b 46 be 37 43 7f be
       0.39644593 0.08929807 -0.19340442 -0.24927984
0000a0 ad 8f cf 3e f1 c7 b3 3d 0d e6 c6 3e f3 82 a9 3e
       0.40539303 0.0877837 0.3884739 0.3310772
0000b0 ff 9d 54 bb 74 8f 7e be d2 c6 54 3d 03 34 0c be
       -0.0032442806 -0.2485941 0.051947422 -0.13691716
0000c0 6f c3 3b 3e f5 93 da bd 4b 5c e3 3e 31 a0 d5 3d
       0.18336271 -0.10672752 0.4440635 0.10430945
0000d0 9d 06 b4 3e 8e ee 23 be 49 ff 8f bd 3f 76 ad bc
       0.35161296 -0.1600897 -0.07031114 -0.021174548
0000e0 fd 5a e1 bd 67 88 fa 3d 45 f1 26 3e 54 66 b3 be
       -0.11003683 0.12233048 0.16302975 -0.35039008
0000f0 a5 2e 33 be f7 c7 17 bc 2d cc 12 be 41 ea 2e 3e
       -0.17498262 -0.009263984 -0.143357 0.17081548
000100 74 2b 3f 3e fc 9e 9e 3e 2a f3 57 bc d2 1b e7 bd
       0.1866892 0.3098067 -0.013180533 -0.11284603
000110 7b 0c 7c be eb 9e 30 be 2c 26 0b be 6e 2d f5 3d
       -0.24614136 -0.17248122 -0.1358878 0.11971556
000120 ae 9c b5 3e e0 fa 45 be 85 07 58 3d 1a 6f 71 3e
       0.354711 -0.19333982 0.052741546 0.23577538
000130 24 e3 0c 3e 4e 7f 5f be 88 c4 78 3e 34 87 ab be
       0.13758522 -0.21825907 0.2429372 -0.3350159
000140 c3 95 65 be ea 81 be 3e 0e 85 8b be b1 18 74 3e
       -0.22420411 0.37208492 -0.2724995 0.23837544
000150 e3 32 43 3c 22 cf e3 3c d0 64 d8 bd 89 9a 3d be
       0.011913988 0.02780873 -0.105661035 -0.18515982
000160 c1 1a 82 3e 73 a4 7e be 64 98 46 3e 7b f7 09 be
       0.25411037 -0.2486742 0.1939407 -0.13473313
000170 70 ee 9f 3e e1 b0 14 bd 0d b0 63 3e 24 73 81 3e
       0.312366 -0.036301497 0.22235127 0.25283158
000180 0c 5b 06 3e 43 f1 cb bc d8 e0 a4 be 42 50 ab bd
       0.13120669 -0.024895316 -0.32202792 -0.08364917
000190 ea f7 5c bc 54 09 92 be 48 14 19 3c ef a0 81 3e
       -0.013486842 -0.28522742 0.009343214 0.25318095
0001a0 3a b4 47 be 2e 89 64 3e 44 54 84 3e 91 38 39 3e
       -0.19502345 0.22317955 0.2584554 0.18087985
0001b0 4f 9d be be 13 a7 7a 3e cb a7 2c be 49 fa 2e 3e
       -0.37229392 0.24477796 -0.16860883 0.17087664
0001c0 04 80 24 be 50 7a 0c 3e 72 ca 25 bd a3 78 59 3d
       -0.16064459 0.13718534 -0.04047627 0.053093564
0001d0 54 57 0f be a6 7b dd 3a 8c b3 65 3e c1 25 07 be
       -0.13998157 0.0016897812 0.22431773 -0.13197996
0001e0 cc 1a 48 3e bc 4d 16 bd df 45 eb bd d3 7a 1e be
       0.19541472 -0.036695227 -0.11487936 -0.15476541
0001f0 1f 09 f7 3d 76 db 3e be 27 d0 44 bb 77 30 ee 3d
       0.120622866 -0.18638405 -0.0030031295 0.11630338
000200 d9 f2 ce 3e f6 ea 7d bd ee a5 55 3e 32 d7 94 3e
       0.40419653 -0.061991654 0.20864078 0.2907043
000210 5f ad 14 bd ca 00 2b 3e e5 18 2b be bd d0 67 bd
       -0.036298152 0.1669952 -0.16708715 -0.056595553
000220 23 4d 71 3e 88 57 c0 3e 5d c2 61 be ff 23 b2 3e
       0.23564582 0.3756678 -0.220468 0.34793088
000230 c8 58 14 3d a8 fb 45 be 8e b7 ee bd e2 58 ce be
       0.03621748 -0.1933428 -0.11656104 -0.40302187
000240 71 3f 02 be 34 62 33 3e bb 34 b6 3c 9b aa bf 3d
       -0.12719513 0.1751793 0.02224194 0.09358712
000250 ae 2e 9a 3e 0c 45 9f 3a 47 3d 00 bd c0 ca b2 3d
       0.3011374 0.0012151315 -0.03130844 0.08730078
000260 43 dc 14 3e 64 aa cd 3e cf 4b 4e 3e fa 93 de 3d
       0.14537148 0.4016906 0.20146106 0.10868068
000270 29 42 f3 3c 19 c8 61 3e 97 96 3b 3e 0b 7c e0 bd
       0.029694634 0.22048987 0.18319164 -0.10961159
000280 cd c1 04 3e f1 64 78 be ea e8 11 be b2 e4 a6 3e
       0.12964554 -0.24257256 -0.14249006 0.32596356
000290 e7 62 8a be 80 ec f3 3d 8b 19 b0 be 44 04 74 3d
       -0.27028582 0.11910343 -0.34394488 0.05957438
0002a0 33 c1 70 bd dd 16 95 be 27 00 a5 3e 03 f9 23 3e
       -0.058778 -0.29119006 0.3222668 0.16012959
0002b0 78 ca c4 be 88 3c c7 3e 0c 51 8e be fc 02 5f bd
       -0.3843572 0.3891337 -0.2779621 -0.054446205
0002c0 61 d2 d7 3d 59 48 23 be ba f9 76 be 53 e7 80 be
       0.105381735 -0.15945567 -0.241187 -0.25176486
0002d0 7c 03 3d be 71 6e 49 bd 6b 92 62 3e 21 78 86 bc
       -0.1845836 -0.04917759 0.22126167 -0.016414704
0002e0 8a e9 d0 bd d0 a0 33 be 24 04 bf 3d 5f 44 9d 3e
       -0.10200794 -0.17541814 0.09326962 0.30716226
0002f0 72 f4 a0 3e f3 c5 5f 3e 96 94 24 be 2d 8c dd bd
       0.31436497 0.21852855 -0.16072306 -0.10817752
000300 d1 f8 cc 3e cf c9 cb 3e c7 3d 55 3e d4 99 89 3e
       0.40033582 0.39802405 0.20824347 0.26875174
000310 2e b4 70 be b3 77 a4 3e 92 05 39 3c ff be 44 3e
       -0.23506233 0.32122573 0.011292832 0.19213484
000320 1b ec 7b 3e 13 8e 6e be 99 a0 7a 3d 13 65 97 3e
       0.24601786 -0.23296385 0.061188314 0.295693
000330 e6 5c 92 3e 13 f2 89 3e 42 17 ab be 37 7b 76 be
       0.285865 0.269425 -0.33416182 -0.2407044
000340 ee f1 d9 bc 1f c1 c5 3e cc af 43 3e 51 c7 61 bd
       -0.026604619 0.38623902 0.1911003 -0.055121724
000350 1a 8e 44 3e c1 24 34 3e 9b 1e 6b 3d bf 3f 52 be
       0.19194832 0.17592146 0.057402235 -0.2053213
000360 eb 87 4b bc f7 84 c2 3c 65 b8 05 bd 7e 64 87 be
       -0.012422542 0.023745043 -0.032646555 -0.26443857
000370 a8 e9 76 3e 82 54 25 be e0 05 0c be 75 85 e1 bd
       0.2411257 -0.16145518 -0.13674116 -0.11011783
000380 a3 76 66 3d e0 0c 1b 3e e9 4a 7a 3e 8a 06 cd bd
       0.056265485 0.1514163 0.24442638 -0.10011013
000390 d8 99 bb 3d fe 1f 46 be 34 b1 bb 3d cc 27 a6 be
       0.09160203 -0.19348142 0.09164658 -0.32452238
0003a0 83 d0 46 3e d5 24 9b bd 29 ac d6 bc a4 04 60 3e
       0.19415478 -0.075753845 -0.02620514 0.2187677
0003b0 e4 15 80 3e 83 0c 9f 3e 55 88 2d be 70 56 31 3e
       0.250167 0.31064233 -0.16946538 0.1731813
0003c0 be 65 51 be ff 52 c9 3d 79 b5 a9 3e 38 8d df 3c
       -0.20448968 0.098302834 0.33146265 0.027289018
0003d0 22 92 88 3d 54 16 6a bd ad c6 87 be 82 fb 29 3e
       0.066684976 -0.0571502 -0.26518765 0.16599849
0003e0 cf 1e 7a 3e 4d c8 89 3e 8b 5e 74 be da eb 97 be
       0.24425815 0.2691063 -0.2386419 -0.29672128
0003f0 3a ed 7b 3e a4 cb 1f be ee 7c 4b be 9c 20 9d be
       0.24602214 -0.15605026 -0.19871876 -0.3068894

rnn.bias_ih_l0 f4 [32]
000000 a6 3e be 3e 3f 7c 14 3e 63 58 b2 3e ee 64 84 be
       0.37157172 0.14500521 0.3483306 -0.25858253
000010 dd 49 b2 3e 76 47 b4 3e ee 8e d8 3e 4f fe 98 3e
       0.34821978 0.3521077 0.42296547 0.29881522
000020 b2 38 73 be ff 81 85 3e 74 12 5e 3e ce 24 17 be
       -0.23752096 0.26075742 0.21686727 -0.14760134
000030 c4 eb 9d bb 0d cf bb 3d be 16 8b be 57 bb d1 bd
       -0.004819365 0.09170351 -0.27165788 -0.1024081
000040 1d 48 9e 3e 7d f8 7d 3e fe 15 3f 3d ef 6f 63 3e
       0.30914393 0.24801822 0.046651833 0.22210668
000050 7d 95 27 be 35 e5 de bc 06 e0 50 3d cb 41 9f be
       -0.16365619 -0.027208904 0.050994895 -0.31104884
000060 e2 56 8b be a0 07 6b 3e 69 dc 97 be 3a 42 b8 3e
       -0.27214724 0.22952127 -0.29660347 0.35988027
000070 b5 64 9a 3e d6 75 23 3c 3d f6 b6 bd f7 ef 3b be
       0.30154958 0.009976825 -0.08933685 -0.18353258

rnn.bias_hh_l0 f4 [32]
000000 be 44 6a bd 3a 02 6a 3e b1 0d 47 3e 11 3a 8f 3e
       -0.057194464 0.22852412 0.19438817 0.2797399
000010 98 9b de 3b cb 80 e1 3c dd b8 c7 bd 83 a8 9b be
       0.0067934506 0.027527234 -0.09752057 -0.30402002
000020 f4 88 6b 3b 5c 01 52 3e c5 77 d7 bc da e7 58 3e
       0.0035939785 0.20508331 -0.026302228 0.21182194
000030 af 30 8f be bf c8 04 3e 69 dd 98 3e dd 8a 05 bc
       -0.2796683 0.12967204 0.29856423 -0.008150783
000040 a1 95 54 3e ae db b3 bc 7d 1f 9f 3e 72 c6 49 bd
       0.20760204 -0.021955337 0.3107871 -0.049261518
000050 19 d8 4c 3e f6 e6 b3 3d 9d 71 37 be 07 1f 1a 3d
       0.2000431 0.08784287 -0.17914434 0.037627246
000060 3f ee 71 be d3 c7 48 be b8 0b ae 3e 27 9f 9d bd
       -0.2362604 -0.19607477 0.33993316 -0.076963715
000070 03 5c 94 3e 9a 72 11 3e b6 9e 52 3e 92 80 47 3e
       0.2897645 0.14203873 0.20568356 0.1948264
