models/VANE_link_pred_n2v_model/Extractor_epoch_12.pth (torch, 229143 bytes, 5 tensors)

encoder.weight f4 [850, 64]
-0.045044955 0.055643085 -0.023903854 0.04764209 0.06598621 -0.079201825 -0.11211628 -0.06563124
0.036670454 0.020588193 0.022426292 -0.050764117 0.03161736 -0.053299434 -0.01932851 0.076483764
0.08632465 -0.07299267 0.0029011648 0.043727804 0.00268971 0.09097231 0.028247843 -0.04883809
-0.003094826 -0.061270375 -0.04335792 -0.05517499 -0.09778685 -0.03135288 -0.094400644 -0.035141278
-0.039017282 -0.014961707 0.1177283 -0.020360928 -0.008192974 -0.11771092 0.06761853 -0.027777387
-0.030571075 0.070132695 -0.055674043 -0.025865698 0.039770365 0.049113367 0.048952583 -0.059394535
0.036730684 -0.06953769 -0.033157133 0.0027552168 -0.026012046 -0.06742656 -0.07572109 -0.005139455
0.08217589 0.06277736 -0.03246109 -0.060341816 0.0063361824 0.07248937 0.0540373 0.011035195
-0.05314962 0.08272667 -0.025522547 0.03938488 0.06906369 -0.07532549 -0.10044337 -0.043029297
0.03649596 0.012258085 0.018670995 -0.07150452 0.011552072 -0.04328967 -0.029507175 0.08819337
0.1153375 -0.06525699 -0.022725623 0.015383556 -0.021306362 0.11005932 0.04537869 -0.042473603
0.012499155 -0.0902856 -0.056849513 -0.08834352 -0.08917268 -0.013838352 -0.077738985 -0.04846018
-0.015913256 -0.017337894 0.113577604 -0.00885171 -0.03529464 -0.09005962 0.06585479 -0.049945425
-0.04027481 0.07711225 -0.06481039 -0.008403116 0.062257983 0.036215976 0.03512169 -0.04652159
0.08236773 -0.06607132 -0.06692178 0.012324733 -0.04218727 -0.07296269 -0.051363297 -0.01750592
0.111593105 0.0735032 -0.036146864 -0.031551577 -0.016627677 0.05938266 0.0472297 0.048557777
-0.022898484 -0.02976328 -0.037127588 0.013694488 0.081496574 -0.08211051 -0.08711735 -0.027754035
0.029810442 -0.10366009 0.020268993 -0.081802234 0.033276018 -0.08390549 0.035257224 0.068494335
0.060302198 -0.021680381 0.013852093 0.0009880447 0.03466316 0.03361904 0.013330921 -0.07748355
-0.09856646 0.023990674 -0.030754404 -0.042596083 -0.09842014 -0.014057277 -0.006569219 0.037626963
-0.11647549 -0.053787936 0.030528093 -0.05872521 0.08215156 -0.08359926 0.07418106 0.061498497
0.09974186 0.054933254 -0.07215654 -0.08565066 0.038260516 -0.057754613 0.043394454 0.024088603
-0.034381133 -0.03854615 0.0062170876 0.03289533 -0.016706897 -0.076612584 -0.11453496 -0.0033996115
-0.013898152 0.006301546 -0.018826136 0.0059316903 0.06490518 -0.0019739356 -0.042170394 0.011664339
0.009734739 -0.06054956 0.058682434 -0.008401926 0.111898884 -0.011497795 -0.06667379 0.0706822
0.07157385 0.04812644 -0.073779196 -0.0077137863 0.099577434 -0.104888335 -0.048789565 0.094224624
0.11058947 0.08790571 -0.014239927 0.07969824 0.05449031 0.01648364 0.00113577 -0.009827879
-0.1216537 0.019004816 0.009450039 -0.02331695 -0.058794953 0.015118525 -0.124036305 0.03514114
-0.020484822 -0.13745974 0.037168942 -0.04062208 0.023231896 -0.00418194 0.097485624 0.06574413
0.09885068 0.050894845 -0.020220317 -0.07157774 -0.022449572 0.07985498 -0.048784666 -0.08709724
-0.014112139 -0.12965676 0.0033334368 -0.021849615 -0.04755434 -0.05210887 -0.053827178 0.03126076
-0.052103397 0.08836437 -0.021302596 -0.10327703 0.06930085 -0.04024534 -0.05447891 -0.009283187
00000000: 0f81 38bd 01ea 633d 04d2 c3bc 5a24 433d
00000010: c723 873d 9134 a2bd 389d e5bd ac69 86bd
00000020: c233 163d 92a8 a83c 58b7 b73c 09ee 4fbd
00000030: 3481 013d 8250 5abd d356 9ebc 85a3 9c3d
00000040: faca b03d 2e7d 95bd 7821 3e3b ed1b 333d
00000050: d845 303b b14f ba3d 0568 e73c 730a 48bd
00000060: 90d2 4abb a5f6 7abd 1398 31bd 2cff 61bd
00000070: 7944 c8bd e16b 00bd 2055 c1bd 4df0 0fbd
00000080: 96d0 1fbd f321 75bc 891b f13d f6cb a6bc
00000090: d33b 06bc 6c12 f1bd 957b 8a3d 678d e3bc
000000a0: 3170 fabc bba1 8f3d 770a 64bd 4de4 d3bc
000000b0: 40e6 223d 192b 493d 8182 483d af47 73bd
000000c0: ea72 163d c769 8ebd c6cf 07bd de90 343b
000000d0: 3717 d5bc f016 8abd a913 9bbd e068 a8bb
000000e0: d54b a83d 6b91 803d ebf5 04bd fb28 77bd
000000f0: c09f cf3b 4f75 943d 3756 5d3d f6cc 343c
00000100: 6ab3 59bd 9a6c a93d a914 d1bc 0a52 213d
00000110: 4471 8d3d 4044 9abd 41b5 cdbd 7d3f 30bd
00000120: ca7c 153d 23d6 483c eaf3 983c f670 92bd
00000130: e744 3d3c 8250 31bd 08b9 f1bc ba9e b43d
00000140: 1136 ec3d 75a5 85bd 162b babc 4f0b 7c3c
00000150: ae8a aebc c866 e13d 01df 393d cdf8 2dbd
00000160: 41c9 4c3c a8e7 b8bd 09db 68bd 73ed b4bd
00000170: 2ba0 b6bd 41ba 62bc 9e35 9fbd 2f7e 46bd
00000180: 845c 82bc 3308 8ebc 609b e83d c306 11bc
00000190: 1d91 10bd 2e71 b8bd e0de 863d 9393 4cbd
000001a0: 33f7 24bd 07ed 9d3d 4fbb 84bd 39ad 09bc
000001b0: 3a02 7f3d 3457 143d c3db 0f3d 6c8d 3ebd
000001c0: 6ab0 a83d 6650 87bd 490e 89bd aded 493c
000001d0: 8fcc 2cbd 766d 95bd 5262 52bd 9368 8fbc
000001e0: ed8a e43d d988 963d bc0e 14bd 3a3c 01bd
000001f0: c436 88bc 3b3b 733d ee73 413d 85e4 463d
00000200: 9a95 bbbc 1fd2 f3bc 1913 18bd d95e 603c
00000210: ade7 a63d 8e29 a8bd 956a b2bd 6e5c e3bc
00000220: 0735 f43c be4b d4bd 290b a63c ee87 a7bd
00000230: 6f4c 083d a4d6 abbd e169 103d c246 8c3d
00000240: 70ff 763d 0e9b b1bc e4f3 623c 4781 813a
00000250: f5fa 0d3d 1eb4 093d ef69 5a3c b2af 9ebd
00000260: 36dd c9bd 1788 c43c a9f0 fbbc 3b79 2ebd
00000270: 8090 c9bd 7e50 66bc 9a42 d7bb bb1e 1a3d
00000280: b48a eebd bd50 5cbd 0d16 fa3c d989 70bd
00000290: 143f a83d 1736 abbd 3dec 973d d9e5 7b3d
000002a0: 7645 cc3d b101 613d cfc6 93bd 9d69 afbd
000002b0: 0fb7 1c3d 1a90 6cbd 62be 313d 7655 c53c
000002c0: 3bd3 0cbd 91e2 1dbd b6b8 cb3b 41bd 063d
000002d0: e7dc 88bc 0fe7 9cbd 4e91 eabd 04cc 5ebb
000002e0: 13b5 63bc 337d ce3b 4539 9abc a05e c23b
000002f0: 02ed 843d 255d 01bb ddba 2cbd c91b 3f3c
00000300: 747e 1f3c d102 78bd fe5c 703d 3ba8 09bc
00000310: 3e2b e53d 3f61 3cbc 458c 88bd d4c1 903d
00000320: 5095 923d 3b20 453d 8c19 97bd eec3 fcbb
00000330: 41ef cb3d b2cf d6bd 91d7 47bd d7f8 c03d
00000340: bb7c e23d e907 b43d 954e 69bc d538 a33d
00000350: 3b31 5f3d b308 873c 1ede 943a 1d05 21bc
00000360: 9325 f9bd fdaf 9b3c 56d4 1a3c 3003 bfbc
00000370: fad2 70bd b1b3 773c bf06 febd 28f0 0f3d
00000380: c9cf a7bc 3fc2 0cbe 763e 183d 5763 26bd
00000390: d150 be3c a808 89bb 8ba6 c73d dca4 863d
000003a0: 3a72 ca3d 1d77 503d 14a5 a5bc 5a97 92bd
000003b0: 2ae8 b7bc 028b a33d 6ed2 47bd 0a60 b2bd
000003c0: 9a36 67bc bec4 04be ca75 5a3b f7fd b2bc
000003d0: 57c8 42bd 1c70 55bd e379 5cbd 480b 003d
000003e0: 5f6a 55bd 61f8 b43d c882 aebc e882 d3bd
000003f0: 9bed 8d3d 4cd8 24bd 4725 5fbd 8218 18bc

rnn.weight_ih_l0 f4 [32, 64]
0.06614036 -0.14405501 -0.13765155 0.14084674 0.20785935 0.2850198 0.059431423 -0.2715591
-0.3387877 -0.12008529 0.21303296 -0.0064129382 -0.26287365 0.36552876 0.26282066 -0.25445643
0.05864766 -0.14573956 0.36651522 -0.029005487 -0.13500082 0.17537703 0.33261204 0.18485491
-0.053138845 -0.31217113 -0.04124332 -0.09039573 0.4468983 0.1160605 -0.25658914 -0.32233065
-0.19909501 -0.022854067 -0.12112446 -0.34785503 -0.13564476 -0.2931357 -0.092436306 -0.37190446
-0.14767155 0.36206836 -0.13028027 0.11960368 0.3723098 0.031653047 0.08473391 -0.21127386
0.30675796 -0.016359389 0.09979474 0.076708876 0.3126584 -0.11703367 -0.2606973 -0.23832603
0.10331114 0.06720909 -0.048001166 -0.08875036 0.00097274646 0.049297623 -0.008759155 -0.25473815
0.27487278 0.20575859 0.17571883 0.14678231 -0.03432751 -0.25076488 -0.080610625 0.30586275
-0.052066553 -0.10221146 -0.1295374 0.117682174 0.1292762 0.30400035 0.28428066 -0.15204601
0.24943008 -0.23711206 -0.19241449 -0.23352812 -0.09935362 -0.32880008 0.12067641 0.2735322
-0.28211868 0.20101383 -0.092235886 -0.39598858 -0.18205275 -0.03443856 0.19801608 0.07886005
0.07493123 0.23433086 0.09350402 -0.09422914 0.3339741 -0.39366424 -0.34537205 -0.3099622
-0.16925348 0.41740805 -0.2003791 -0.032642096 -0.0031181362 0.3033972 -0.104931675 0.22409788
-0.02510559 -0.21327896 -0.1602225 0.29977196 0.24645604 0.12736799 -0.16539085 -0.0086789
-0.18251315 -0.11467802 0.33577058 -0.41429988 0.18232639 0.308822 0.29327223 -0.060176972
0.21714585 0.1250849 0.16260083 -0.034826826 0.1404573 -0.30554196 -0.052317694 -0.16698807
0.048115164 0.3210943 -0.3271713 -0.09157883 -0.06516069 0.1937366 0.0965807 -0.0037220404
-0.2606485 -0.24996416 0.17303053 -0.21697453 0.22999944 -0.3477511 -0.06290684 -0.20732565
0.12824644 -0.1432914 -0.20496614 0.0110601615 0.13486838 -0.14762563 0.07735674 -0.19250846
-0.17170559 0.28468093 0.26506186 0.0018672463 0.3487886 0.22388588 0.19604307 -0.0735153
0.26840895 -0.08736722 -0.19603334 0.28718427 0.1824415 -0.110114135 0.12071547 0.2733701
0.25557914 0.14480168 0.07263131 -0.114852645 0.06796465 -0.020332664 -0.21445619 0.0753054
0.35087684 -0.32668203 -0.10548025 -0.062474396 0.25871354 0.22364466 -0.12891681 0.17700148
0.10729944 -0.16588598 -0.22169754 0.38432574 -0.2565843 0.24660346 0.15188067 -0.21020521
0.17478393 -0.22766489 0.3482951 0.071515836 -0.044182282 0.070707515 0.1238154 -0.15282829
-0.042580694 -0.36704773 0.30129164 -0.34200698 -0.1477256 0.29356247 -0.26677123 0.08907918
-0.26836887 -0.104963966 0.15966956 0.1975247 0.18411683 -0.08624974 -0.11835076 -0.2957981
0.23397294 -0.30395138 0.16507545 0.006425346 0.058356576 0.09193181 -0.11508725 -0.09060187
0.290814 -0.10644879 -0.44139156 -0.083912924 -0.25975183 -0.22659446 0.2635089 0.31831858
-0.13395448 0.39369357 -0.4128767 0.3329172 0.32130635 -0.12819327 0.04359213 0.18937123
-0.04337313 0.22624686 0.029271966 -0.25927457 -0.077536754 0.34015003 -0.1269172 -0.1646826
00000000: 9974 873d 2883 13be 87f4 0cbe 213a 103e
00000010: 15d9 543e 1dee 913e 5d6e 733d cb09 8bbe
00000020: 9575 adbe 47ef f5bd 5025 5a3e a023 d2bb
00000030: 6097 86be 9626 bb3e 6e90 863e 1d48 82be
00000040: 8738 703d c03c 15be e2a7 bb3e ea9c edbc
00000050: a83d 0abe 0996 333e 204c aa3e 9b4a 3d3e
00000060: 1ea8 59bd e5d4 9fbe c1ee 28bd 6621 b9bd
00000070: dbcf e43e 21b1 ed3d a75f 83be 8608 a5be
00000080: 90df 4bbe 7438 bbbc 1a10 f8bd 0e1a b2be
00000090: 76e6 0abe e215 96be 3f4f bdbd 436a bebe
000000a0: 3637 17be 0661 b93e 3168 05be c6f2 f43d
000000b0: 649f be3e a0a6 013d f988 ad3d 2d58 58be
000000c0: 610f 9d3e 2004 86bc 2f61 cc3d 8b19 9d3d
000000d0: c314 a03e 59af efbd 1e7a 85be bd0b 74be
000000e0: ca94 d33d eba4 893d df9c 44bd c0c2 b5bd
000000f0: e9ff 7e3a 4eec 493d 8f82 0fbc 0a6d 82be
00000100: 20bc 8c3e 61b2 523e a3ef 333e 1a4e 163e
00000110: 019b 0cbd 4164 80be 2f17 a5bd 0b9a 9c3e
00000120: bd43 55bd 3e54 d1bd 74a5 04be 5a03 f13d
00000130: fb60 043e efa5 9b3e 3c8d 913e f3b1 1bbe
00000140: 996a 7f3e 81cd 72be 4e08 45be ff21 6fbe
00000150: e979 cbbd 7c58 a8be 3225 f73d 6a0c 8c3e
00000160: dc71 90be 92d6 4d3e 2be6 bcbd 04bf cabe
00000170: 096c 3abe 730f 0dbd bac4 4a3e 6181 a13d
00000180: 8b75 993d 6ef4 6f3e 097f bf3d 35fb c0bd
00000190: a7fe aa3e 5c8e c9be 9bd4 b0be 5eb3 9ebe
000001a0: c950 2dbe 82b6 d53e 2e30 4dbe b8b3 05bd
000001b0: a559 4cbb e156 9b3e 6be6 d6bd ea79 653e
000001c0: 3daa cdbc cd65 5abe 5e11 24be b67b 993e
000001d0: f95e 7c3e c16c 023e 385c 29be f231 0ebc
000001e0: bae4 3abe 4fdc eabd 1fea ab3e 1d1f d4be
000001f0: c5b3 3a3e eb1d 9e3e c727 963e 217c 76bd
00000200: 7b5b 5e3e 4216 003e d580 263e 93a6 0ebd
00000210: 0ad4 0f3e ff6f 9cbe 144b 56bd ecfe 2abe
00000220: 6814 453d 7966 a43e ff82 a7be ae8d bbbd
00000230: f872 85bd e362 463e 1acc c53d 7aed 73bb
00000240: b873 85be 9bf6 7fbe ea2e 313e 922e 5ebe
00000250: f984 6b3e 6f0c b2be 4dd5 80bd 2d4d 54be
00000260: 0953 033e fbba 12be a5e2 51be ae35 353c
00000270: f01a 0a3e 2c2b 17be 366d 9e3d f020 45be
00000280: 97d3 2fbe b3c1 913e 30b6 873e 64be f43a
00000290: 6b94 b23e 5742 653e 84bf 483e 318f 96bd
000002a0: e66c 893e 96ed b2bd f7bc 48be d109 933e
000002b0: f2d1 3a3e 8583 e1bd ac39 f73d 2af7 8b3e
000002c0: 45db 823e e446 143e b9bf 943d dd37 ebbd
000002d0: 0d31 8b3d b090 a6bc 679a 5bbe b839 9a3d
000002e0: 21a6 b33e de42 a7be 0806 d8bd 27e5 7fbd
000002f0: 1a76 843e 1b03 653e c502 04be e03f 353e
00000300: cfbf db3d 04de 29be ae04 63be 58c6 c43e
00000310: 045f 83be 9e85 7c3e 9b86 1b3e 0940 57be
00000320: 8ffa 323e fc20 69be bc53 b23e e576 923d
00000330: 7bf8 34bd 1acf 903d ee92 fd3d 057f 1cbe
00000340: 1869 2ebd aeed bbbe e642 9a3e 8a1b afbe
00000350: 6145 17be d24d 963e 3d96 88be 256f b63d
00000360: a567 89be 59f7 d6bd 6b80 233e ea43 4a3e
00000370: 1f89 3c3e b4a3 b0bd e261 f2bd d972 97be
00000380: 9a96 6f3e 849f 9bbe 8a09 293e b58b d23b
00000390: 4e07 6f3d bf46 bc3d ddb2 ebbd 798d b9bd
000003a0: 93e5 943e d301 dabd 13fe e1be 8ada abbd
000003b0: 31fe 84be 6108 68be a3ea 863e a7fa a23e
000003c0: 5d2b 09be 3492 c93e 9364 d3be 2074 aa3e
000003d0: 4482 a43e 1945 03be a98d 323d 88ea 413e
000003e0: 06a8 31bd 42ad 673e c3cb ef3c a3bf 84be
000003f0: 97cb 9ebd 2528 ae3e 95f6 01be 8ea2 28be

rnn.weight_hh_l0 f4 [32, 8]
0.052081272 0.3271256 -0.17286749 0.3941245 0.0771334 -0.2716934 -0.3164674 0.24710359
0.13793176 0.3270437 0.08248076 0.4108384 -0.12090101 -0.020080531 -0.114647366 -0.40769282
-0.22690977 -0.19346686 0.39512125 0.23394139 0.274683 0.1711657 0.12401648 0.09332678
0.40370825 0.31295547 0.06775956 0.071976095 0.16870947 0.29061994 0.28269798 0.17812704
0.0736817 0.2176302 -0.20384009 0.30815524 0.40217963 0.09538504 -0.19934344 -0.24941449
0.40696406 0.08593931 0.3878358 0.3315727 -0.0008926607 -0.24408343 0.04991894 -0.13392821
0.1951765 -0.09302541 0.45725074 0.11687639 0.37008575 -0.14717731 -0.08383604 -0.02818673
-0.1014003 0.13269745 0.1707517 -0.34080583 -0.15714239 -0.0023868838 -0.16272731 0.16760914
0.19240285 0.31919065 -0.0065935883 -0.106634915 -0.23924959 -0.17076497 -0.14472546 0.114879064
0.36807796 -0.17672709 0.06624057 0.24943466 0.15770376 -0.20952453 0.22460638 -0.34385675
-0.2157686 0.3819748 -0.26370254 0.24699347 0.024018213 0.03614264 -0.1168421 -0.19000927
0.2600589 -0.23938878 0.20075671 -0.12853155 0.3209449 -0.033718314 0.21332288 0.24762732
0.1309802 -0.02717079 -0.32401076 -0.08450654 -0.011274448 -0.2818151 0.008226893 0.25613612
-0.19410956 0.22096361 0.2572938 0.18071279 -0.37104493 0.2483376 -0.16988806 0.17408895
-0.14724351 0.15252751 -0.02534406 0.06745928 -0.11966817 0.016705122 0.20928591 -0.14040303
0.20298016 -0.027178818 -0.10790197 -0.14628215 0.13573146 -0.18095574 -0.020503813 0.11317686
0.40808344 -0.054238796 0.21360193 0.2951599 -0.031996578 0.16672061 -0.17371693 -0.060655095
0.23979026 0.38570645 -0.21471098 0.3526704 0.040559705 -0.19536282 -0.12323346 -0.4087532
-0.12238571 0.18118776 0.02862252 0.09886375 0.30871457 0.00873944 -0.03695558 0.084779724
0.14882897 0.40853298 0.20649327 0.11279477 0.03476294 0.22141683 0.1779818 -0.113023095
0.13010699 -0.24350506 -0.14299175 0.32581443 -0.26832595 0.12205614 -0.34542686 0.060429793
-0.0608586 -0.29561606 0.31893632 0.15707435 -0.38753852 0.3909365 -0.27425972 -0.051930584
0.09701163 -0.16979629 -0.2505622 -0.26075217 -0.19928962 -0.058884766 0.23266603 -0.013182229
-0.10886201 -0.18653472 0.08585678 0.2998894 0.3078046 0.21974541 -0.14988536 -0.10096023
0.40561128 0.40715757 0.21476577 0.27472284 -0.22869655 0.32264912 0.0032780464 0.18747744
0.26104477 -0.21524699 0.076620564 0.3111653 0.30867258 0.28179547 -0.35307613 -0.24917579
-0.016883072 0.39765593 0.2012508 -0.044928282 0.20659992 0.18510562 0.044009574 -0.2104964
-0.005806519 0.03375272 -0.025180774 -0.25739747 0.25141957 -0.15773214 -0.14708988 -0.115721725
0.060879517 0.1544533 0.24730478 -0.09651281 0.09814957 -0.18710102 0.08443762 -0.32536805
0.19577704 -0.07716579 -0.02655684 0.21934445 0.25236058 0.31485716 -0.17167139 0.17561606
-0.19106713 0.113340124 0.34637585 0.041759692 0.08655906 -0.042024978 -0.2797427 0.15980053
0.25219122 0.27876416 -0.23152427 -0.28783205 0.2620259 -0.14979212 -0.21810605 -0.30975923
00000000: 2c53 553d 027d a73e 2d04 31be b0ca c93e
00000010: 1ef8 9d3d 661b 8bbe 0408 a2be b908 7d3e
00000020: fc3d 0d3e 4672 a73e aceb a83d 6959 d23e
00000030: f39a f7bd ed7f a4bc 3dcc eabd 1dbd d0be
00000040: 095b 68be 2d1c 46be 554d ca3e 558e 6f3e
00000050: 40a3 8c3e 1046 2f3e 5afc fd3d 1c22 bf3d
00000060: d9b2 ce3e b33b a03e 86c5 8a3d 3468 933d
00000070: 2dc2 2c3e 23cc 943e cabd 903e ef66 363e
00000080: 6ee6 963d 73da 5e3e 75bb 50be 86c6 9d3e
00000090: 7dea cd3e 3b59 c33d b020 4cbe 8366 7fbe
000000a0: 985d d03e f300 b03d 6a92 c63e e6c3 a93e
000000b0: 7201 6aba 02f1 79be cd77 4c3d 7a24 09be
000000c0: 59dc 473e 1b84 bebd c51c ea3e e45c ef3d
000000d0: e17b bd3e a6b5 16be 3bb2 abbd dbe7 e6bc
000000e0: f6aa cfbd d7e1 073e 89d9 2e3e 1a7e aebe
000000f0: efe9 20be 446d 1cbb fda1 26be bba1 2b3e
00000100: 4105 453e f56c a33e 070f d8bb 6863 dabd
00000110: d8fd 74be 03dd 2ebe e932 14be b745 eb3d
00000120: b774 bc3e f2f7 34be 23a9 873d cd6b 7f3e
00000130: 187d 213e 998d 56be 37ff 653e fe0d b0be
00000140: 72f2 5cbe 3392 c33e 0504 87be dbeb 7c3e
00000150: d8c1 c43c 4e0a 143d e94a efbd ca91 42be
00000160: 7126 853e 5522 75be 2b93 4d3e c69d 03be
00000170: e452 a43e 371c 0abd 5071 5a3e 0492 7d3e
00000180: ac1f 063e 4795 debc bde4 a5be c411 adbd
00000190: 76b8 38bc 124a 90be 17ca 063c 4624 833e
000001a0: a8c4 46be 4944 623e 03bc 833e c60c 393e
000001b0: 9af9 bdbe 364c 7e3e 23f7 2dbe 6044 323e
000001c0: 01c7 16be 2c30 1c3e 599e cfbc 1728 8a3d
000001d0: 9614 f5bd 2ed9 883c 0c4f 563e d0c5 0fbe
000001e0: 08da 4f3e 1da6 debc b5fb dcbd fdca 15be
000001f0: 30fd 0a3e 764c 39be 9df7 a7bc 45c9 e73d
00000200: 50f0 d03e 8029 5ebd 77ba 5a3e 331f 973e
00000210: d80e 03bd cfb8 2a3e dae2 31be 7a71 78bd
00000220: 948b 753e 517b c53e 32dd 5bbe 3791 b43e
00000230: ef21 263d 310d 48be d361 fcbd 1948 d1be
00000240: 5ca5 fabd 4989 393e c679 ea3c 1479 ca3d
00000250: d60f 9e3e de2f 0f3c bc5e 17bd fea0 ad3d
00000260: 9f66 183e 3c2b d13e f972 533e f200 e73d
00000270: 9663 0e3d 18bb 623e dc40 363e a778 e7bd
00000280: c43a 053e 6459 79be 6e6c 12be 26d1 a63e
00000290: 0562 89be 92f8 f93d cadb b0be 3b85 773d
000002a0: de46 79bd fd5a 97be 9f4b a33e 19d8 203e
000002b0: 736b c6be d428 c83e c56b 8cbe 2ab5 54bd
000002c0: 09ae c63d 14df 2dbe b049 80be 4f81 85be
000002d0: 9412 4cbe 2731 71bd 0140 6e3e 47fa 57bc
000002e0: 0cf3 debd f502 3fbe aed5 af3d 1a8b 993e
000002f0: 9198 9d3e f104 613e 8c7b 19be 3dc4 cebd
00000300: 48ac cf3e f576 d03e 8feb 5b3e 79a8 8c3e
00000310: 6e2f 6abe 4432 a53e 7ed4 563b 16fa 3f3e
00000320: a9a7 853e b569 5cbe 3eeb 9c3d 0f51 9f3e
00000330: 550a 9e3e 7f47 903e 65c6 b4be f027 7fbe
00000340: 5e4e 8abc 8f99 cb3e b114 4e3e b806 38bd
00000350: ee8e 533e 548c 3d3e 6243 343d 5e8c 57be
00000360: 9d44 bebb 4b40 0a3d e947 cebc 9ac9 83be
00000370: 11ba 803e 8984 21be bb9e 16be 83ff ecbd
00000380: cd5c 793d 0229 1e3e 773d 7d3e 82a8 c5bd
00000390: a402 c93d 6997 3fbe a2ed ac3d a496 a6be
000003a0: c779 483e 1909 9ebd bb8d d9bc d59b 603e
000003b0: 6835 813e f534 a13e a0ca 2fbe b2d4 333e
000003c0: 1aa7 43be de1e e83d 2d58 b13e 360c 2b3d
000003d0: e045 b13d 6222 2cbd 6f3a 8fbe c0a2 233e
000003e0: 351f 813e 2dba 8e3e b314 6dbe b95e 93be
000003f0: 4228 863e 1b63 19be 3157 5fbe c398 9ebe

rnn.bias_ih_l0 f4 [32]
0.37342295 0.15432627 0.3555651 -0.2542595 0.35391438 0.35568812 0.43324846 0.30656508
-0.23384686 0.27186227 0.22370888 -0.14322403 -0.0022509457 0.094495796 -0.25981414 -0.09589921
0.31129667 0.24927308 0.05009093 0.2241058 -0.16189912 -0.027860558 0.04416801 -0.31548023
-0.26900554 0.24214889 -0.28847355 0.3650378 0.30813804 0.01353385 -0.07753338 -0.17644426
00000000: 4b31 bf3e b507 1e3e a10c b63e 4d2e 82be
00000010: 4434 b53e c11c b63e bed2 dd3e 19f6 9c3e
00000020: 8d75 6fbe 8831 8b3e f113 653e 52a9 12be
00000030: 9a84 13bb 0387 c13d 5c06 85be ce66 c4bd
00000040: 4762 9f3e 7141 7f3e 262c 4d3d fe7b 653e
00000050: e2c8 25be d33b e4bc 84e9 343d a086 a1be
00000060: 18bb 89be e1f5 773e ceb2 93be 3ce6 ba3e
00000070: 45c4 9d3e 15bd 5d3c d2c9 9ebd cead 34be

rnn.bias_hh_l0 f4 [32]
-0.055343192 0.23784517 0.20162301 0.28406292 0.0124877505 0.031107936 -0.08723811 -0.29627016
0.007268168 0.21618794 -0.01946056 0.21619925 -0.27709994 0.13246442 0.31040794 -0.0016418213
0.20975482 -0.020700514 0.31422624 -0.047262456 0.20180017 0.08719118 -0.18597126 0.033195946
-0.233119 -0.18344715 0.34806308 -0.07180611 0.29635298 0.14559571 0.21748687 0.20191471
00000000: 8baf 62bd af8d 733e 4376 4e3e b270 913e
00000010: 6c99 4c3c 12d6 fe3c e5a9 b2bd b9b0 97be
00000020: d029 ee3b 5f60 5d3e c16b 9fbc 5663 5d3e
00000030: 0be0 8dbe c1a4 073e caed 9e3e 6232 d7ba
00000040: f8c9 563e 2094 a9bc 43e2 a03e 4796 41bd
00000050: b4a4 4e3e 4a91 b23d 406f 3ebe 79f8 073d
00000060: bfb6 6ebe 92d9 3bbe 5335 b23e 150f 93bd
00000070: 94bb 973e 0b17 153e e1b4 5e3e bbc2 4e3e
