models/VANE_link_pred_n2v_model/Generator_epoch_12.pth (torch, 55791 bytes, 8 tensors)

main.0.weight f4 [64, 10]
0.20021139 0.19971946 0.12938315 -0.079628654 -0.04878879 0.2478714 0.16810057 0.09179253
-0.10658169 0.19478422 0.25850624 -0.24316892 0.088335454 -0.22152059 0.0054041543 -0.17690052
-0.21087973 -0.1057427 -0.19344234 0.24064277 -0.15748505 0.03449566 -0.19924043 -0.19296645
-0.24490361 0.033181142 0.014998391 0.1854329 0.08840187 0.13112622 0.20708929 -0.19767842
-0.22981943 -0.10849474 -0.21397072 0.012173112 -0.15915306 -0.11750202 -0.16385368 -0.14903362
0.18890809 -0.040790394 0.059214897 -0.0045190128 0.21299143 0.011050663 0.11382901 -0.14003608
-0.07378719 -0.08651387 0.21751729 -0.049640395 0.041057553 0.014850811 0.041813668 0.1691684
-0.03912794 -0.20252204 0.10546593 0.071170785 -0.2638995 -0.12544374 0.04871759 -0.2325112
0.06506212 -0.12876786 0.14742482 0.13698989 -0.20006487 0.18796098 0.12556796 -0.23570517
0.10461571 0.118718386 0.01968583 0.15626764 0.19055654 -0.12908104 0.12171369 0.12261318
-0.047088414 -0.1601046 0.07566902 -0.07416104 0.020675259 0.1919657 -0.008553373 -0.20603478
-0.2135338 -0.19291952 0.119256146 -0.14347613 -0.1235831 0.19053012 -0.09608996 -0.1809813
-0.042079344 -0.25138864 0.14572778 0.14921792 -0.07520576 -0.062373113 -0.25570783 0.22002646
-0.016379375 -0.19992651 0.09711605 -0.1701217 -0.1955296 -0.021313166 0.21406923 -0.09438836
-0.07851744 0.25420892 -0.18174565 0.06734191 0.10937523 0.16146591 -0.25149658 -0.124635085
0.12804456 -0.057006594 -0.15883815 0.15476951 0.15618771 0.08559087 -0.07035917 -0.24503434
-0.12772475 -0.24546276 0.058208782 0.045766976 0.14004032 0.22981277 -0.024800122 0.10844039
0.20567897 -0.032606065 0.08163382 -0.042281177 -0.25350305 0.17931132 0.0067785317 -0.026118252
-0.06717444 0.16973935 -0.070765056 0.1260412 -0.059819557 0.13692108 0.0054360745 0.15625136
0.1485529 0.20809737 -0.09113719 -0.04420951 -0.08614347 -0.032918274 0.15330327 -0.192953
-0.04471723 -0.086904384 0.19322541 0.22035064 -0.15211922 0.10041805 -0.16622064 0.09411119
-0.13576835 -0.17604484 -0.06498678 -0.043310184 -0.04681195 -0.24941854 -0.073649615 -0.1408034
-0.25358444 0.06264892 0.23245524 0.22411339 -0.24401774 0.041869584 -0.10646501 0.052250963
-0.030687254 -0.13406143 0.15783173 -0.14733124 0.16002837 0.028700622 -0.17992787 -0.011419522
0.14917423 -0.19855995 -0.028372936 -0.10213203 -0.0870485 0.22216913 -0.06860325 0.17126845
-0.19711804 -0.24901305 0.25104323 0.23346125 -0.2518908 0.031165337 -0.0043030875 -0.14940068
0.20505628 -0.029477112 0.0925968 -0.048078094 -0.2369201 -0.21358024 0.1556353 0.16570494
0.25903004 0.009723442 -0.11825838 0.11918827 -0.10100304 -0.1940213 0.12068232 0.046239335
0.0034595458 0.045865156 0.0481308 0.09901363 -0.110294655 -0.083471596 0.218751 -0.2051318
-0.26649633 -0.13299964 -0.20133233 -0.004296584 0.21422732 0.016519297 -0.108483605 0.16818498
0.20456709 -0.14006057 -0.045011386 0.21939574 -0.20380378 0.049944025 -0.12912121 0.08534388
-0.15360798 0.10730252 -0.024535602 -0.05839249 -0.09459506 -0.1882498 -0.0016175555 0.17377481
00000000: 3704 4d3e 4283 4c3e 047d 043e 5914 a3bd
00000010: c1d6 47bd 00d2 7d3e 8e22 2c3e b9fd bb3d
00000020: 8047 dabd 8475 473e ee5a 843e 4601 79be
00000030: 38e9 b43d 4bd6 62be 5515 b13b 6925 35be
00000040: dbf0 57be a18f d8bd c015 46be 0f6b 763e
00000050: c343 21be 524b 0d3d af05 4cbe ff98 45be
00000060: 03c8 7abe f3e8 073d d0bb 753c 1fe2 3d3e
00000070: 0a0c b53d f445 063e 370f 543e 366c 4abe
00000080: c955 6bbe 7e32 debd 241b 5bbe bb71 473c
00000090: 05f9 22be e6a4 f0bd 42c9 27be 459c 18be
000000a0: 1f71 413e d413 27bd 528b 723d 3a14 94bb
000000b0: 6d1a 5a3e d70d 353c 2f1f e93d 9e65 0fbe
000000c0: bd1d 97bd 2f2e b1bd dabc 5e3e ba53 4bbd
000000d0: f72b 283d d150 733c cf44 2b3d 7b3a 2d3e
000000e0: 9e44 20bd f061 4fbe 86fe d73d fdc1 913d
000000f0: d61d 87be 5374 00be 188c 473d 6a17 6ebe
00000100: 4a3f 853d b9db 03be 88f6 163e 1447 0c3e
00000110: cedd 4cbe d878 403e e394 003e b25c 71be
00000120: c340 d63d a022 f33d 2e44 a13c a004 203e
00000130: 4121 433e d22d 04be 0745 f93d 9e1c fb3d
00000140: c8df 40bd 76f2 23be 5cf8 9a3d bee1 97bd
00000150: 295f a93c a892 443e 7223 0cbc c8fa 52be
00000160: 9ba8 5abe b28c 45be 913c f43d 68eb 12be
00000170: 2319 fdbd 541a 433e d0ca c4bd 2953 39be
00000180: 645b 2cbd 03b6 80be aa39 153e 95cc 183e
00000190: 7a05 9abd f37a 7fbd 23ec 82be 9e4e 613e
000001a0: 0a2e 86bc 89b9 4cbe c8e4 c63d 6234 2ebe
000001b0: e938 48be f398 aebc f734 5b3e af4e c1bd
000001c0: c0cd a0bd ac27 823e 881b 3abe 8eea 893d
000001d0: 1f00 e03d 5257 253e 29c4 80be ae40 ffbd
000001e0: 1d1e 033e bf7f 69bd 78a6 22be e67b 1e3e
000001f0: acef 1f3e 444a af3d 7818 90bd 48ea 7abe
00000200: 47ca 02be 975a 7bbe 556c 6e3d 2776 3b3d
00000210: bb66 0f3e 0a54 6b3e a029 cbbc ff15 de3d
00000220: 829d 523e f08d 05bd a22f a73d 072f 2dbd
00000230: 27cb 81be 639d 373e 721e de3b f2f5 d5bc
00000240: c192 89bd 27d0 2d3e 45ed 90bd f210 013e
00000250: 5a05 75bd 0a35 0c3e 1921 b23b 5b00 203e
00000260: 401e 183e 7a17 553e 23a6 babd 0815 35bd
00000270: fd6b b0bd 50d5 06bd 88fb 1c3e 7995 45be
00000280: 6a29 37bd edfa b1bd e2dc 453e 99a3 613e
00000290: 24c5 1bbe fba7 cd3d be35 2abe 5ebd c03d
000002a0: dc06 0bbe 1945 34be ca17 85bd 0566 31bd
000002b0: e3bd 3fbd 9367 7fbe 9cd5 96bd c42e 10be
000002c0: d2d5 81be 144e 803d bf08 6e3e fb7d 653e
000002d0: c9df 79be 717f 2b3d 540a dabd 1b05 563d
000002e0: d663 fbbc 6647 09be a49e 213e 00de 16be
000002f0: 7ade 233e 911d eb3c 033f 38be f218 3bbc
00000300: 21c1 183e 4d53 4bbe 5c6e e8bc 992a d1bd
00000310: 7c46 b2bd 4e80 633e dc7f 8cbd ff60 2f3e
00000320: 50d9 49be 47fd 7ebe bd88 803e 7710 6f3e
00000330: d5f7 80be 734e ff3c ea00 8dbb 7efc 18be
00000340: 46fa 513e fc79 f1bc 64a3 bd3d 89ed 44bd
00000350: 2f9b 72be c7b4 5abe dc5e 1f3e 8eae 293e
00000360: 969f 843e 124f 1f3c 7331 f2bd fb18 f43d
00000370: afda cebd 85ad 46be 4b28 f73d 7565 3d3d
00000380: 8cb9 623b 1add 3b3d cd24 453d a8c7 ca3d
00000390: 2ae2 e1bd 28f3 aabd 4300 603e 120e 52be
000003a0: 3572 88be 0f31 08be 102a 4ebe 5cca 8cbb
000003b0: 685e 5b3e 7a53 873c a72c debd af38 2c3e
000003c0: 097a 513e 0a6c 0fbe dc5d 38bd 47a9 603e
000003d0: f0b1 50be 1b92 4c3d 5a38 04be c6c8 ae3d
000003e0: 694b 1dbe 6cc1 db3d e3fe c8bc f72c 6fbd
000003f0: 0ebb c1bd 8ec4 40be 2804 d4ba 06f2 313e

main.0.bias f4 [64]
-0.17428966 -0.021247193 -0.0015553127 -0.1870367 0.08579722 0.04683663 -0.1685031 -0.03511241
0.19497895 0.22992688 -0.24641521 0.09466154 0.01533722 -0.16817644 -0.23055592 0.2766846
0.06730925 0.0009802371 0.10301683 0.23231925 0.23135108 0.06521179 0.19616237 -0.14376695
0.028268836 0.18566796 0.13577941 -0.21266599 0.26154763 0.22129247 0.2286829 -0.047187112
-0.102300175 -0.104066655 0.15377666 -0.1494567 0.025490295 0.090226844 -0.012531958 -0.19543731
0.0033718175 0.2258861 0.22482964 -0.022973476 -0.12405676 -0.16503564 0.17425767 -0.0062907417
0.0011302173 -0.08364815 0.039404634 -0.28034565 -0.027414147 -0.094489105 -0.16225813 -0.10478789
-0.169439 -0.030401807 0.054441758 -0.04708315 -0.10280525 0.06962332 -0.06229595 -0.07969223
00000000: fd78 32be 980e aebc a2db cbba 8c86 3fbe
00000010: 74b6 af3d c4d7 3f3d 148c 2cbe 08d2 0fbd
00000020: 90a8 473e f471 6b3e 4554 7cbe e9dd c13d
00000030: f748 7b3c 7236 2cbe da16 6cbe 9ba9 8d3e
00000040: 6fd9 893d 4d7b 803a 7dfa d23d 19e5 6d3e
00000050: 4ce7 6c3e c28d 853d cade 483e a537 13be
00000060: 0c94 e73c be1f 3e3e c209 0b3e 1dc5 59be
00000070: 92e9 853e 7e9a 623e da2b 6a3e 4647 41bd
00000080: c182 d1bd e620 d5bd a177 1d3e 2d0b 19be
00000090: 06d1 d03c dac8 b83d d752 4dbc b820 48be
000000a0: b6f9 5c3b b04e 673e be39 663e df32 bcbc
000000b0: 7811 febd 1aff 28be 9a70 323e 9122 cebb
000000c0: cd23 943a b94f abbd c166 213d 7789 8fbe
000000d0: a293 e0bc 8183 c1bd ff26 26be 099b d6bd
000000e0: 6b81 2dbe 360d f9bc 52fe 5e3d 43da 40bd
000000f0: 8f8b d2bd ac96 8e3d 0a2a 7fbd ae35 a3bd

main.3.weight f4 [64, 64]
0.036467224 -0.031518538 0.061415132 -0.07810927 -0.060016394 -0.021204589 -0.005372063 -0.008516703
0.058917005 0.07358509 0.07164886 0.08643253 0.022512736 0.06351566 -0.0067339763 -0.0406663
0.10024959 0.0667783 -0.10161072 0.042567056 -0.05964317 0.095983386 -0.0337468 0.026623715
0.013606456 0.02412533 -0.015980026 0.08433737 -0.0751173 0.0035620073 -0.057070952 0.05706089
0.061552472 0.06279512 -0.07668072 -0.10555709 -0.050291423 -0.08351073 0.033507016 0.064783216
0.09021563 0.0048950496 -0.059893947 -0.023981502 0.010436242 -0.011714942 0.102113806 0.06271861
-0.08191896 -0.06141374 0.035399955 0.007910601 -0.096677825 -0.011530812 0.016802024 0.005059306
0.067638054 -0.0019159178 0.04288495 -0.06286783 -0.08943663 0.050733406 -0.06431272 -0.01856848
0.066620834 0.010687909 -0.061801028 -0.01867235 0.046681296 0.019329075 0.013685901 0.002641403
-0.04582952 -0.012865329 -0.011962788 0.14125699 -0.03210002 -0.05425069 -0.041727837 -0.027438484
0.10106197 0.072594956 0.0053868913 -0.0479383 0.074131645 0.100854136 0.09479867 -0.046502076
-0.008101601 -0.051582407 -0.062137313 0.025950652 0.059722424 -0.04706895 0.10203926 -0.07585949
-0.12088025 -0.01729597 0.0070577594 -0.021300418 0.01623423 -0.053561136 -0.05182073 0.018813534
0.03818467 0.0976104 0.049043324 0.07156728 0.044676185 -0.05175789 0.042328928 0.0419856
-0.05012259 -0.056262944 0.11376599 0.0031139248 0.07212773 0.025568184 0.053057536 -0.04952033
0.08057664 0.09004888 0.102800734 -0.04407953 -0.0055119884 0.033754136 0.06794158 0.025087697
-0.029099118 -0.0122884195 -0.069497444 -0.05246454 0.025449736 -0.02596584 -0.048021477 -0.007917975
0.071279734 0.022999596 0.07437059 0.05660507 0.023340063 0.10574217 0.03460048 0.023521911
0.085566245 0.11797088 -0.05121967 -0.017554805 -0.018875506 0.037975818 0.098515235 -0.06596586
-0.0051652417 0.08517526 -0.042835418 -0.09471458 0.015627146 0.03833341 0.05764858 -0.0037502684
-0.025476262 0.018591471 -0.011690628 -0.082297556 -0.05946569 -0.04102302 -0.022928543 0.051284064
0.046712197 0.0097488165 -0.07387523 -0.00655068 -0.012382075 0.015792688 0.07605231 -0.035904005
0.024169754 0.000992635 0.013675842 -0.022069622 0.08940294 -0.02753756 -0.06713015 -0.08855176
0.00012038608 0.053685624 0.09804881 -0.052434932 -0.07666265 0.028821016 0.017246718 0.048722193
0.08059657 0.08726083 -0.015972758 0.031826816 -0.037438 0.030772218 -0.043147385 -0.03435328
0.0705141 0.037498683 -0.008684304 0.06070427 -0.017717017 0.07707925 -0.009431319 -0.0032772277
0.055046353 0.05623908 0.04053718 -0.09702333 -0.06010351 -0.033259362 -0.009976697 -0.035043303
-0.026504794 0.008459721 -0.08608287 -0.01684488 0.04779423 0.06582043 0.054808825 0.10770465
0.07439125 0.057105105 0.023301853 -0.043967 -0.011000953 0.022608057 -0.05960552 0.1165549
-0.04812627 -0.14217432 -0.036112357 -0.03735979 -0.009388538 -0.043532144 -0.052624393 0.0440168
0.018088887 -0.090709634 0.03705828 0.03657377 -0.06021636 -0.009517657 0.029630931 -0.07156766
0.013997062 0.11377225 0.032949775 -0.055137713 0.051932074 -0.058243748 0.094610475 0.013863167
00000000: a85e 153d 9519 01bd 6f8e 7b3d c1f7 9fbd
00000010: c0d3 75bd 3fb5 adbc 2108 b0bb a489 0bbc
00000020: f552 713d c8b3 963d a3bc 923d 8a03 b13d
00000030: a16c b83c 8014 823d b0a8 dcbb b591 26bd
00000040: a84f cd3d 10c3 883d 4819 d0bd cb5a 2e3d
00000050: 664c 74bd f092 c43d 163a 0abd fa19 da3c
00000060: 9ded 5e3c 7ca2 c53c 8be8 82bc 12b9 ac3d
00000070: 19d7 99bd 9170 693b 3bc3 69bd aeb8 693d
00000080: 721e 7c3d ba9a 803d c80a 9dbd 512e d8bd
00000090: 61fe 4dbd ac07 abbd a73e 093d 10ad 843d
000000a0: f9c2 b83d a766 a03b 5b53 75bd db74 c4bc
000000b0: c6fc 2a3c 07f0 3fbc 0b21 d13d 9d72 803d
000000c0: 21c5 a7bd f98c 7bbd 8bff 103d 779b 013c
000000d0: 06ff c5bd bbeb 3cbc 66a4 893c 89c8 a53b
000000e0: d285 8a3d 891f fbba 21a8 2f3d d9c0 80bd
000000f0: 8d2a b7bd d5cd 4f3d 63b6 83bd ed1c 98bc
00000100: 8170 883d 571c 2f3c 1323 7dbd c2f6 98bc
00000110: e334 3f3d 0258 9e3c d43a 603c 641b 2d3b
00000120: bcb7 3bbd 1ac9 52bc 92ff 43bc aca5 103e
00000130: 507b 03bd f935 5ebd cfea 2abd acc6 e0bc
00000140: 94f9 ce3d aaac 943d 8584 b03b f35a 44bd
00000150: 55d2 973d 9d8c ce3d ce25 c23d f678 3ebd
00000160: 94bc 04bc 1348 53bd b283 7ebd 7696 d43c
00000170: 809f 743d 5fcb 40bd f6f9 d03d 385c 9bbd
00000180: 1190 f7bd 47b0 8dbc c744 e73b 377e aebc
00000190: a6fd 843c ec62 5bbd f941 54bd d71e 9a3c
000001a0: 8767 1c3d f6e7 c73d a7e1 483d de91 923d
000001b0: 60fe 363d 1500 54bd 1961 2d3d 18f9 2b3d
000001c0: 584d 4dbd f973 66bd 25fe e83d fd12 4c3b
000001d0: b4b7 933d 5e74 d13c dc52 593d d4d5 4abd
000001e0: 5e05 a53d 8c6b b83d 3189 d23d bd8c 34bd
000001f0: e99d b4bb c741 0a3d f524 8b3d b784 cd3c
00000200: 4661 eebc 5e55 49bc ad54 8ebd 0fe5 56bd
00000210: f77b d03c 50b6 d4bc 2bb2 44bd 65ba 01bc
00000220: 1cfb 913d a669 bc3c 9c4f 983d b8da 673d
00000230: a933 bf3c 5a8f d83d 3cb9 0d3d 06b1 c03c
00000240: 5b3d af3d b79a f13d b7cb 51bd 18cf 8fbc
00000250: cea0 9abc 888c 1b3d 5bc2 c93d 1c19 87bd
00000260: 3041 a9bb 5e70 ae3d 3174 2fbd b8f9 c1bd
00000270: 8004 803c 7e03 1d3d eb20 6c3d 10c7 75bb
00000280: 98b3 d0bc 244d 983c 0c8a 3fbc 9f8b a8bd
00000290: 4c92 73bd c107 28bd a4d4 bbbc 3d0f 523d
000002a0: 4a55 3f3d 80b9 1f3c e64b 97bd 16a7 d6bb
000002b0: 30de 4abc ab5f 813c 50c1 9b3d 1410 13bd
000002c0: a6ff c53c 4e1b 823a a410 603c 5acb b4bc
000002d0: e318 b73d 7396 e1bc 887b 89bd a05a b5bd
000002e0: c977 fc38 75e5 5b3d d1cd c83d 03c6 56bd
000002f0: 4f01 9dbd 0d1a ec3c fd48 8d3c ec90 473d
00000300: d10f a53d ceb5 b23d 4dd9 82bc d65c 023d
00000310: 9758 19bd 0516 fc3c 50bb 30bd 06b6 0cbd
00000320: b269 903d 3898 193d 9c48 0ebc 0aa5 783d
00000330: 4723 91bc badb 9d3d d285 1abc c2c6 56bb
00000340: 4978 613d f35a 663d 500a 263d 2bb4 c6bd
00000350: 192f 76bd f83a 08bd 4d75 23bc 9189 0fbd
00000360: 9520 d9bc a49a 0a3c 374c b0bd 46fe 89bc
00000370: e2c3 433d ddcc 863d 387f 603d 4194 dc3d
00000380: 715a 983d 0be7 693d 87e3 be3c be16 34bd
00000390: 573d 34bc 8834 b93c eb24 74bd 56b4 ee3d
000003a0: 0d20 45bd 2596 11be 8dea 13bd 9406 19bd
000003b0: 62d2 19bc c34e 32bd ad8c 57bd f64a 343d
000003c0: 252f 943c f9c5 b9bd 6cca 173d 61ce 153d
000003d0: 6ea5 76bd f2ef 1bbc 91bc f23c 1192 92bd
000003e0: ef53 653c 6d01 e93d 58f6 063d 15d8 61bd
000003f0: bab6 543d ff90 6ebd 23c3 c13d 5622 633c

main.3.bias f4 [64]
0.07519563 -0.103379495 -0.046455856 0.07464038 0.08427492 -0.053890552 0.040338013 -0.09416546
0.044148836 0.0064178933 -0.105398804 -0.04817667 0.014359103 -0.04264993 -0.001897714 -0.046124388
0.06563683 -0.103554934 -0.069714904 0.012518047 -0.02461239 -0.061764553 -0.0014368272 0.051532462
0.034773387 -0.06830189 0.03891088 -0.058284815 -0.08978043 0.07695746 0.08595287 -0.036778666
0.022670344 0.037451334 0.043217074 -0.08593504 0.08787702 0.11157585 -0.028587675 -0.10852542
-0.0354098 0.0016103148 -0.015802095 0.09390413 0.0832505 0.050868798 -0.003328466 -0.09284912
0.08131435 -0.04619073 0.023527624 -0.047892954 -0.060027722 -0.019407276 -0.037125 0.07987176
-0.008277615 0.06658507 -0.12036651 -0.026367934 -0.09504432 0.05465728 -0.041952986 -0.10419131
00000000: 2b00 9a3d a1b8 d3bd 7f48 3ebd 0edd 983d
00000010: 5498 ac3d 57bc 5cbd 7939 253d d2d9 c0bd
00000020: 69d5 343d 314d d23b 54db d7bd e654 45bd
00000030: 7142 6b3c b1b1 2ebd b7bc f8ba edec 3cbd
00000040: 9a6c 863d 9c14 d4bd b0c6 8ebd 7f18 4d3c
00000050: ec9f c9bc d4fc 7cbd ec53 bcba b413 533d
00000060: 8a6e 0e3d dce1 8bbd 0461 1f3d 0fbc 6ebd
00000070: cdde b7bd df9b 9d3d 0f08 b03d 3aa5 16bd
00000080: 28b7 b93c 9266 193d 6304 313d b6fe afbd
00000090: def8 b33d e181 e43d b330 eabc 9342 debd
000000a0: de09 11bd 3311 d33a 6573 81bc cf50 c03d
000000b0: 3d7f aa3d cd5b 503d 6522 5abb ae27 bebd
000000c0: 2388 a63d 7e32 3dbd 01bd c03c 672b 44bd
000000d0: a1df 75bd 02fc 9ebc 6210 18bd ce93 a33d
000000e0: d59e 07bc c15d 883d b782 f6bd 9101 d8bc
000000f0: 99a6 c2bd 50e0 5f3d e5d6 2bbd 4162 d5bd

main.6.weight f4 [64, 64]
0.07551879 0.0046750377 -0.017634112 -0.06971793 0.037234098 0.093525834 -0.104697 0.075491816
-0.026937813 0.0065461705 -0.09107883 -0.041415684 -0.07755778 0.043281276 0.0036796222 0.015097892
-0.103305675 0.018663337 -0.007974702 -0.09595318 0.006138675 0.027646173 -0.124151245 0.030276148
-0.041425318 -0.08184794 -0.0664655 0.12376555 0.10320331 0.12556379 0.0693809 0.04276925
-0.07601164 0.0028168056 0.058699615 0.07074008 -0.028542498 0.11737669 -0.040504985 0.12211919
-0.04089691 -0.11926271 -0.05539369 -0.05868793 -0.041512605 -0.10028797 -0.03321344 0.117973015
0.11757417 -0.00473163 0.010410526 -0.06686232 -0.020747297 -0.040981602 -0.079012655 -0.04965282
0.030026117 -0.04827604 0.05591489 -0.10180069 -0.07821972 0.053420115 0.10495502 0.07885275
-0.08001473 0.100674674 0.026435276 0.11644802 0.08777744 -0.04085862 -0.003883634 0.0069492245
-0.015396604 0.00078188814 -0.0883127 0.029348118 -0.11980548 0.06597527 -0.10758858 -0.029314468
-0.08622463 -0.096686 0.08780201 -0.0019995985 0.040884297 0.07331717 0.024885416 0.0008799017
-0.08512815 0.04399394 -0.074087694 -0.03502926 -0.072158836 -0.00873663 -0.06109068 -0.001844062
0.061336968 -0.014477709 0.045090683 -0.09912146 -0.0348003 -0.10032415 -0.014215362 0.0876785
0.083080634 0.013096603 0.03440375 -0.007970808 0.06509102 0.021053175 -0.08374289 -0.031207591
-0.004265649 0.048737284 0.0013171831 -0.029687306 0.08293408 0.013587804 0.03653165 0.08814317
0.034792207 -0.046661682 -0.025170267 -0.061872937 0.049691956 0.10832576 0.10630451 0.07093037
-0.02053562 -0.044223305 -0.033854168 0.10116527 -0.05492731 0.014134117 -0.04293803 0.055424754
-0.025390185 -0.021370875 0.05675557 0.08352806 -0.0076598963 0.08526962 0.0742787 0.016497592
0.027369915 0.010206106 0.009320005 -0.13380757 -0.07424701 -0.122235574 0.05428241 0.050634313
0.085308716 -0.041910738 -0.06289123 0.020041205 -0.0027598587 0.13259147 0.14139377 -0.09046396
-0.011936705 0.113545075 -0.067935444 0.07347264 -0.044989828 -0.026664276 0.045835197 0.025538122
0.08983152 -0.06739425 0.03137743 -0.048800938 0.0012199443 0.086316794 -0.0729468 -0.036273412
-0.050776925 0.099430025 0.041234117 -0.07492637 -0.102212824 -0.0325825 0.002940442 -0.03390029
0.02245538 0.09093294 0.08500474 0.05754634 0.0782945 0.0014025499 0.08730151 0.016060138
0.024507424 0.08105885 -0.09078008 -0.096418805 -0.05628327 -0.061941274 -0.06902664 -0.013904889
-0.015211629 -0.104143955 0.10709469 0.081166476 0.07225591 0.0063405302 -0.05744079 0.108571194
-0.038305186 0.01210653 -0.10682502 -0.09774762 0.0768361 0.10567584 -0.08420096 0.07046962
0.021644775 0.0061318562 0.046645187 -0.022564806 0.034057286 -0.010185974 0.08187337 0.12033666
-0.023389965 0.1307301 -0.069607414 -0.056319248 0.007963507 -0.09037148 0.066343226 0.039610017
0.030445863 0.08115337 -0.032356467 0.05377135 -0.00075505866 0.07904836 0.013741902 0.039450996
-0.005470738 -0.065258645 -0.057531208 -0.0926112 -0.009188284 -0.055206448 0.03189139 0.053085126
0.0073252697 -0.02109388 0.064739734 -0.05441961 0.038190674 -0.051575974 0.029985294 -0.04466204
00000000: 98a9 9a3d 0f31 993b 6a75 90bc 46c8 8ebd
00000010: c882 183d 798a bf3d 616b d6bd 749b 9a3d
00000020: b0ac dcbc 4281 d63b 8a87 babd 7ea3 29bd
00000030: 9dd6 9ebd b547 313d d125 713b 265d 773c
00000040: ed91 d3bd dbe3 983c 53a8 02bc 1a83 c4bd
00000050: f026 c93b 3a7a e23c 0243 febd af05 f83c
00000060: 98ad 29bd e59f a7bd 101f 88bd cb78 fd3d
00000070: 425c d33d cb93 003e 9317 8e3d cf2e 2f3d
00000080: feab 9bbd 289a 383b 026f 703d 2de0 903d
00000090: f5d1 e9bc 3163 f03d 8ee8 25bd a019 fa3d
000000a0: 8583 27bd 0240 f4bd 7ee4 62bd c162 70bd
000000b0: 1f09 2abd c763 cdbd d10a 08bd d69b f13d
000000c0: baca f03d ca0b 9bbb e990 2a3c 1def 88bd
000000d0: 3cf6 a9bc 53dc 27bd 63d1 a1bd c160 4bbd
000000e0: 55f9 f53c 19bd 45bd 0307 653d e17c d0bd
000000f0: a931 a0bd 0dcf 5a3d a8f2 d63d 8d7d a13d
00000100: c3de a3bd 862e ce3d cb8e d83c 4d7c ee3d
00000110: a9c4 b33d 5e5b 27bd 9184 7ebb 52b6 e33b
00000120: 0a42 7cbc a0f7 4c3a 4add b4bd 776b f03c
00000130: 935c f5bd 0b1e 873d 6757 dcbd e524 f0bc
00000140: 8a96 b0bd 4f03 c6bd 8ad1 b33d b20b 03bb
00000150: 4b76 273d 5027 963d 80dc cb3c 34a9 663a
00000160: ab57 aebd fd32 343d 4abb 97bd d77a 0fbd
00000170: 03c8 93bd 1524 0fbc 393a 7abd 74b4 f1ba
00000180: 793c 7b3d ea33 6dbc 02b1 383d 3100 cbbd
00000190: c28a 0ebd bf76 cdbd 8de7 68bc c990 b33d
000001a0: 2e26 aa3d 2293 563c f2ea 0c3d fe97 02bc
000001b0: 714e 853d b577 ac3c 6481 abbd 10a7 ffbc
000001c0: dbc6 8bbb bfa0 473d 55a5 ac3a cb32 f3bc
000001d0: 58d9 a93d 619f 5e3c 36a2 153d 6884 b43d
000001e0: 4682 0e3d 5220 3fbd e031 cebc 7a6e 7dbd
000001f0: cb89 4b3d e5d9 dd3d 2eb6 d93d f143 913d
00000200: 513a a8bc 7f23 35bd abaa 0abd bd2f cf3d
00000210: 76fb 60bd c992 673c cadf 2fbd 1105 633d
00000220: 14ff cfbc f911 afbc 8778 683d c210 ab3d
00000230: deff fabb d7a1 ae3d 6e1f 983d f525 873c
00000240: df36 e03c 8337 273c efb2 183c da04 09be
00000250: d10e 98bd a556 fabd 3b57 5e3d ed65 4f3d
00000260: 56b6 ae3d 98aa 2bbd 1ecd 80bd 742d a43c
00000270: bfde 34bb 0fc6 073e 87c9 103e 2b45 b9bd
00000280: 2b92 43bc 528a e83d bd21 8bbd d378 963d
00000290: 4147 38bd 0a6f dabc b0bd 3b3d 5335 d13c
000002a0: 97f9 b73d ff05 8abd 9f85 003d 7ee3 47bd
000002b0: 8ae6 9f3a dcc6 b03d 2265 95bd 6e93 14bd
000002c0: 77fb 4fbd f8a1 cb3d 1be5 283d ff72 99bd
000002d0: f554 d1bd 3a75 05bd 6eb4 403b 08db 0abd
000002e0: 58f4 b73c 0d3b ba3d f716 ae3d b6b5 6b3d
000002f0: de58 a03d c4d5 b73a 22cb b23d 8d90 833c
00000300: cbc3 c83c 2f02 a63d e8ea b9bd 3977 c5bd
00000310: 4989 66bd 22b6 7dbd d75d 8dbd 55d1 63bc
00000320: 323a 79bc 6d49 d5bd 7654 db3d 9c3a a63d
00000330: e8fa 933d 39c4 cf3b 0947 6bbd 935a de3d
00000340: e6e5 1cbd 785a 463c 13c7 dabd e72f c8bd
00000350: 3f5c 9d3d 936c d83d 8e71 acbd 6052 903d
00000360: 6250 b13c bded c83b 060f 3f3d d4d9 b8bc
00000370: a77f 0b3d 12e3 26bc 3aad a73d 1173 f63d
00000380: 509c bfbc 1dde 053e 558e 8ebd 03af 66bd
00000390: 5f79 023c af14 b9bd f5de 873d 1d3e 223d
000003a0: 9a69 f93c bd33 a63d 3788 04bd 593f 5c3d
000003b0: 21ef 45ba 1be4 a13d b725 613c 5e97 213d
000003c0: e043 b3bb 53a6 85bd d8a5 6bbd f1aa bdbd
000003d0: 758a 16bc 2820 62bd 8ca0 023d ca6f 593d
000003e0: d108 f03b 13cd acbc 4496 843d 19e7 5ebd
000003f0: d36d 1c3d 5441 53bd b8a3 f53c 8bef 36bd

main.6.bias f4 [64]
-0.025150415 -0.02111919 -0.07460482 -0.042155437 -0.010933355 -0.012504337 0.10837007 0.041925155
0.035148136 0.07654153 -0.05212709 -0.030064726 -0.050488114 -0.02578841 -0.05170738 -0.0787426
-0.09553606 0.060201414 -0.030070422 -0.03306459 -0.010866344 -0.03519682 -0.10898958 0.048866965
-0.03831319 -0.0023772926 -0.04462004 -0.08766699 -0.095675685 -0.09030252 -0.087398335 -0.076587945
-0.031597573 -0.06906369 0.10769999 0.04621048 0.016694915 -0.089632735 0.07539883 -0.061847694
0.024192343 -0.12355593 -0.08701962 0.0792732 0.012255677 -0.10299851 -0.07535237 0.06119762
0.035821278 0.03785587 -0.07178472 0.060287844 -0.070969686 -0.019119643 -0.051960714 -0.008099615
-0.048290238 -0.024800649 0.06170364 -0.09494265 0.12199511 0.1051119 -0.029003076 -0.07313047
00000000: 3e08 cebc 2702 adbc 69ca 98bd 2eab 2cbd
00000010: d121 33bc fede 4cbc 21f1 dd3d b6b9 2b3d
00000020: 7ef7 0f3d cec1 9c3d 3783 55bd 4d4a f6bc
00000030: a0cc 4ebd 3742 d3bc 1ecb 53bd cd43 a1bd
00000040: 69a8 c3bd c295 763d 3f56 f6bc bc6e 07bd
00000050: c008 32bc 8a2a 10bd ee35 dfbd ba28 483d
00000060: 4bee 1cbd 5acc 1bbb 81c3 36bd c08a b3bd
00000070: 9df1 c3bd 87f0 b8bd e6fd b2bd 24da 9cbd
00000080: 756c 01bd 4471 8dbd d091 dc3d 3347 3d3d
00000090: c6c3 883c 5e91 b7bd b46a 9a3d 0254 7dbd
000000a0: 052f c63c e40a fdbd 5837 b2bd fd59 a23d
000000b0: 09cc 483c e2f0 d2bd 5852 9abd 5baa 7a3d
000000c0: 55b9 123d c20e 1b3d de03 93bd 63f0 763d
000000d0: 8e58 91bd cca0 9cbc c2d4 54bd 3fb4 04bc
000000e0: fccb 45bd bb2a cbbc f5bc 7c3d 4b71 c2bd
000000f0: 92d8 f93d e844 d73d dc97 edbc 6ec5 95bd

main.9.weight f4 [64, 64]
0.026947465 0.015110935 -0.13024338 -0.030438362 -0.034963954 -0.002079886 -0.03574544 0.048989777
-0.024905296 -0.09295145 -0.037865147 -0.03168203 0.019517664 0.014853812 -0.0013295687 0.06531047
-0.13331491 0.056520775 -0.13593137 0.06261301 0.081537604 -0.037054665 -0.013228606 -0.012831474
-0.11714561 -0.039238498 0.04842481 -0.08210385 0.023350926 -0.044079877 -0.08610868 0.045341633
-0.045063313 -0.010619227 0.06921116 -0.076193035 0.03154588 -0.023090051 0.022958867 0.0011307056
0.0324643 0.06635777 -0.024771374 -0.057860203 -0.052284766 0.06269516 0.026266126 0.07191962
-0.020007819 0.009340645 0.0018701125 -0.11201688 -0.036273412 0.04822036 0.07017596 -0.012552969
0.019831117 0.08635864 0.10272861 -0.055035517 -0.041509125 0.016889095 -0.07129491 -0.09690037
-0.025563082 -0.083204165 -0.087315775 0.12222572 -0.050731253 0.0027429312 -0.048563935 0.06722804
-0.013365039 -0.07538913 0.03337268 0.05072743 -0.0358072 0.10101769 0.018696425 0.019069565
0.01038642 -0.049244326 0.10684243 0.11107622 0.043327276 -0.037883837 0.10512118 0.043593183
0.023227997 -0.07083371 -0.07311253 -0.019402297 0.01755689 -0.099508114 -0.022092285 -0.03307561
-0.08204629 0.06967895 -0.05829095 0.069757394 0.0024446999 -0.06841599 -0.009088838 -0.023466663
-0.0043495125 0.098727554 0.075557314 -0.094694644 0.07815154 0.011986135 -0.012942734 -0.06995859
-0.084105834 0.04472023 -0.03670205 -0.0027778181 0.09932349 -0.076792635 0.10102825 -0.012954683
0.06737878 -0.11123436 -0.004505326 -0.0590903 -0.047225237 -0.010725745 0.06528473 -0.062933825
-0.015681941 0.09145414 0.106183045 0.0070096115 -0.07562188 0.13590516 -0.014847188 -0.037148967
0.06367034 -0.029420238 0.075972356 0.03299652 -0.04029125 0.11022524 0.10355751 0.034502223
-0.10335992 -0.03485851 0.075433075 -0.13702536 -0.026142824 0.0049807797 0.046076134 -0.09345384
-0.0012236041 -0.051522322 0.05187614 0.0018407445 -0.0949196 -0.02584894 -0.08988826 0.018858047
0.067464575 0.004672164 0.10452285 0.049960773 -0.083620325 0.0967393 -0.0459209 0.06242688
0.05970915 -0.061358694 -0.042369727 0.07563746 0.07734602 -0.095681906 -0.09998843 0.0744805
-0.0056355107 -0.08577228 0.019079397 -0.100966245 0.099083915 0.032823056 0.047071237 -0.042553537
-0.031270802 -0.10094431 0.011980491 -0.051026735 -0.027501035 0.04054772 -0.036028367 0.029206077
0.029666984 -0.036051568 -0.12583233 -0.08962991 -0.08811695 -0.026505392 0.13167807 0.012237216
-0.10257389 -0.090484336 -0.06710026 0.040923405 0.049790148 -0.13099475 0.009810893 0.060964968
-0.02095086 -0.042098008 0.032260306 -0.12722541 -0.024848389 0.03898989 0.019664362 0.06271954
-0.049946453 0.0018320197 0.02086156 -0.049649447 -0.08825748 0.035322662 0.026757926 0.09517683
0.04921988 0.07620642 -0.01941199 -0.07633513 0.110097215 0.02066451 -0.0060180374 -0.06791731
0.09700128 0.04212111 0.05842675 -0.05878892 0.13028438 -0.025137177 -0.10120973 0.05252878
0.0379645 0.023978261 0.04341591 -0.06341695 -0.05321481 -0.011219804 0.050506927 0.009590431
-0.12453895 0.07015041 -0.043384176 0.022184068 0.11287338 0.082788445 0.029358108 0.018554272
00000000: eec0 dc3c db93 773c 855e 05be df59 f9bc
00000010: 5d36 0fbd b24e 08bb cf69 12bd 81a9 483d
00000020: 3106 ccbc 545d bebd 7c18 1bbd 04c5 01bd
00000030: 82e3 9f3c 675d 733c ec44 aeba 7fc1 853d
00000040: b483 08be 5482 673d 9831 0bbe 403b 803d
00000050: 30fd a63d a2c6 17bd ccbc 58bc 1a3b 52bc
00000060: 0aea efbd 8cb8 20bd 1859 463d 1026 a8bd
00000070: 714a bf3c 1a8d 34bd bf59 b0bd 26b8 393d
00000080: 4f94 38bd 44fc 2dbc 95be 8d3d 180b 9cbd
00000090: 4136 013d 5927 bdbc 3c14 bc3c 2f34 943a
000000a0: 49f9 043d 95e6 873d 56ed cabc d2fe 6cbd
000000b0: 8d28 56bd 5266 803d 0f2c d73c 984a 933d
000000c0: 70e7 a3bc 8109 193c 901e f53a 1b69 e5bd
000000d0: 6e93 14bd b682 453d 6ab8 8f3d f8aa 4dbc
000000e0: de74 a23c ccdc b03d 6163 d23d ec6c 61bd
000000f0: 7905 2abd 005b 8a3c 1103 92bd b473 c6bd
00000100: ab69 d1bc f266 aabd 9dd2 b2bd 7a51 fa3d
00000110: 93cb 4fbd c0c2 333b faea 46bd dbae 893d
00000120: 09f9 5abc 9e65 9abd cbb1 083d 91c7 4f3d
00000130: 92aa 12bd 5de2 ce3d 3f29 993c c737 9c3c
00000140: ce2b 2a3c 6bb4 49bd 34d0 da3d ee7b e33d
00000150: f177 313d 152c 1bbd c649 d73d c48e 323d
00000160: a448 be3c 4411 91bd 06bc 95bd 91f1 9ebc
00000170: 78d3 8f3c e9ca cbbd e1fa b4bc 4a7a 07bd
00000180: e307 a8bd d6b3 8e3d 7ec2 6ebd f7dc 8e3d
00000190: 4237 203b af1d 8cbd 59e9 14bc 293d c0bc
000001a0: 5b86 8ebb ac31 ca3d cbbd 9a3d 44ef c1bd
000001b0: ea0d a03d 7e61 443c c30d 54bc 7346 8fbd
000001c0: ae3f acbd 8f2c 373d e454 16bd 0e0c 36bb
000001d0: 1d6a cb3d 7545 9dbd e6e7 ce3d e13f 54bc
000001e0: e3fd 893d d7ce e3bd 6aa1 93bb ac08 72bd
000001f0: 406f 41bd 09bb 2fbc 00b4 853d 73e3 80bd
00000200: 6a77 80bc 4f4c bb3d 7f76 d93d e2b0 e53b
00000210: a5df 9abd b92a 0b3e 9f41 73bc 8429 18bd
00000220: 9865 823d b602 f1bc 6597 9b3d 5c27 073d
00000230: 7008 25bd c5bd e13d f615 d43d 3452 0d3d
00000240: 5eae d3bd ccc7 0ebd a87c 9a3d 6050 0cbe
00000250: 7a29 d6bc cf35 a33b 54ba 3c3d ba64 bfbd
00000260: 5761 a0ba 1209 53bd 137c 543d 2345 f13a
00000270: 3565 c2bd 28c1 d3bc 5617 b8bd 317c 9a3c
00000280: de2a 8a3d f418 993b 1310 d63d aba3 4c3d
00000290: 2241 abbd 411f c63d 8e17 3cbd 54b3 7f3d
000002a0: 9591 743d 4153 7bbd e18b 2dbd d0e7 9a3d
000002b0: 9767 9e3d e0f4 c3bd bcc6 ccbd 3b89 983d
000002c0: 17aa b8bb 61a9 afbd 654c 9c3c 64c7 cebd
000002d0: 82ec ca3d 7871 063d c5cd 403d 9e4c 2ebd
000002e0: d015 00bd e4bb cebd d249 443c 6901 51bd
000002f0: da49 e1bc 5e15 263d 7b92 13bd 9541 ef3c
00000300: 2d08 f33c cfaa 13bd 31da 00be e38f b7bd
00000310: a976 b4bd d621 d9bc 9ed6 063e 9b7e 483c
00000320: 4212 d2bd da4f b9bd dc6b 89bd 4d9f 273d
00000330: c1f0 4b3d 7d23 06be debd 203c 67b6 793d
00000340: 23a1 abbc f66e 2cbd 6223 043d 6147 02be
00000350: d98e cbbc ddb3 1f3d 2817 a13c 1a73 803d
00000360: a794 4cbd 6120 f03a dde5 aa3c 385d 4bbd
00000370: 56c0 b4bd 7fae 103d 7033 db3c 12ec c23d
00000380: c99a 493d 1d12 9c3d e505 9fbc 9855 9cbd
00000390: a67a e13d 9e48 a93c f532 c5bb 3b18 8bbd
000003a0: 9ba8 c63d 2f87 2c3d e350 6f3d a7cc 70bd
000003b0: 4569 053e 7bec cdbc 0c47 cfbd 6b28 573d
000003c0: aa80 1b3d 0f6e c43c e2d4 313d bfe0 81bd
000003d0: c6f7 59bd 45d3 37bc 5ae0 4e3d 2f21 1d3c
000003e0: 470e ffbd 05ab 8f3d 9bb3 31bd 5dbb b53c
000003f0: 292a e73d fd8c a93d 6a80 f03c 21ff 973c

main.9.bias f4 [64]
-0.05322673 0.009574071 -0.007875482 -0.007949511 -0.05345659 -0.06816905 -0.03660908 -0.044329803
0.025278173 0.016529318 -0.06569908 0.059412014 0.021855412 -0.0021337434 -0.037683055 0.017421545
0.06645131 0.009681343 -0.027619705 -0.029452328 0.019583195 -0.023219923 -0.018004756 0.014484949
-0.07166428 0.042498726 -0.016248483 0.06370265 -0.047989823 -0.034750935 0.0019415678 0.017900607
-0.014500062 -0.076053925 0.011959746 0.047525402 0.0061633554 0.035000917 -0.011345745 0.076463744
0.06237203 -0.010354619 -0.04982872 0.04657981 0.0066613024 -0.01431528 -0.016575241 -0.037080888
-0.04290083 -0.0031378744 0.022843642 -0.012490913 0.06667255 -0.05898426 -0.008773889 0.029961111
-0.038096886 0.08292302 -0.036944892 0.0331872 0.066339985 -0.029822364 -0.052046522 0.08167093
00000000: 4604 5abd 90dc 1c3c 2a08 01bc aa3e 02bc
00000010: 4cf5 5abd 379c 8bbd 67f3 15bd 2b93 35bd
00000020: 2c14 cf3c 7e68 873c 3d8d 86bd 035a 733d
00000030: 1f0a b33c 46d6 0bbb 8c59 1abd a1b7 8e3c
00000040: a017 883d 7f9e 1e3c b842 e2bc 0246 f1bc
00000050: f06c a03c b537 bebc b67e 93bc 4852 6d3c
00000060: b9c4 92bd 2513 2e3d 8a1b 85bc 8976 823d
00000070: fa90 44bd ff56 0ebd 347c fe3a 4ba4 923c
00000080: ab91 6dbc 29c2 9bbd cff2 433c ffa9 423d
00000090: f9f5 c93b 1f5d 0f3d 81e3 39bc 0699 9c3d
000000a0: d079 7f3d 6ba6 29bc 3319 4cbd 79ca 3e3d
000000b0: 0e47 da3b a38a 6abc cdc8 87bc 21e2 17bd
000000c0: c8b8 2fbd cca4 4dbb 9722 bb3c b0a6 4cbc
000000d0: 9e8b 883d 7b99 71bd 5cc0 0fbc 0171 f53c
000000e0: 7b0b 1cbd 8bd3 a93d 8753 17bd 4def 073d
000000f0: 42dd 873d 084e f4bc bc2e 55bd 1743 a73d
