models/VANE_link_pred_n2v_model/Generator_epoch_9.pth (torch, 55791 bytes, 8 tensors)

main.0.weight f4 [64, 10]
000000 46 e6 52 3e 6a f2 4d 3e 19 25 07 3e f2 5c a7 bd
       0.20595655 0.20112005 0.13197745 -0.08172025
000010 af d9 57 bd db 45 80 3e 90 d9 2f 3e a0 6d c4 3d
       -0.052697834 0.25053295 0.17172837 0.09591222
000020 35 3b e6 bd 99 64 49 3e 69 7f 86 3e 55 e0 7a be
       -0.112417616 0.19667281 0.2626908 -0.24499638
000030 6c 46 b8 3d af b5 63 be dd 3c 04 3c 09 45 38 be
       0.08997807 -0.22237276 0.008071152 -0.17995085
000040 d0 fe 57 be 34 1f d8 bd 43 bc 4b be cf e7 76 3e
       -0.21093297 -0.105528265 -0.19896035 0.24111865
000050 eb c1 21 be ef 7a 0f 3d 26 ca 4b be 47 9a 46 be
       -0.1579663 0.035029348 -0.19901332 -0.1939479
000060 94 51 7b be 56 b6 11 3d 93 e0 84 3c ee 2f 41 3e
       -0.24542838 0.03557428 0.016220367 0.1886594
000070 d9 2f b9 3d 4b 7a 0a 3e 3c 0d 56 3e 5f e9 4f be
       0.09042329 0.13523214 0.20903486 -0.20303868
000080 70 a1 6f be 34 3a e0 bd ae 05 61 be 8a 62 4a 3c
       -0.23401427 -0.10948601 -0.21974823 0.012352595
000090 81 ba 26 be 25 d8 f2 bd af 0a 2c be 0e 82 1b be
       -0.16282083 -0.118576325 -0.1680095 -0.1518633
0000a0 15 c6 43 3e 6f d8 1c bd b4 74 7a 3d 2e 5d e7 bb
       0.19118531 -0.038292345 0.061146453 -0.0070606684
0000b0 e3 2c 5d 3e 65 de 59 3c 87 af e7 3d e2 ab 11 be
       0.21599154 0.013297652 0.11312776 -0.14225724
0000c0 f0 03 98 bd 67 13 b4 bd 42 c1 5e 3e db b1 51 bd
       -0.07422626 -0.08792763 0.2175341 -0.051195007
0000d0 cc de 25 3d 33 64 40 3c 71 96 3d 3d ad 1a 2f 3e
       0.04049568 0.011742639 0.04628605 0.1710002
0000e0 1c 0b 1f bd e6 64 54 be 45 f2 d8 3d 39 12 90 3d
       -0.038828954 -0.20741615 0.10593084 0.07034726
0000f0 c1 ab 88 be 96 75 02 be 96 73 45 3d 25 a6 6d be
       -0.26693538 -0.12740168 0.048205934 -0.2320791
000100 36 90 88 3d 34 06 06 be 1f 10 19 3e 39 a3 0f 3e
       0.06668131 -0.13088304 0.14947556 0.14027108
000110 e7 aa 4d be dd bc 40 3e b6 52 fc 3d 0d 28 72 be
       -0.20084725 0.18822046 0.12320463 -0.2364809
000120 59 8f db 3d bb 80 f4 3d e2 e0 a5 3c be 4e 24 3e
       0.10720701 0.11938616 0.020248834 0.16045663
000130 3c 45 44 3e 9b 3b 03 be 54 4c 00 3e 31 43 00 3e
       0.19167036 -0.12815706 0.12529117 0.12525631
000140 ee 7a 40 bd c4 94 25 be f0 98 9c 3d bf f0 96 bd
       -0.046992235 -0.16170031 0.07646358 -0.073701374
000150 10 e9 a9 3c 88 b0 48 3e e0 f0 2e bc f6 d7 57 be
       0.020741016 0.19598591 -0.010677546 -0.21078476
000160 71 2c 5b be f2 4f 47 be 1e 5c ff 3d e4 13 19 be
       -0.21403672 -0.1946409 0.12468742 -0.14948994
000170 b1 47 fa bd 83 97 46 3e 77 00 cb bd f1 48 38 be
       -0.12220705 0.19393735 -0.09912198 -0.17996575
000180 b4 d6 23 bd 6e d1 83 be df 56 1c 3e da 3e 1c 3e
       -0.03999968 -0.2574572 0.15267514 0.15258351
000190 6a 64 99 bd 4e 3b 87 bd 66 54 85 be 1e 8c 67 3e
       -0.074898556 -0.06603108 -0.26040953 0.22612044
0001a0 bf 83 a3 bc 37 49 51 be 79 b0 c5 3d 3f 73 30 be
       -0.019960282 -0.20438085 0.096528 -0.17231463
0001b0 4d f5 4b be 84 c9 a8 bc 85 4a 5d 3e 30 7e bf bd
       -0.19917794 -0.020603903 0.21610458 -0.0935024
0001c0 43 da a4 bd 1c d3 81 3e a3 27 3a be cc 56 8a 3d
       -0.080494426 0.25356376 -0.18179183 0.067548364
0001d0 a9 44 ea 3d d4 05 2a 3e d3 e2 82 be 36 d3 01 be
       0.11438877 0.16603786 -0.25563678 -0.12678227
0001e0 0e e3 06 3e c1 ca 73 bd 59 36 25 be b3 76 22 3e
       0.13172552 -0.059519533 -0.16134013 0.15865593
0001f0 a4 33 22 3e dd 03 b4 3d 57 35 92 bd 4e a0 7e be
       0.15840012 0.08789799 -0.0713908 -0.24865839
000200 9d 3d 05 be b2 44 7d be 5e e0 6e 3d e0 1b 40 3d
       -0.13011785 -0.24733236 0.058319442 0.046901584
000210 b2 15 14 3e ff 43 71 3e 73 6c db bc d3 77 e2 3d
       0.14461401 0.23561095 -0.026785111 0.11058011
000220 32 1f 57 3e 63 ab 10 bd 22 b4 b1 3d 36 1a 32 bd
       0.21007994 -0.035319697 0.08676936 -0.043482028
000230 69 1d 83 be 46 14 3a 3e 55 0f 03 3c cc 35 c1 bc
       -0.25608376 0.18171796 0.007999261 -0.023585223
000240 68 1c 90 bd 8f 4a 32 3e 8e 84 97 bd 70 93 ff 3d
       -0.07036668 0.17411254 -0.0739833 0.12479293
000250 f8 c3 70 bd 70 22 0d 3e 0e 5a 00 bb 27 6a 22 3e
       -0.05878064 0.13782668 -0.0019584927 0.15860806
000260 ba 7e 17 3e 64 62 54 3e 7d 25 b3 bd 91 8f 34 bd
       0.14794436 0.20740658 -0.08747385 -0.044082228
000270 b4 fc b2 bd a5 78 02 bd 76 e8 1c 3e 87 27 4a be
       -0.087396055 -0.031853337 0.15323052 -0.19741641
000280 03 a6 2f bd 06 96 b6 bd ce d8 4c 3e 59 07 66 3e
       -0.04288293 -0.089153334 0.2000458 0.2246374
000290 5d 46 1d be 62 b9 cf 3d 99 a1 2b be a3 03 ba 3d
       -0.15358873 0.10142781 -0.16760863 0.09082725
0002a0 79 a8 09 be 5c ca 34 be 46 43 83 bd aa b6 32 bd
       -0.13443173 -0.17655319 -0.06409316 -0.043631233
0002b0 2d ac 3c bd 5d 3d 80 be 3a ad 9b bd 11 48 11 be
       -0.046062637 -0.25046816 -0.076014 -0.14187647
0002c0 80 f1 82 be 02 4e 74 3d d9 e0 72 3e f2 a8 67 3e
       -0.25574875 0.059644707 0.23718585 0.22623041
0002d0 a7 2c 82 be d8 5a 25 3d 96 74 d8 bd 4f 49 43 3d
       -0.25424692 0.04036984 -0.10569112 0.047677334
0002e0 44 88 d4 bc 44 37 0a be bc 06 24 3e f1 79 15 be
       -0.025943883 -0.13497645 0.16018194 -0.14597298
0002f0 e3 32 26 3e 28 ca de 3c ed b9 36 be 56 f8 56 bc
       0.16230349 0.027196005 -0.17844363 -0.013120731
000300 57 00 1b 3e ed 82 4b be 1b a0 f4 bc 4d b5 d1 bd
       0.15136848 -0.19874163 -0.0298615 -0.102396585
000310 69 ec b5 bd 64 64 65 3e ab af 8f bd ed 44 34 3e
       -0.08882982 0.22401577 -0.07015928 0.17604418
000320 e6 c7 4e be ca 55 82 be 47 c2 81 3e 05 79 71 3e
       -0.20193443 -0.25456077 0.25343534 0.23581322
000330 e5 54 82 be 10 dd 09 3d ef 86 c4 bb 89 3b 1a be
       -0.25455394 0.033658087 -0.0059975307 -0.15061773
000340 34 32 55 3e 48 ba 00 bd 67 65 c7 3d 15 b9 42 bd
       0.20819932 -0.03142765 0.09736138 -0.04753979
000350 1a c6 74 be f3 4a 5e be 0b ba 20 3e b8 1a 2c 3e
       -0.23903695 -0.21708278 0.1569597 0.16807067
000360 c7 66 86 3e c3 ed 04 3c b1 a4 f0 bd 13 b3 fc 3d
       0.26250288 0.008113327 -0.117501624 0.12338843
000370 cf 18 d5 bd d5 ec 47 be 8f 25 f9 3d eb 94 38 3d
       -0.104051225 -0.19523938 0.12165367 0.045063894
000380 96 01 74 3b e8 9b 43 3d f6 3c 4f 3d 23 48 cc 3d
       0.003723239 0.047756106 0.050595246 0.099746965
000390 53 dc e7 bd e2 55 a9 bd 5b 89 63 3e 49 a4 55 be
       -0.113213204 -0.08268334 0.22220366 -0.20863451
0003a0 00 b8 89 be 51 a5 0c be be a3 52 be 8d 11 00 bc
       -0.26898193 -0.13734938 -0.20570275 -0.007816684
0003b0 b8 8c 5f 3e 29 91 9c 3c 28 78 df bd c8 2e 2f 3e
       0.21831024 0.019112187 -0.1091159 0.1710769
0003c0 06 53 55 3e 99 b1 13 be 1f e7 3e bd 56 dd 60 3e
       0.20832452 -0.14423217 -0.046607133 0.21959433
0003d0 40 e2 59 be 38 e2 60 3d ca e4 07 be 91 47 ab 3d
       -0.21277714 0.05490324 -0.1327087 0.083632596
0003e0 7f 26 1f be 40 b1 dd 3d 79 c6 d9 bc 69 c9 76 bd
       -0.15542029 0.108248234 -0.026583897 -0.060250673
0003f0 da de c4 bd 92 02 44 be 40 40 ce 3a 23 28 33 3e
       -0.09612818 -0.19141605 0.0015735701 0.1749578

main.0.bias f4 [64]
000000 c4 e2 34 be bb 7c a4 bc 2f 3a 32 3b 81 83 46 be
       -0.17664629 -0.020079007 0.0027195325 -0.19386102
000010 da 70 b3 3d 42 9d 44 3d 78 0f 2d be ef 03 2b bd
       0.08761759 0.048001535 -0.16900432 -0.0417518
000020 03 34 47 3e 31 f9 75 3e 8e eb 7e be 7a ad d2 3d
       0.19453435 0.2402084 -0.24894544 0.10286994
000030 e9 79 35 3c 46 10 2b be 72 5a 71 be 2e b5 8b 3e
       0.011076429 -0.16705427 -0.23569658 0.27286667
000040 ee 4e 8e 3d 85 ce ea 3a 83 02 e0 3d 98 3c 63 3e
       0.069486484 0.0017914331 0.10937979 0.22191083
000050 49 78 6c 3e 52 a9 8e 3d 3b 6e 4d 3e 10 db 0e be
       0.2309276 0.06965889 0.20061581 -0.13950753
000060 cf 1b d7 3c b4 ea 49 3e a3 ce 04 3e 46 15 55 be
       0.026258377 0.19718438 0.1296945 -0.20808896
000070 3c b4 83 3e c3 72 64 3e 37 c2 69 3e 4a 49 0c bd
       0.25723445 0.22309403 0.22827993 -0.03424958
000080 92 23 cd bd 9a d7 cc bd e4 5a 18 3e 72 57 1e be
       -0.1001655 -0.1000206 0.14878422 -0.15463045
000090 e9 e2 c2 3c f3 c1 ac 3d 6c bc 5a bc 4d 8a 4b be
       0.02378984 0.084354304 -0.013350587 -0.19876976
0000a0 1e fd f3 3a 7d 5e 67 3e ce 03 69 3e e7 30 c6 bc
       0.0018614864 0.22594638 0.22755358 -0.02419324
0000b0 96 5b 03 be a0 7b 21 be 58 ec 2b 3e 35 e4 6a bb
       -0.12827906 -0.15769815 0.16789377 -0.0035841588
0000c0 b2 98 99 bc 4a 98 b1 bd 16 a3 32 3d c7 ff 8d be
       -0.018749569 -0.08671625 0.043612562 -0.27734205
0000d0 d1 0c de bc 5e d4 c5 bd 23 59 21 be a9 50 cc bd
       -0.02710572 -0.096596465 -0.15756659 -0.09976322
0000e0 9a a7 33 be 1f da b0 bc b6 41 5d 3d e8 bd 57 bd
       -0.17544404 -0.021588383 0.054017745 -0.052671343
0000f0 a7 13 cf bd eb 39 95 3d bb c1 6a bd ab 01 a2 bd
       -0.1011117 0.072864376 -0.057313662 -0.079104744

main.3.weight f4 [64, 64]
000000 f3 8a fc 3c 3c d5 10 bd e1 6a 7a 3d b9 41 ba bd
       0.030827975 -0.035359606 0.061137084 -0.09094567
000010 a3 01 58 bd 48 e9 6f bc f9 af 47 bc 62 86 a3 bb
       -0.052735936 -0.014643021 -0.012187951 -0.004990385
000020 36 ee 84 3d 40 d1 a6 3d c6 75 7c 3d 9e 94 b5 3d
       0.06490748 0.0814538 0.061635755 0.08866237
000030 e5 29 b3 3c c1 67 72 3d fe f3 6b bc b4 2f 04 bd
       0.021870563 0.05918098 -0.014401434 -0.032272056
000040 31 52 ce 3d a5 c6 8c 3d 6d 78 bb bd a4 27 52 3d
       0.100742705 0.06873826 -0.09153829 0.051307335
000050 37 e3 57 bd 66 d7 cd 3d 52 97 d7 bc b9 b8 a3 3c
       -0.052706923 0.100508496 -0.026317272 0.019985544
000060 e0 0c 4b 3c ec 5a f7 3c c8 b7 3c bc 39 19 a0 3d
       0.012393206 0.030194722 -0.011518426 0.07817311
000070 51 f0 84 bd f0 08 0f 3c fe 99 4b bd 71 17 66 3d
       -0.06491149 0.008730158 -0.049707405 0.0561747
000080 97 1b 86 3d d3 be 5f 3d 64 2f 8e bd 7a 95 e9 bd
       0.06548231 0.054625344 -0.06942633 -0.114054635
000090 40 ba 5a bd 3d a9 a2 bd de e2 05 3d 91 06 7e 3d
       -0.053400278 -0.07942436 0.03268706 0.06201798
0000a0 f6 02 b7 3d c0 73 64 3c eb a7 56 bd ed fb c9 bc
       0.08936112 0.013943613 -0.052406233 -0.02465626
0000b0 64 31 02 3c 2d 38 8a bc 18 2f e8 3d 8b ef 83 3d
       0.007946346 -0.01687249 0.113371074 0.064421736
0000c0 2b 17 b2 bd e7 33 85 bd da a1 16 3d 22 9a 6a ba
       -0.08695825 -0.0650404 0.036775447 -0.0008949359
0000d0 e6 ea c5 bd 88 fa a1 bc 79 22 24 3c 63 4c 4f bb
       -0.09663944 -0.019772783 0.010017985 -0.0031631223
0000e0 3d 98 81 3d 85 89 51 bb 2d 0b 3e 3d 47 55 88 bd
       0.06327865 -0.0031972837 0.046397377 -0.0665689
0000f0 34 e7 c2 bd 34 10 55 3d 1a dd 8e bd d5 a0 cc bc
       -0.09516755 0.052017406 -0.069757655 -0.024979034
000100 46 c0 8e 3d e4 07 1c 3c 0c 5a 76 bd d2 d7 a0 bc
       0.06970267 0.009523366 -0.06014447 -0.019634161
000110 7f b7 3a 3d 3c bb 8c 3c e5 6f 85 3c 69 aa d1 b9
       0.04558515 0.017179124 0.016288707 -0.00039990552
000120 8a 38 3c bd 23 33 88 bc f3 c2 58 bc cb d5 0d 3e
       -0.045952357 -0.016625946 -0.013230073 0.13851087
000130 15 38 08 bd c1 f0 61 bd 19 6c 27 bd 02 92 eb bc
       -0.03325661 -0.05516124 -0.040874574 -0.028756145
000140 ba 54 cb 3d 48 4e 94 3d e2 b9 c9 3b 4d 36 42 bd
       0.0992827 0.072414935 0.006156192 -0.047415067
000150 6a 3b 95 3d 82 e5 d1 3d 33 02 bf 3d 1c a4 46 bd
       0.07286723 0.10248853 0.09326591 -0.04849635
000160 c1 1f 39 bc b1 d6 53 bd cd 0f 85 bd a4 34 d8 3c
       -0.011299075 -0.051718418 -0.064971544 0.026392289
000170 41 75 6d 3d 26 e4 44 bd 14 c6 ce 3d b1 b5 9a bd
       0.05797315 -0.04806914 0.10096374 -0.07554186
000180 11 27 f7 bd fe 30 9f bc 67 b6 dd 3b 36 31 9e bc
       -0.12067998 -0.019432541 0.006766129 -0.019310575
000190 9e 04 93 3c e1 db 6d bd de f1 4e bd df d4 91 3c
       0.017946538 -0.05807102 -0.05052363 0.0178017
0001a0 da 33 23 3d a6 e1 c5 3d 64 4e 4c 3d 0e 8a 92 3d
       0.03984437 0.0966218 0.049879447 0.07155238
0001b0 93 13 2c 3d d3 2f 54 bd c1 30 32 3d 06 6a 26 3d
       0.042010855 -0.05180342 0.043503527 0.040628456
0001c0 e9 d7 54 bd 92 32 6b bd 3e fc e6 3d 0b 9b 4b 3b
       -0.05196372 -0.057421274 0.1127858 0.0031067755
0001d0 0b 0e 92 3d 76 e4 d0 3c 23 6f 63 3d 4b 43 47 bd
       0.07131585 0.025499564 0.05552591 -0.04864816
0001e0 e1 48 aa 3d bd e5 bf 3d c1 45 cf 3d 9e 03 38 bd
       0.08314682 0.09369991 0.101207264 -0.044925325
0001f0 ce 25 7b bb 8f dc 0b 3d b7 cd 90 3d d4 35 e8 3c
       -0.0038322094 0.034145888 0.07070487 0.02834598
000200 b9 b4 e1 bc 51 1b 3b bc fd 71 93 bd 37 43 47 bd
       -0.027551996 -0.011420087 -0.07199476 -0.048648085
000210 30 ce c5 3c 59 94 cb bc de 07 45 bd 12 45 b5 bb
       0.02414617 -0.024851011 -0.048103206 -0.0055319155
000220 81 5d 88 3d ed 64 b3 3c cf 77 a4 3d af 5e 5d 3d
       0.066584595 0.021898711 0.08030664 0.054045375
000230 5b ba c3 3c c6 0e e4 3d 8c 26 1f 3d 9c ab a3 3c
       0.023892572 0.1113563 0.03885512 0.01997929
000240 8d f3 ae 3d 27 6f f2 3d be 18 63 bd 3a 19 b8 bc
       0.085425474 0.11837607 -0.055443518 -0.022472966
000250 96 a6 b8 bc 32 d9 08 3d 46 55 be 3d 11 cd 7e bd
       -0.022540372 0.03341026 0.09293608 -0.062207285
000260 a6 5e 89 bb 63 1c a3 3d c0 e1 3c bd 39 dc b5 bd
       -0.004192191 0.07964399 -0.04611373 -0.08879895
000270 16 e6 47 3c 3f dd 0d 3d ed d6 61 3d 4b f5 a0 ba
       0.012200853 0.034634825 0.05513661 -0.0012280134
000280 c7 30 bb bc 68 25 ad 3c f4 58 8d bc 29 c8 a3 bd
       -0.022850407 0.021136 -0.01725433 -0.07997162
000290 a4 d1 80 bd 32 64 37 bd 4d 19 cd bc ad 12 6d 3d
       -0.06289986 -0.044773288 -0.025036478 0.05787914
0002a0 75 2c 3a 3d 6a 76 f1 3b 08 14 a2 bd 7a c8 dc ba
       0.045452554 0.0073688524 -0.07913977 -0.0016844415
0002b0 89 bc ae bb 84 05 a2 3c 65 74 94 3d 44 15 0d bd
       -0.0053325337 0.01977802 0.07248763 -0.03444411
0002c0 b4 f9 d5 3c 87 81 85 3b 81 d1 32 3c e8 e4 89 bc
       0.026120044 0.0040742788 0.010914207 -0.016832784
0002d0 46 ba bf 3d 32 14 da bc 5f cf 81 bd 8e 18 af bd
       0.09361701 -0.026620958 -0.06338381 -0.08549605
0002e0 9a 0b 97 3b 68 6b 65 3d 92 90 c5 3d 2a 57 4f bd
       0.0046095373 0.056010634 0.09646715 -0.050620236
0002f0 f5 b7 9d bd e3 d9 b7 3c 4a ab 98 3c 4e 82 47 3d
       -0.07701103 0.022442764 0.018636364 0.048708253
000300 fd c7 95 3d 00 ac bb 3d 4f 61 a0 bc d9 44 d7 3c
       0.07313535 0.09163666 -0.01957765 0.026277946
000310 cd 7f f0 bc 10 a6 1d 3d 10 1c 50 bd a0 70 12 bd
       -0.029357815 0.038488448 -0.050808012 -0.03575194
000320 a6 12 a6 3d 37 4f 4b 3d 10 b0 9b bc d1 ed 89 3d
       0.08109026 0.049636092 -0.019004852 0.06734813
000330 a3 73 85 bc 66 6d 8e 3d 36 61 a3 bc c5 c5 da 3b
       -0.016290491 0.0695446 -0.019943815 0.006676408
000340 bf e1 7d 3d 75 f2 66 3d f2 22 42 3d 65 78 b3 bd
       0.061982866 0.05638357 0.047396608 -0.08763198
000350 d1 03 52 bd a6 4b f9 bc fa 86 09 3a b3 ea 26 bd
       -0.05127317 -0.03043158 0.00052462483 -0.04075117
000360 09 40 c1 bc 82 7f 94 3c 39 f9 a0 bd 0b cf d6 bc
       -0.023590105 0.018127207 -0.078600354 -0.026221773
000370 c2 67 6e 3d 4d e8 9a 3d 93 e4 82 3d 8d 13 d3 3d
       0.05820442 0.07563839 0.06391253 0.103064634
000380 c9 d1 90 3d ad 03 56 3d cd 71 01 3d 73 d6 58 bd
       0.07071263 0.0522496 0.03160267 -0.05293889
000390 87 22 02 bc f9 11 dc 3c dc 08 81 bd 9f 82 d9 3d
       -0.007942802 0.026864039 -0.06300518 0.10620617
0003a0 37 14 3b bd 70 05 09 be 9e 71 e1 bc f5 b1 22 bd
       -0.045673575 -0.1338098 -0.027519997 -0.039720494
0003b0 1b 81 5e bc a8 be 59 bd 43 3d 3c bd bf e1 31 3d
       -0.013580586 -0.05316034 -0.04595686 0.04342818
0003c0 70 4c 94 3c 3a 13 c5 bd 7b 51 2b 3d 92 68 e7 3c
       0.018102854 -0.09622808 0.041825753 0.028248105
0003d0 dc d2 7f bd 5c 7f 82 bc e8 2d a5 3c 5c a6 9f bd
       -0.06245695 -0.01592987 0.020163491 -0.077954024
0003e0 b9 70 aa 3b bc a1 e1 3d 1c 54 16 3d 97 1b 7e bd
       0.005201426 0.110171765 0.036701307 -0.06203803
0003f0 92 b2 34 3d b8 ef 65 bd 6f f2 bc 3d 1b d9 a9 3b
       0.04411561 -0.056136817 0.09225928 0.0051833517

main.3.bias f4 [64]
000000 bd d5 ad 3d 3a e9 d5 bd d6 b4 54 bd bd af b1 3d
       0.08488033 -0.10444875 -0.05193027 0.086760975
000010 21 f2 ae 3d 29 50 68 bd 26 bc 4a 3d 35 80 bd bd
       0.08542276 -0.05671707 0.04949584 -0.09252969
000020 ed 36 3e 3d 0d 17 d1 3b b8 04 d6 bd 97 27 5e bd
       0.0464391 0.0063809217 -0.10450119 -0.054236975
000030 a1 c8 25 3c c6 9b 1d bd 86 83 d4 3a 69 c3 50 bd
       0.010118634 -0.038478635 0.0016213513 -0.050967608
000040 cc 1a 85 3d 55 89 c0 bd be a2 9c bd 3f 58 64 3c
       0.06499252 -0.09401194 -0.07648228 0.013937055
000050 d1 f2 4f bc 05 de 93 bd 12 f4 06 bb c4 83 4c 3d
       -0.012692169 -0.07220081 -0.0020592255 0.04993035
000060 47 c0 14 3d 52 8b 7e bd 1d e4 0f 3d 23 fa 5e bd
       0.036316182 -0.062144585 0.035129655 -0.054437768
000070 b7 9d bc bd a8 76 9a 3d fb 6b b3 3d 56 a4 f8 bc
       -0.09209769 0.07542163 0.0876083 -0.030351799
000080 8e c7 98 3c 34 d4 1f 3d 1b ea 26 3d 84 82 ac bd
       0.018649843 0.039020732 0.040750604 -0.084233314
000090 da fb bf 3d 27 66 f2 3d 77 df 09 bd 5c aa eb bd
       0.09374209 0.1183589 -0.03366038 -0.11507103
0000a0 61 83 1f bd c5 33 49 bc a7 c8 17 bc 38 15 c5 3d
       -0.038943652 -0.012280409 -0.009264148 0.09623188
0000b0 c4 b7 9e 3d 61 21 27 3d c6 03 22 39 02 59 c5 bd
       0.07749894 0.040803317 0.0001545093 -0.096361175
0000c0 6a 47 a4 3d 83 9a 31 bd 44 60 e5 3c 47 67 51 bd
       0.08021434 -0.043360244 0.028000005 -0.051123884
0000d0 a7 3c 86 bd fb ae a8 bc 10 75 1b bd c7 e5 b5 3d
       -0.06554537 -0.02059125 -0.037953436 0.08881717
0000e0 6e 07 36 bb 0c 57 81 3d 4a ec f6 bd 6e 77 de bc
       -0.0027775425 0.06315431 -0.12056787 -0.027156558
0000f0 db 22 ba bd b8 4d 71 3d a3 09 2d bd 70 34 e7 bd
       -0.090886794 0.05891201 -0.04224552 -0.112892985

main.6.weight f4 [64, 64]
000000 68 92 99 3d ac ee 44 3b d2 5e 89 bc cb d7 8e bd
       0.07498628 0.0030049486 -0.016768847 -0.06974753
000010 c8 87 11 3d 3a 21 be 3d 31 39 db bd 05 16 98 3d
       0.03552988 0.09283681 -0.10704268 0.07426075
000020 e0 80 e1 bc 95 5f b4 3b 4e 7d ba bd 19 34 21 bd
       -0.027527273 0.0055045583 -0.09105931 -0.039356325
000030 2d 0a a0 bd cd 4b 2f 3d fd 05 9b 3b 46 5c a1 3c
       -0.07814441 0.0427969 0.0047309385 0.01969732
000040 ae b7 d3 bd 24 5c 81 3c 93 9d 03 bc fd 05 c5 bd
       -0.103377685 0.015791006 -0.008033174 -0.09620283
000050 dc 87 e7 3b 7a a8 e9 3c 36 8f fb bd ce e2 02 3d
       0.0070657562 0.028522719 -0.12283175 0.03195458
000060 44 36 2b bd 04 ff ab bd dd cd 8a bd 5a 4b 03 3e
       -0.0417998 -0.0839825 -0.067775466 0.12821713
000070 15 89 d3 3d a7 56 02 3e a3 14 92 3d 1c 88 41 3d
       0.10328881 0.12728368 0.071328424 0.047248945
000080 08 21 9f bd 70 e0 1b 3b 06 25 70 3d 02 f0 90 3d
       -0.07769972 0.0023784898 0.05862906 0.07077028
000090 bd 06 ef bc 63 9e f3 3d 7c db 20 bd c2 0b fc 3d
       -0.029178018 0.11895444 -0.039271817 0.1230693
0000a0 69 b4 2b bd 6f d9 f9 bd 61 62 6a bd 2e 94 78 bd
       -0.0419201 -0.12199675 -0.057222728 -0.06068819
0000b0 cf 2a 26 bd d7 a0 ce bd f9 e7 f8 bc c7 b7 f4 3d
       -0.04056817 -0.100892715 -0.03038405 0.11949115
0000c0 4b 0a f3 3d ad ed b5 bb 85 b7 33 3c 28 a0 88 bd
       0.118671976 -0.005552015 0.010969047 -0.066711724
0000d0 66 52 bc bc cc a3 24 bd 5a 92 a3 bd 09 67 4d bd
       -0.02298851 -0.04019527 -0.07986899 -0.05014709
0000e0 f5 ba f2 3c 12 8e 44 bd 32 62 5e 3d f0 ed ca bd
       0.029630164 -0.04798705 0.054292865 -0.09908664
0000f0 ab eb a0 bd a1 67 5b 3d b3 39 d6 3d 5a c7 a2 3d
       -0.0785745 0.053565625 0.10460224 0.079481795
000100 a3 61 b2 bd 72 f6 d2 3d 4a 4f a7 3c 43 73 e2 3d
       -0.08710029 0.10300912 0.02042355 0.11057141
000110 fc a5 c4 3d 85 dd 18 bd 61 b4 02 bc f6 77 a3 3b
       0.096019715 -0.037320632 -0.007977576 0.0049886657
000120 14 aa 24 bc 07 f7 fb 3a 23 52 b3 bd ea b4 04 3d
       -0.010050315 0.00192234 -0.08755901 0.032399096
000130 2b dc f7 bd 5c ee 83 3d 36 2f cc bd ad e7 ed bc
       -0.121025406 0.06441948 -0.09969942 -0.029041136
000140 31 fe b3 bd db 50 cc bd f8 91 af 3d 74 9e 87 bb
       -0.087887175 -0.099763595 0.08572763 -0.004138762
000150 ba ae 1c 3d 0b ba ab 3d 2c b3 cd 3c 53 24 79 bb
       0.03825257 0.08385094 0.02510985 -0.0038016036
000160 86 e7 a5 bd a1 65 1d 3d ad 55 92 bd 57 43 20 bd
       -0.081008 0.038427 -0.071452476 -0.03912672
000170 f6 39 93 bd 48 e9 4b bc ca a8 89 bd 32 fd 87 3b
       -0.071887895 -0.012445755 -0.06721647 0.0041500563
000180 8f 1e 6a 3d 20 1c 8a bc fb 2e 25 3d 62 8f cc bd
       0.05715805 -0.016859114 0.040328007 -0.099882856
000190 3a ed 24 bd 06 f3 d7 bd ba 67 44 bc 86 98 d0 3d
       -0.0402653 -0.105444 -0.011987621 0.101853415
0001a0 5c 64 ad 3d 0e b1 b5 3c 27 58 f7 3c 88 c2 76 bb
       0.08466408 0.022179153 0.030193402 -0.003765257
0001b0 0d 94 8a 3d a4 a2 9b 3c e1 ed a0 bd 7a 84 b8 bc
       0.0676652 0.018998452 -0.07857872 -0.022524107
0001c0 d3 11 c6 bb 87 ad 2a 3d 64 7e de 3b bd 80 07 bd
       -0.0060446053 0.041669395 0.0067899693 -0.03308176
0001d0 94 10 9b 3d de 36 5b 3c 3a 07 f7 3c 7a 12 a9 3d
       0.075715214 0.013379781 0.030154813 0.08255477
0001e0 6e 9c fd 3c 23 9a 34 bd da 41 e8 bc 3d cb 7d bd
       0.03095838 -0.04409231 -0.028351713 -0.0619614
0001f0 99 65 38 3d b7 84 d3 3d 09 ff d2 3d a6 98 99 3d
       0.045018766 0.10328048 0.1030255 0.074998185
000200 b0 5d b8 bc de 69 35 bd ce 99 11 bd 22 f3 ce 3d
       -0.022505611 -0.044290416 -0.03554707 0.10104968
000210 18 22 57 bd 71 c0 61 3c 73 9d 36 bd c5 52 60 3d
       -0.05252275 0.013778792 -0.04458375 0.054766435
000220 63 03 dc bc 56 3f bb bc bb 80 59 3d 4a 4e aa 3d
       -0.026857084 -0.02285735 0.053101283 0.08315714
000230 0e 99 e0 bb 0c 20 b6 3d 62 d7 9c 3d fd e5 9d 3c
       -0.006854183 0.08892831 0.076582685 0.019274706
000240 73 af d5 3c 98 95 38 3c c8 27 b5 3b 6f fd 0c be
       0.026084637 0.011266135 0.005528424 -0.13768552
000250 fb 44 98 bd 39 b7 f4 bd ca 6c 63 3d f7 6a 4b 3d
       -0.07435032 -0.119490094 0.05552367 0.049662556
000260 dc f3 b1 3d 16 8a 2e bd f3 18 79 bd b4 40 ac 3c
       0.086890906 -0.042612158 -0.06081481 0.021026947
000270 5b 89 3e bb b6 51 07 3e 5d c9 11 3e 1c ad bc bd
       -0.002907357 0.13214764 0.1423697 -0.092127055
000280 26 af 6a bc 7b 53 e5 3d 33 99 86 bd c2 a6 97 3d
       -0.014323985 0.11197563 -0.06572189 0.074048534
000290 a0 26 37 bd 0a b2 df bc 91 8d 38 3d 1e e7 d8 3c
       -0.04471457 -0.027306575 0.045056883 0.026477393
0002a0 56 86 bd 3d e9 fb 89 bd 9e 9e e0 3c 71 ce 3e bd
       0.09254138 -0.06737501 0.027419385 -0.046583597
0002b0 d7 25 73 3a 81 d8 b2 3d c0 e3 98 bd 63 61 0d bd
       0.0009275353 0.08732701 -0.07465315 -0.034516703
0002c0 18 84 57 bd e2 e2 c4 3d 0a b2 2b 3d bb a9 99 bd
       -0.05261621 0.09613587 0.04191784 -0.07503077
0002d0 99 a2 cf bd 3d 6b 0a bd 04 fd a0 3a 2b 11 0b bd
       -0.10138435 -0.033793677 0.0012282436 -0.03395192
0002e0 cd 3c bc 3c 7a eb bf 3d 90 e9 ac 3d 6d ed 6e 3d
       0.02297821 0.093710855 0.08442986 0.058331896
0002f0 eb a5 9e 3d 4e 13 c4 39 94 87 b0 3d 3e a1 a5 3c
       0.0774649 0.00037398416 0.086196095 0.020218488
000300 f5 c8 90 3c 7d 2e 9e 3d 0a 5f bf bd bc a9 d1 bd
       0.017673949 0.07723711 -0.09344299 -0.102374524
000310 ea f1 55 bd 5d fc 61 bd 3f 3a 8b bd 8d 3a 4b bc
       -0.05223266 -0.055172313 -0.06798219 -0.012404096
000320 58 d5 5e bc f4 b0 cf bd 0a fa eb 3d a3 22 a5 3d
       -0.01360067 -0.10141173 0.115223005 0.08063247
000330 35 f7 9b 3d 7b 51 6b 3b 9f 43 63 bd 27 66 df 3d
       0.076155104 0.003590672 -0.05548441 0.10908156
000340 9b 02 25 bd 3b 7a 3c 3c 5a 23 d9 bd b9 e4 ca bd
       -0.040285688 0.011503751 -0.10602446 -0.09906907
000350 d3 da a3 3d 64 ec e4 3d de 25 a5 bd 56 a7 82 3d
       0.08000722 0.111779004 -0.08063863 0.06379573
000360 b1 32 ba 3c 81 26 30 3b fe 8f 36 3d ca 14 1c bd
       0.02272925 0.002687842 0.044570915 -0.038105763
000370 07 ed 0a 3d 1d c6 63 bc a2 05 9d 3d ac 0a 00 3e
       0.033917453 -0.013902214 0.0766709 0.12504071
000380 97 21 a3 bc b2 57 08 3e 3a fc 96 bd a4 87 67 bd
       -0.019913478 0.13314703 -0.07372327 -0.05652584
000390 42 c2 e2 3b 7f 29 c5 bd 69 62 88 3d 83 b2 42 3d
       0.00692013 -0.096270554 0.06659395 0.047533523
0003a0 f8 6f e2 3c eb 8b a8 3d 6f ef d3 bc 75 81 5d 3d
       0.027641281 0.08229812 -0.025871007 0.054078538
0003b0 55 1e c2 3b 56 e4 95 3d 48 26 77 3c d6 d9 14 3d
       0.005924026 0.07318942 0.015084811 0.036340557
0003c0 93 cb 6e bb 73 51 81 bd 20 55 53 bd 5f cb ca bd
       -0.0036437258 -0.06314363 -0.051594853 -0.09902071
0003d0 66 e0 b8 bc 70 be 56 bd 05 a0 04 3d ef 56 4b 3d
       -0.022567939 -0.05242771 0.03237917 0.049643453
0003e0 f8 b0 0a 3c 32 5a 9a bc 73 57 89 3d 93 ab 5b bd
       0.008465044 -0.018841837 0.06706133 -0.053630423
0003f0 91 90 0f 3d bb 32 5d bd c5 1e d0 3c fe bb 4c bd
       0.03504998 -0.05400346 0.025405297 -0.04998397

main.6.bias f4 [64]
000000 a0 d1 cd bc ba 70 f3 bc 65 45 9b bd 91 39 47 bd
       -0.025124371 -0.029716838 -0.07581595 -0.048638884
000010 08 06 84 bc a2 a2 ba bb 20 9b cc 3d 56 ab 15 3d
       -0.016116157 -0.005695657 0.09990525 0.03654035
000020 ae 7a 17 3d 1b 76 a8 3d 7d fe 32 bd ce 6e e7 bc
       0.03698223 0.08225652 -0.04369973 -0.028251078
000030 58 03 49 bd e8 e1 9a bc a3 3e 52 bd b7 54 a7 bd
       -0.049075454 -0.018906549 -0.051329266 -0.08170455
000040 3b ef ba bd a3 bf 76 3d c5 ed f4 bc fb dd cc bc
       -0.09127661 0.060241353 -0.029898534 -0.025008192
000050 b4 f5 9d bc 91 92 0c bd 27 8d e0 bd 6d 26 6e 3d
       -0.0192822 -0.034319464 -0.10964423 0.058142114
000060 a6 e6 40 bd 81 2b 02 bc 58 2a 4c bd 23 45 b5 bd
       -0.047094963 -0.007944942 -0.04984507 -0.088510774
000070 b8 79 c8 bd ad 00 b7 bd a4 ae ac bd 6d ac a4 bd
       -0.09788841 -0.08935676 -0.084317476 -0.080407
000080 6d c7 11 bd d0 0c 88 bd 80 23 d1 3d e0 4b 31 3d
       -0.035590578 -0.06643069 0.10211849 0.04328525
000090 42 72 9f 3c 8e 43 cc bd c5 a2 94 3d db 15 8d bd
       0.019463662 -0.099738225 0.07257608 -0.06888934
0000a0 7f 98 98 3c 5c b9 f6 bd a5 df c3 bd 85 ae 9a 3d
       0.018627403 -0.12047073 -0.09564141 0.07552818
0000b0 5c 61 41 3c d5 be da bd 6c 9b ab bd ee ef 7b 3d
       0.011802997 -0.106809296 -0.08379254 0.06150811
0000c0 1f 0a 31 3d db 63 1e 3d 19 c5 9a bd 40 50 88 3d
       0.043222543 0.03866945 -0.07557125 0.066559315
0000d0 18 0b 92 bd b2 b1 a7 bc 6b 8c 63 bd a7 b2 16 bc
       -0.07131022 -0.020470474 -0.055553835 -0.0091978675
0000e0 b5 de 14 bd fa 09 a1 bc 22 c6 8c 3d fa 76 cc bd
       -0.036345202 -0.019658078 0.06873728 -0.099836305
0000f0 a5 8e fb 3d 4b 73 cb 3d 2f 17 10 bd d1 33 a7 bd
       0.12283067 0.099341 -0.03517836 -0.0816418

main.9.weight f4 [64, 64]
000000 04 c1 06 3d 64 08 7c 3c 7f 79 0b be 45 84 34 bd
       0.032898918 0.01538286 -0.13620566 -0.044071455
000010 7d ee 34 bd c7 88 56 3b db bf b0 bc 1e 93 0a 3d
       -0.044172753 0.0032735334 -0.021575859 0.033831708
000020 fc a4 a7 bc f0 bf b1 bd 20 f5 0e bd 8e 15 dd bc
       -0.020464413 -0.08679187 -0.03490174 -0.026987817
000030 8b 55 96 3c 91 da 77 3c be c7 a7 bb 22 bc 70 3d
       0.018351337 0.015127794 -0.0051202467 0.058773167
000040 55 9d 16 be 4b b0 5b 3d 8c 8e 0f be dc 55 77 3d
       -0.14708455 0.053634923 -0.14019221 0.060384616
000050 2e 62 8a 3d 92 5d 23 bd ae eb a0 bc 39 c3 12 3c
       0.067570075 -0.039884157 -0.01964363 0.0089576775
000060 ec c7 f7 bd 10 54 41 bd e2 3c 4f 3d 26 f8 a6 bd
       -0.12098679 -0.04719931 0.05059517 -0.08152799
000070 50 51 06 3c a5 ba 50 bd ba 90 bb bd b8 fc 25 3d
       0.008198097 -0.050959248 -0.09158464 0.040524215
000080 73 e5 52 bd 1e c7 98 bc 3d fc 9a 3d df f2 a4 bd
       -0.05148835 -0.018649634 0.07567642 -0.080541365
000090 70 9e 13 3d 64 b5 13 bd 1d 9c e6 3c 50 f3 a8 bc
       0.03603977 -0.03606166 0.028150612 -0.020623833
0000a0 45 22 27 3d 52 7c 73 3d d5 2e 37 bd 4c e2 6a bd
       0.040804166 0.059444733 -0.044722397 -0.05734472
0000b0 78 ba 24 bd e4 08 36 3d 98 7e 88 3c 39 d2 88 3d
       -0.040216893 0.044442073 0.016661927 0.06680722
0000c0 72 27 2b bc 88 52 79 3c bf 7e 8a bb 18 e3 c1 bd
       -0.010446416 0.015217431 -0.004226535 -0.09467143
0000d0 5a 1b 3a bd d0 58 34 3d 05 66 4d 3d e2 64 8b bb
       -0.04543624 0.04403001 0.05014612 -0.0042539695
0000e0 15 33 df 3c 82 a0 bf 3d b7 bc ec 3d e6 b1 82 bd
       0.027246037 0.09356786 0.11559432 -0.06381588
0000f0 93 6b 0a bd 3e cf bb 3c b8 0e 9a bd 9c 1c e0 bd
       -0.033793997 0.02292597 -0.07522339 -0.10942957
000100 32 2c cb bc 29 b8 b0 bd d0 3d b9 bd a0 f5 ea 3d
       -0.024801347 -0.08628876 -0.09044993 0.114726305
000110 62 37 65 bd 7c de ff 3b 0b c9 30 bd f7 55 86 3d
       -0.05596102 0.0078085046 -0.04316048 0.06559365
000120 e6 67 10 bc 68 00 88 bd 9e 2f dc 3c fd 88 62 3d
       -0.008813834 -0.066407025 0.026878174 0.055306423
000130 2c 66 f9 bc 8a b3 c5 3d 09 39 a6 3c 61 fb 6a 3c
       -0.030444227 0.09653385 0.020290868 0.01434216
000140 d8 2b bd 3b 2e f4 42 bd 5c 07 ca 3d 22 7c d4 3d
       0.005773049 -0.04759615 0.09864685 0.10375239
000150 11 85 1b 3d 19 c4 13 bd 83 93 ca 3d fc 98 47 3d
       0.0379687 -0.036075685 0.09891417 0.04872988
000160 56 cf 9b 3c c3 1f 9e bd 26 87 96 bd 5e 33 b5 bc
       0.019019764 -0.07720902 -0.07349996 -0.02211922
000170 b9 1b 1c 3c 28 5f d6 bd 9a 0a fe bc 94 0a 18 bd
       0.009528094 -0.10467368 -0.031010915 -0.037119463
000180 72 3b b6 bd 03 c5 7b 3d 97 ad 4b bd ed 79 87 3d
       -0.08898057 0.061467182 -0.049726095 0.06615052
000190 75 79 0c bb 4d 54 9b bd 93 e1 10 bc e6 10 04 bd
       -0.0021434699 -0.075844385 -0.008842844 -0.032242678
0001a0 51 0b 8f 3b 91 83 b6 3d 66 87 8b 3d 3f ae b5 bd
       0.0043653627 0.08911813 0.068129346 -0.088711254
0001b0 c8 6f a2 3d ff e6 d8 3b 89 68 96 bc 59 8b 91 bd
       0.07931477 0.0066193338 -0.018360393 -0.071066566
0001c0 74 0b 9f bd 89 90 4e 3d 5a eb 11 bd 53 f9 14 3b
       -0.077658564 0.05043081 -0.03562484 0.0022731617
0001d0 65 4d c2 3d 46 4f ad bd ca 8f c6 3d 9e 3d 39 bc
       0.09487418 -0.08462386 0.09695394 -0.011306195
0001e0 17 8a 6d 3d 6a b6 d5 bd 58 99 4b ba ee 59 79 bd
       0.05799302 -0.10435183 -0.00077666854 -0.06087678
0001f0 0e 1d 2f bd 8f d8 a0 bb 1e 2d 94 3d bd ac 92 bd
       -0.042752318 -0.0049086283 0.07235168 -0.071618535
000200 23 f9 80 bc 5a 2c be 3d 77 6a e4 3d 77 a7 6a 3c
       -0.015743798 0.09285803 0.11153119 0.014322153
000210 1c 1f 8e bd 32 91 0a 3e f9 09 a1 bc 95 f1 e5 bc
       -0.069395274 0.1353195 -0.019658076 -0.028069297
000220 1c ea 81 3d b0 6a 0a bd ba 8b a6 3d 51 93 e3 3c
       0.06343481 -0.03379315 0.081321195 0.027780207
000230 a4 a4 39 bd 96 e2 ea 3d 0f 96 d5 3d 6c 5a 22 3d
       -0.04532303 0.11468999 0.10429012 0.039637014
000240 d0 b5 c8 bd b7 47 18 bd 06 09 a1 3d c4 3e 06 be
       -0.09800303 -0.037177768 0.07863049 -0.1310988
000250 52 c4 aa bc 93 19 f6 3b f5 39 4e 3d 13 e4 cf bd
       -0.020845566 0.007510373 0.05034824 -0.101509236
000260 c0 f1 2a 3a b9 7a 42 bd bc 2b 40 3d 7d c8 f9 3b
       0.0006521009 -0.04748032 0.04691671 0.007622777
000270 ec c7 b2 bd 8c 20 ae bc ad 27 b1 bd 2c c1 d1 3c
       -0.08729538 -0.021255754 -0.08650146 0.025604807
000280 6b 04 99 3d c0 f9 0c 3c 10 75 d0 3d dc 25 54 3d
       0.07471546 0.008604467 0.10178578 0.051793918
000290 64 e5 b0 bd 00 8c d4 3d b9 1f 2c bd 2c dc 93 3d
       -0.08637503 0.103782654 -0.04202244 0.07219729
0002a0 49 8c 5e 3d be d6 67 bd 73 08 12 bd 11 af 91 3d
       0.054333005 -0.05660128 -0.03565259 0.071134694
0002b0 d6 ee 93 3d cc 6f b7 bd c1 49 c0 bd b4 3e 9b 3d
       0.07223289 -0.089568704 -0.093890674 0.07580319
0002c0 3c a3 46 bc 61 a0 b7 bd 13 93 8b 3c 69 1a df bd
       -0.012123879 -0.08966137 0.017037904 -0.10893709
0002d0 ba cc d6 3d 74 fd 19 3d 86 67 57 3d 6b f7 33 bd
       0.10488267 0.037595227 0.052588962 -0.043937128
0002e0 a2 b7 03 bd 63 db d4 bd a0 d1 26 3c c4 36 44 bd
       -0.032157548 -0.10393407 0.010181814 -0.04790379
0002f0 4e e0 04 bd 4b 71 1a 3d bc e1 2c bd 3d de 09 3d
       -0.032440476 0.0377057 -0.042207465 0.03365921
000300 78 81 17 3d f0 e4 0a bd b0 24 f7 bd dc 65 b3 bd
       0.036988705 -0.033909738 -0.120675445 -0.087596625
000310 da 8b aa bd 8e 8b fb bc e7 df 07 3e e8 2a 4b 3c
       -0.08327456 -0.030706193 0.13269006 0.012400366
000320 92 77 d6 bd ad 00 ba bd 1f 53 85 bd f2 f5 f6 3c
       -0.10472025 -0.0908216 -0.06509995 0.030146573
000330 ee 57 34 3d 0b 1d 06 be 66 3d 35 3c f3 2d 85 3d
       0.04402917 -0.13097017 0.011062002 0.06502905
000340 21 ec c4 bc 75 c1 23 bd 4b db 20 3d 5f ef fc bd
       -0.024038376 -0.039979417 0.039271634 -0.12350344
000350 ea c2 ce bc ee e1 2e 3d b7 f0 b4 3c 3c 92 7c 3d
       -0.025239427 0.042695932 0.022087438 0.061662897
000360 60 32 46 bd bc f4 bb 38 7e e2 91 3c 6b 96 41 bd
       -0.048387885 8.96244e-05 0.017808195 -0.04726259
000370 07 f8 aa bd 4d a8 19 3d a4 59 d5 3c 2e d1 c2 3d
       -0.08348089 0.03751402 0.02604372 0.09512554
000380 39 fd 5e 3d f7 8d 9d 3d 53 44 9e bc 93 ce 95 bd
       0.05444071 0.07693093 -0.019319689 -0.073147915
000390 9d c4 e0 3d be d4 d4 3c f8 58 3b bb c1 85 8b bd
       0.10975001 0.02598035 -0.0028586965 -0.06812621
0003a0 99 27 c4 3d d6 d6 34 3d 0e ed 81 3d 65 66 6d bd
       0.09577865 0.044150196 0.06344043 -0.05795898
0003b0 c4 d7 06 3e 7b 0e 9b bc d3 77 ce bd 72 d7 5c 3d
       0.13168246 -0.018927803 -0.100814484 0.053916402
0003c0 de 99 13 3d d8 60 c2 3c 7f 68 2d 3d dd 1d 81 bd
       0.03603541 0.02372782 0.042335983 -0.06304524
0003d0 57 ac 51 bd 5f 28 45 bb ea 82 44 3d ab 8f 3c 3c
       -0.051189747 -0.0030083878 0.047976412 0.0115088625
0003e0 4b a8 08 be e7 2a 8b 3d f9 c2 37 bd 8f 98 ab 3c
       -0.13345449 0.06795292 -0.044863675 0.020946769
0003f0 e8 1e e8 3d 75 9f af 3d 6c 94 b1 3c 49 e2 94 3c
       0.1133402 0.08575336 0.021677218 0.018174307

main.9.bias f4 [64]
000000 32 4d 2b bd e0 51 95 3c 4f d2 6e bc 69 7a 21 bc
       -0.041821666 0.018227518 -0.014576509 -0.009855845
000010 54 79 56 bd e5 34 87 bd 04 e3 10 bd 89 bc 65 bd
       -0.0523618 -0.06601886 -0.03537275 -0.056088004
000020 6a c3 a0 3c 00 4d 9e 3c f5 a8 8d bd 64 9b 33 3d
       0.01962443 0.019323826 -0.069169916 0.043849364
000030 4a 65 5c 3c 43 87 71 3b 42 e5 3b bd ea ef 08 3c
       0.013451884 0.0036854304 -0.045872934 0.008357981
000040 7b a6 84 3d ca 64 9e 3c 48 73 9b bc d1 32 0c bd
       0.06477066 0.01933517 -0.018975869 -0.03422815
000050 8a a1 39 3c e4 3e 86 bc ab 87 2b bc 49 66 3f 3c
       0.011330018 -0.01638741 -0.0104693575 0.0116821015
000060 28 c6 92 bd d8 c7 3f 3d ee 37 c1 bc 8a 58 83 3d
       -0.071667016 0.046821445 -0.02358624 0.06413372
000070 fb a1 61 bd 78 04 27 bd b8 9c 32 bb 92 66 8a 3c
       -0.055086117 -0.040775746 -0.0027254056 0.016894612
000080 c1 6f 75 bc f3 92 a2 bd 45 d7 08 bc ed e9 53 3d
       -0.0149802575 -0.079381846 -0.0083521055 0.05173676
000090 f4 5d 66 3c ab 30 22 3d b6 5d 0a bc aa ce 77 3d
       0.014060486 0.039597195 -0.008445194 0.060499825
0000a0 62 25 89 3d 16 98 b1 bc d2 6e 74 bd 52 8a 79 3d
       0.06696583 -0.021678966 -0.059676 0.06092293
0000b0 cd 14 d0 3b 39 ad 53 bc 30 ab 17 bc 6b fe f8 bc
       0.006350136 -0.0129197175 -0.009257123 -0.030394753
0000c0 1f 4e 55 bd 6c ea 46 bb 08 fa 90 3c 36 18 42 bc
       -0.052076455 -0.0030352129 0.01769735 -0.011846593
0000d0 18 c2 97 3d ab 3d 53 bd c0 99 b2 bc ff eb ed 3c
       0.07410067 -0.051572483 -0.02180183 0.029043196
0000e0 74 3f 0b bd f8 ae ae 3d bc da 9d bc 61 4a f0 3c
       -0.03399606 0.085294664 -0.01926934 0.029332342
0000f0 94 7b 76 3d 86 2e f9 bc 23 c7 4b bd 25 08 b2 3d
       0.060176447 -0.030417692 -0.04975046 0.0869296
