models/VANE_link_pred_n2v_model/Generator_epoch_3.pth (torch, 55791 bytes, 8 tensors)

main.0.weight f4 [64, 10]
000000 24 ad 66 3e d0 e0 5e 3e 4d 48 15 3e 7a fd 9c bd
       0.22526985 0.21765447 0.14578362 -0.07665534
000010 4d 17 45 bd b5 f6 86 3e 03 c7 3c 3e 40 2c d6 3d
       -0.048117924 0.26360098 0.18435292 0.10457659
000020 14 43 e2 bd 00 4d 59 3e f0 3a 8b 3e 9a 54 7d be
       -0.110479504 0.2122078 0.27193403 -0.24739304
000030 bf c8 b5 3d a9 3b 65 be bb 9b 60 3c 82 6f 3e be
       0.0887618 -0.2238604 0.013709004 -0.18597224
000040 ee 2e 5b be 0e eb ec bd ac a4 47 be f5 28 7d 3e
       -0.21404621 -0.115682706 -0.19496411 0.24722655
000050 9c 86 26 be 49 f2 12 3d 2a 64 50 be ff 6a 4b be
       -0.16262287 0.035875592 -0.2035071 -0.19865035
000060 d3 0e 81 be cb 03 33 3d 50 8b 06 3c bb 1d 47 3e
       -0.25206622 0.04370479 0.008211926 0.19444935
000070 99 c0 d3 3d 29 50 04 3e a4 12 63 3e 96 1c 55 be
       0.103394695 0.12921204 0.2217508 -0.20811686
000080 2e b6 81 be c8 01 f0 bd fb 46 5e be 46 ea 02 3c
       -0.25334305 -0.1171909 -0.21706764 0.007990425
000090 c1 e6 1d be 32 38 ee bd 59 4f 3d be 3b 96 21 be
       -0.15420057 -0.11631812 -0.184873 -0.15779965
0000a0 84 43 3e 3e 83 e4 3c bd 4b 97 79 3d 7a e9 cd bb
       0.18580443 -0.046116363 0.0609353 -0.006283936
0000b0 91 6e 6b 3e 78 43 97 3c 1f 3d dc 3d f5 13 18 be
       0.22991396 0.018464789 0.107538454 -0.14851363
0000c0 4a 48 87 bd 7b 30 bc bd 02 f0 5a 3e 69 a8 6c bd
       -0.06605585 -0.091889344 0.21380618 -0.057777796
0000d0 3d f3 21 3d b8 00 37 3c 67 f8 7d 3d a5 2e 3d 3e
       0.03953861 0.011169605 0.062004473 0.18474825
0000e0 26 9b 4b bd 38 00 5b be 35 60 e0 3d 6e 11 94 3d
       -0.049708508 -0.21386802 0.1095585 0.07229887
0000f0 dc 7f 82 be 03 28 09 be 4b 3e 82 3d d9 8e 72 be
       -0.25488174 -0.1339417 0.06359538 -0.23687305
000100 a5 c1 82 3d 1a 99 0b be fb 87 26 3e db 89 15 3e
       0.06384591 -0.13632622 0.1626281 0.14603369
000110 fb b9 5b be 67 9a 51 3e f0 92 fe 3d a1 3d 80 be
       -0.21457665 0.20469056 0.1243037 -0.2504702
000120 24 8b e0 3d 9d 99 f7 3d f6 72 aa 3c cc 4d 32 3e
       0.10964039 0.12089846 0.02080677 0.1741249
000130 25 c0 4d 3e f2 95 0a be 1d 67 0b 3e 22 b2 0d 3e
       0.20092829 -0.13533762 0.13613553 0.13837484
000140 9a 9f 83 bd 56 5c 2c be 33 78 98 3d b9 80 a2 bd
       -0.06426926 -0.16832098 0.07444801 -0.07934708
000150 89 9d 95 3c 38 8f 59 3e c8 43 c6 bc 74 1b 66 be
       0.018263595 0.2124604 -0.024202242 -0.2247141
000160 eb f2 63 be 78 32 58 be 6f 30 de 3d 08 9a 22 be
       -0.22260635 -0.21113002 0.10849082 -0.15879071
000170 e6 14 07 be be 23 41 3e 42 9b e2 bd 55 f7 2f be
       -0.13191566 0.18861291 -0.11064769 -0.17184193
000180 bb c5 29 bd c0 be 86 be 00 93 1f 3e 72 4a 1f 3e
       -0.041448336 -0.26317406 0.1558342 0.15555742
000190 41 4b 93 bd ad 02 94 bd 9b a4 88 be bd 03 6d 3e
       -0.07192088 -0.07227073 -0.26688084 0.23145957
0001a0 90 7b 8a bc f3 c6 58 be 5d 83 da 3d dc 9c 38 be
       -0.016904622 -0.21169643 0.10669587 -0.18028587
0001b0 38 be 5f be c9 6b c7 bb 59 29 5c 3e de 76 bf bd
       -0.21849906 -0.006085847 0.21500148 -0.09348844
0001c0 e4 20 a7 bd 81 12 83 3e 3f 38 44 be 4b 24 99 3d
       -0.0816057 0.25600055 -0.19162081 0.074776255
0001d0 7f e3 fe 3d 1a 8e 36 3e 7b 96 84 be 5b 0a 08 be
       0.12445735 0.17827645 -0.25896057 -0.132852
0001e0 5a 01 1b 3e a9 25 5a bd b1 cf 24 be 47 4d 36 3e
       0.15137234 -0.05325857 -0.16094853 0.17802916
0001f0 c5 98 20 3e aa 94 b3 3d 61 c3 a1 bd c7 5a 85 be
       0.15683277 0.0876859 -0.07898594 -0.2604582
000200 94 c1 fe bd 3f 55 81 be 4e 28 9f 3d 55 dc 67 3d
       -0.12439266 -0.2526035 0.077713594 0.05660661
000210 d4 4e 22 3e 82 db 7e 3e ea c2 da bc ad 95 e8 3d
       0.15850383 0.24888423 -0.02670427 0.113566734
000220 1e bd 6b 3e 90 fa 10 bd 4a 66 9f 3d 00 71 2c bd
       0.23021361 -0.035395205 0.07783182 -0.042099953
000230 18 b0 83 be 40 06 44 3e dc 4c cd 3b 22 ae a6 bc
       -0.25720286 0.19143009 0.006265266 -0.020346705
000240 7f ce 96 bd c7 0f 3c 3e fb cf a0 bd 69 21 0a 3e
       -0.07363605 0.18365394 -0.07852169 0.13489307
000250 d1 d8 92 bd fb c7 18 3e 32 a9 c6 bb 9d 63 1b 3e
       -0.07170261 0.14920036 -0.00606265 0.15174718
000260 46 85 18 3e ab b4 67 3e b7 bb ce bd 44 96 4c bd
       0.1489459 0.22627513 -0.100943975 -0.049947992
000270 5e 80 c8 bd d5 35 2c bd 49 f2 35 3e 3d 08 5a be
       -0.09790109 -0.042043526 0.17768206 -0.21292205
000280 5b 8e 7a bd 19 2f c7 bd 03 b8 53 3e 5d ed 6a 3e
       -0.061170917 -0.0972578 0.20675664 0.2294211
000290 57 f4 23 be dd 37 c9 3d 61 3b 30 be f7 e6 d1 3d
       -0.16011177 0.09825108 -0.17210151 0.10249131
0002a0 3e f0 0f be df 2c 3a be f6 f4 84 bd 0d 8d 1d bd
       -0.14056489 -0.1818118 -0.06492035 -0.038464595
0002b0 2d d7 3c bd c6 89 7c be 69 c7 a3 bd a5 0f 18 be
       -0.046103645 -0.24661931 -0.07997019 -0.14849718
0002c0 21 28 85 be 54 3e 81 3d eb 15 78 3e ae cc 74 3e
       -0.26007178 0.06310716 0.24227111 0.23906204
0002d0 fb a3 88 be 98 59 01 3d dc 7c e2 bd 8e d4 50 3d
       -0.26687607 0.031579584 -0.11058971 0.050983958
0002e0 43 11 e8 bc 69 d4 10 be f7 01 21 3e 69 ce 18 be
       -0.028328544 -0.14143528 0.15723406 -0.14922489
0002f0 5a f7 31 3e ff 1d 50 3c 31 fd 43 be 66 0a 3c bc
       0.17379513 0.012702464 -0.19139554 -0.011477089
000300 b3 9b 1a 3e 74 be 54 be d6 70 15 bd cf 2d d7 bd
       0.15098457 -0.20775777 -0.03648456 -0.10506784
000310 b6 1f be bd bc 2a 6c 3e b6 ce 95 bd 98 ba 3c 3e
       -0.09283392 0.23063177 -0.073148176 0.18430555
000320 61 74 4f be ac ca 88 be a0 0b 89 3e d2 92 79 3e
       -0.20259239 -0.26717126 0.26766682 0.24372414
000330 f9 ec 87 be 25 93 02 3d 0b 0d 45 bc 44 cb 2a be
       -0.26547983 0.03187861 -0.0120270355 -0.16679102
000340 1d e3 5e 3e de e9 3b bd 42 65 d2 3d d1 71 53 bd
       0.21766324 -0.04587733 0.1027322 -0.051622216
000350 50 88 77 be ad dc 65 be 42 dd 26 3e c3 9b 2e 3e
       -0.24173093 -0.22447462 0.1629534 0.17051606
000360 ec 8d 88 3e 32 d3 f5 3b 04 91 f1 bd 69 31 0a 3e
       0.26670778 0.007501983 -0.11795238 0.13495411
000370 2a 83 00 be b5 32 54 be 5d ed 00 3e e3 87 2f 3d
       -0.12550035 -0.20722468 0.12590547 0.0428542
000380 f6 e9 86 3a b7 a7 23 3d 30 66 51 3d d2 a5 cc 3d
       0.0010293114 0.039954867 0.051122844 0.09992565
000390 06 38 e7 bd b7 1c b2 bd d9 22 6f 3e fa a4 5c be
       -0.112899825 -0.08696883 0.23353137 -0.21547309
0003a0 97 92 8d be fd c7 16 be 86 49 59 be a7 d7 2d bb
       -0.27650902 -0.14724727 -0.21219453 -0.0026526244
0003b0 86 0f 71 3e aa 7d 16 3d 71 ab ed bd 45 a6 3c 3e
       0.23541078 0.036740936 -0.116049655 0.18422802
0003c0 1f 1f 58 3e ad 32 14 be 4b 08 63 bd a3 67 67 3e
       0.21105622 -0.14472456 -0.05542783 0.22598128
0003d0 aa 7d 61 be b6 26 81 3d 3c 68 12 be c4 45 a6 3d
       -0.22020593 0.06306212 -0.14297575 0.081187755
0003e0 97 97 23 be 20 48 db 3d d9 55 de bc 0e a8 99 bd
       -0.15975796 0.10707116 -0.027140545 -0.07502757
0003f0 93 31 d3 bd 8e bd 49 be 02 2d 88 bc d5 0e 39 3e
       -0.1031219 -0.19701216 -0.016623024 0.18072064

main.0.bias f4 [64]
000000 e6 8a 36 be 96 c4 6c bc da 61 82 3b b5 23 4c be
       -0.17826423 -0.014451167 0.00397895 -0.19935496
000010 0d fa d1 3d b2 57 3b 3d 6d ea 37 be 0f 08 30 bd
       0.102527715 0.04573793 -0.1796052 -0.042976435
000020 c4 b7 4e 3e 24 7a 7d 3e 96 f9 88 be 86 10 ed 3d
       0.20187289 0.24753624 -0.2675292 0.11575417
000030 59 05 4c 3c 80 6e 36 be 4c c3 82 be 92 ce 91 3e
       0.012452447 -0.1781559 -0.25539625 0.28477913
000040 66 c5 81 3d 26 2f 1b bb ed 62 ce 3d ee 86 71 3e
       0.06336479 -0.0023679226 0.10077462 0.23586628
000050 21 f8 72 3e 5d df 98 3d de dd 5d 3e b9 17 0c be
       0.23727466 0.07464478 0.21666667 -0.13680924
000060 df 34 14 3d 4a 5e 4d 3e d9 f7 12 3e ae 22 63 be
       0.036183234 0.200555 0.14352359 -0.22181198
000070 fb 36 8d 3e 7d 8c 77 3e cc 95 73 3e e9 42 43 bd
       0.2758101 0.24174686 0.23787612 -0.047671232
000080 eb cc ea bd 94 85 d2 bd 9d 58 29 3e 71 e6 18 be
       -0.11464866 -0.10279384 0.1653771 -0.14931656
000090 0f 1d 9a 3c e8 ae d4 3d 75 ac a7 bc fb 56 45 be
       0.018812684 0.10384923 -0.020467976 -0.19271462
0000a0 7b 51 5a bb 58 c5 7d 3e 95 96 69 3e 21 e9 ee bc
       -0.0033312726 0.24782312 0.22811349 -0.029163899
0000b0 24 e9 15 be e2 10 2a be 23 06 40 3e 50 7f ba bc
       -0.14639717 -0.16608003 0.18752341 -0.022765785
0000c0 ee 4f 61 3b 2a cb cb bd 68 92 3c 3d b7 34 94 be
       0.0034379917 -0.0995086 0.04603806 -0.28946468
0000d0 47 ea 74 bc d0 c4 b8 bd 64 fa 27 be e5 b5 e6 bd
       -0.014948434 -0.09021914 -0.1640411 -0.112651624
0000e0 6a 51 3b be 8c 16 90 bc 28 50 8b 3d 5e ac 77 bd
       -0.18292776 -0.017588876 0.06802398 -0.060467117
0000f0 70 fe e1 bd 35 69 97 3d 64 f3 74 bd c1 6f 9e bd
       -0.11034858 0.073931135 -0.059802428 -0.07736159

main.3.weight f4 [64, 64]
000000 2c 5b 3c 3d 8d 08 0c bd 57 26 86 3d e8 71 b4 bd
       0.045985386 -0.034187842 0.065502815 -0.088107884
000010 16 f3 88 bd fd 17 d3 bc 81 96 7c 3a 70 11 3d bb
       -0.0668699 -0.025768274 0.0009635464 -0.0028849505
000020 94 be 76 3d e1 37 8e 3d b2 b5 8e 3d 98 0c b4 3d
       0.060240343 0.06944252 0.069682494 0.087914646
000030 f2 08 9e 3c 99 50 91 3d f3 d9 36 bb f1 60 2c bd
       0.019291375 0.07095451 -0.0027900904 -0.042084638
000040 3c e0 d8 3d da 3f 98 3d 40 e6 d1 bd 6a 44 41 3d
       0.10589644 0.07434054 -0.10248995 0.047184385
000050 81 e3 72 bd 98 81 c4 3d a3 2b 07 bd 84 73 ca 3c
       -0.059298996 0.095950305 -0.0330006 0.024713285
000060 e9 9e 63 3c 11 9c cb 3c 10 50 79 bc 5d 83 ad 3d
       0.013892868 0.024854692 -0.015216842 0.08472321
000070 c0 26 9a bd 44 a9 62 3b 91 3a 70 bd d2 61 56 3d
       -0.07526922 0.0034585753 -0.058649603 0.052339382
000080 21 c9 8d 3d 05 27 7b 3d fa f2 98 bd e0 7b e6 bd
       0.06923128 0.06131651 -0.07468219 -0.11254096
000090 94 7d 62 bd 02 e4 b3 bd 05 80 33 3d 60 77 7f 3d
       -0.055295542 -0.087837234 0.04382326 0.062369704
0000a0 9b da bb 3d 60 dc 55 b9 2d 94 71 bd b2 ca e1 bc
       0.09172555 -0.00020395359 -0.058979202 -0.027562473
0000b0 9d a7 1d 3c 0d fc c4 bb 4f df d2 3d 73 d4 72 3d
       0.009622482 -0.006011492 0.10296499 0.05928464
0000c0 4b a8 ae bd b4 b2 82 bd e7 d0 12 3d 5c 9c 63 3c
       -0.08528193 -0.06381741 0.035843756 0.013892259
0000d0 cd 8e b9 bd da c7 87 bc bf b6 90 3c 9e a9 04 3c
       -0.0906044 -0.016574789 0.017665265 0.0080970805
0000e0 43 cb 8a 3d 8a f2 15 3b e7 6f 2c 3d ca cf 8a bd
       0.0677705 0.002288016 0.042098906 -0.06777914
0000f0 b1 9e c9 bd 9e 3b 5a 3d 5e 7c 82 bd 90 22 9f bc
       -0.09844721 0.05327951 -0.063713774 -0.01942566
000100 e6 c1 99 3d d0 4c 4c 3b f0 78 51 bd f6 97 88 bc
       0.07507686 0.0031173714 -0.051140726 -0.016674023
000110 e9 1e ed 3c 77 89 85 bb 7b 25 20 3d ff c5 0e bc
       0.028945403 -0.004075225 0.039098244 -0.008714198
000120 1f cf 70 bd 29 71 00 bd 7a b1 f6 ba 75 0e 04 3e
       -0.058791276 -0.031357918 -0.0018821203 0.1289614
000130 e5 9c 33 bd f2 42 66 bd 2a 40 ff bc fc cc 19 bd
       -0.0438508 -0.056216188 -0.031158525 -0.037549004
000140 9e f0 ce 3d 0c c4 a2 3d 51 dc b0 3b 3b 87 49 bd
       0.10104488 0.07947549 0.0053973575 -0.04920123
000150 3e 0c 84 3d 38 7d d0 3d 1a b9 b2 3d 2d 62 47 bd
       0.064476475 0.101801336 0.087267116 -0.048677612
000160 9b e7 a7 bc 45 3b 76 bd 77 44 97 bd 03 a2 00 3d
       -0.02049618 -0.060115118 -0.073861055 0.031404506
000170 fe 3f 4c 3d bf 58 5b bd 98 bc af 3d ec 40 94 bd
       0.049865715 -0.05355143 0.08580893 -0.07238945
000180 16 26 fd bd 90 ab 43 bc 7a e6 9e ba f0 21 a1 bc
       -0.1236078 -0.011942759 -0.0012123131 -0.019669503
000190 04 80 a7 3c b0 02 88 bd f8 82 1f bd f4 4c 93 3c
       0.020446785 -0.066411376 -0.03894326 0.01798103
0001a0 b2 3d 23 3d 64 ec a6 3d 96 78 49 3d 08 95 8c 3d
       0.03985376 0.08150557 0.049187265 0.06864363
0001b0 0d 7f 22 3d 56 df 2c bd 6b 1c 1c 3d 8c bc 36 3d
       0.039671946 -0.042205177 0.03811304 0.044613406
0001c0 e6 34 4c bd d4 1b 67 bd 9d df fc 3d 52 0c 50 3c
       -0.049855135 -0.056423023 0.12347338 0.01269825
0001d0 8e 63 7f 3d da 85 47 3d bc af 8c 3d 36 c0 41 bd
       0.062350802 0.048711635 0.06869456 -0.047302447
0001e0 1b 19 bb 3d 3a 34 cc 3d ba 9d bc 3d b7 12 20 bd
       0.09135648 0.09970899 0.092097715 -0.039080348
0001f0 84 23 20 3c 8a 08 f5 3c 94 9c b3 3d 4a 5c 31 3d
       0.009774093 0.029911298 0.08770099 0.043300904
000200 03 fc 05 bd 97 0f ee bb d2 e5 93 bd 61 b1 69 bd
       -0.03271104 -0.007265042 -0.07221569 -0.057053927
000210 89 a9 0a 3d 08 4a 13 bd 74 d4 43 bd ca 25 9a bc
       0.033853088 -0.035959274 -0.047810033 -0.018816847
000220 56 1a 95 3d fe 88 e3 3c f5 e7 9f 3d 0c 62 8a 3d
       0.07280414 0.027775284 0.07807914 0.06756982
000230 f0 eb cd 3c f0 5d ce 3d db 5b 10 3d 1a 85 c0 3c
       0.025136918 0.10076511 0.03524385 0.023500968
000240 66 0b b0 3d 25 f3 eb 3d 81 36 5b bd d4 76 29 bc
       0.08595924 0.115209855 -0.053518776 -0.010343272
000250 42 48 b3 bc ea 7d 36 3d 12 32 cc 3d 2e b8 70 bd
       -0.021885041 0.044553675 0.09970488 -0.058769397
000260 1c ed 32 3b 62 e2 b3 3d c6 c9 39 bd 23 3f cd bd
       0.0027301973 0.087834135 -0.04535844 -0.10021808
000270 9e 55 a6 3c 0e c2 1e 3d 5f 10 7a 3d 96 4a b6 3b
       0.020304497 0.038759284 0.06105077 0.0055630906
000280 60 5a 02 bd 4e c1 de 3c 68 c3 a3 bb a0 6a b3 bd
       -0.03182447 0.027191784 -0.0049976595 -0.087605715
000290 26 ef 98 bd 45 e9 27 bd b8 84 a2 bc 41 08 4b 3d
       -0.07467489 -0.040993948 -0.019838676 0.04956842
0002a0 32 f6 29 3d dc 34 8e 3c 60 b4 8b bd 69 b5 d9 bb
       0.041494556 0.01735919 -0.06821513 -0.00664394
0002b0 00 52 95 bc dc 59 99 3c d9 7f a8 3d 99 c6 51 bd
       -0.018227577 0.018719606 0.0822751 -0.051214788
0002c0 af cb 3a 3d 85 09 89 39 11 09 93 3c eb 60 af bc
       0.045604404 0.0002613777 0.01794866 -0.021408519
0002d0 ac c6 dd 3d 33 84 e3 bc ae 7f 84 bd 3c 4b b7 bd
       0.10828909 -0.027772998 -0.064696655 -0.08949897
0002e0 59 1b b3 bb 82 1d 48 3d 7e 1f dc 3d 92 3f 8e bd
       -0.0054659066 0.048856266 0.10748194 -0.06945719
0002f0 24 ca a5 bd 47 c4 01 3d 31 df ad 3c ad a4 83 3d
       -0.08095196 0.031681325 0.02122459 0.06427894
000300 cc 2b 98 3d 69 6d b8 3d 22 8e 91 bc 4d 93 0a 3d
       0.074302286 0.09005243 -0.01776797 0.033831883
000310 31 29 0f bd 1f 51 25 3d 74 b4 4d bd 2e 48 37 bd
       -0.034951393 0.040360566 -0.05022092 -0.04474657
000320 0a 1b 97 3d 99 2a 4c 3d 43 fe 6a bc dd cb 81 3d
       0.07378204 0.04984531 -0.014342847 0.06337712
000330 3b b6 5a bc a9 59 95 3d 2a f7 8a bc 58 dd cf 3b
       -0.013349111 0.07292492 -0.01696356 0.006343525
000340 01 e6 79 3d bd ac 7f 3d 01 39 49 3d 8c df bc bd
       0.061010364 0.062420595 0.04912663 -0.09222326
000350 76 2b 73 bd c9 15 0c bd e7 f2 af bb eb e9 32 bd
       -0.05936762 -0.034200463 -0.0053695324 -0.043680113
000360 6d 67 e1 bc d9 7a 77 3c f7 2e b5 bd 90 69 b0 bc
       -0.027515138 0.015104973 -0.088468485 -0.021534711
000370 47 4a 68 3d a9 e7 94 3d b7 f3 84 3d bc 66 df 3d
       0.05671146 0.07270748 0.064917974 0.10908267
000380 70 0c 93 3d c2 cb 71 3d 78 e2 d5 3c a0 82 40 bd
       0.07180107 0.05903221 0.026108965 -0.046999574
000390 a7 5f 8f bc 26 e8 b7 3c c6 47 86 bd d4 26 f5 3d
       -0.017501665 0.022449564 -0.065566584 0.119702965
0003a0 c3 a0 6f bd b2 d4 0b be 6e 82 f7 bc ac 7a 14 bd
       -0.058502924 -0.13655356 -0.03021356 -0.0362498
0003b0 29 10 77 bc 0b b4 58 bd 28 cc 4c bd 57 da 4d 3d
       -0.0150795365 -0.052906077 -0.049999386 0.050257053
0003c0 b4 ab 85 3c bf 76 be bd b9 12 4a 3d 23 f9 fc 3c
       0.016317226 -0.09299993 0.04933426 0.030880516
0003d0 a9 bd 95 bd 9f e6 54 bb d2 c4 b2 3c 71 30 ab bd
       -0.073115654 -0.0032486094 0.021822367 -0.08358849
0003e0 2f f0 26 3c 68 2b e6 3d 76 f8 06 3d 4f e5 85 bd
       0.0101891 0.11238748 0.032951795 -0.06537878
0003f0 59 81 6e 3d 01 11 69 bd d7 a6 c4 3d 7b c0 30 3c
       0.058228824 -0.05690098 0.09602135 0.010788078

main.3.bias f4 [64]
000000 50 e1 96 3d 1f 26 f1 bd 9d 14 2f bd 19 34 aa 3d
       0.07367194 -0.11774849 -0.042744268 0.08310718
000010 ce 5e a4 3d 29 f9 55 bd 37 03 37 3d 8d 57 bc bd
       0.08025895 -0.05223957 0.0446808 -0.091963865
000020 a5 1c 4c 3d ca e6 80 3c 6a 8c e4 bd e5 7e 44 bd
       0.049832005 0.015735049 -0.11159594 -0.04797258
000030 59 25 31 3c 64 34 19 bd da 2a 67 3c 84 d7 5e bd
       0.010812127 -0.03740348 0.014109338 -0.05440475
000040 32 79 8b 3d 7e 24 c6 bd bb b9 9c bd 78 78 83 3c
       0.068102255 -0.09674929 -0.07652613 0.016048655
000050 8a 96 dc bc ef db 80 bd b4 aa 24 bc 6b 45 61 3d
       -0.026927251 -0.06291949 -0.010050464 0.054997843
000060 8c 52 41 3d a6 58 6f bd 7a 6a 2e 3d 53 89 81 bd
       0.047197863 -0.05843415 0.042582013 -0.06325021
000070 31 48 c8 bd 0d 61 a8 3d 8f 77 b1 3d d0 0a 58 bd
       -0.097793944 0.08221636 0.08665382 -0.052744687
000080 b8 4b d3 3c e1 f1 32 3d f2 fd 61 3d 7f 8b b4 bd
       0.025792941 0.043687705 0.05517382 -0.08815669
000090 ed 4e a9 3d 24 90 fc 3d 87 85 c8 bc c0 7a f2 bd
       0.08267007 0.1233218 -0.024477733 -0.11839819
0000a0 e5 e0 4b bd d0 9d 02 3b 32 9d b1 bc d6 a6 b6 3d
       -0.049775023 0.001993049 -0.021681402 0.0891854
0000b0 11 63 ba 3d 5f 27 1b 3d 23 ef b2 bb 71 05 d1 bd
       0.09100927 0.037879344 -0.005460636 -0.10206116
0000c0 ce f0 a1 3d b1 18 2e bd 72 a2 ad 3c 82 37 1f bd
       0.07907258 -0.042504016 0.021195624 -0.038871296
0000d0 97 77 8c bd 70 f0 dc bc a0 26 36 bd 76 24 ad 3d
       -0.068587475 -0.026970118 -0.04447043 0.0845422
0000e0 e0 96 42 bc a5 ad 8e 3d 8f b9 e6 bd 29 93 ca bc
       -0.011876792 0.06966714 -0.11265861 -0.024728375
0000f0 ba 0f d0 bd ec c9 6b 3d ae 13 01 bd d3 0c e6 bd
       -0.101592496 0.057565615 -0.03151291 -0.11232915

main.6.weight f4 [64, 64]
000000 b7 89 97 3d a0 60 9f ba 8e 8a 80 bc 77 98 8d bd
       0.07399314 -0.0012159534 -0.015691068 -0.06913846
000010 2c e7 cb 3c 75 cb cd 3d 42 7d ca bd 3d 7d aa 3d
       0.024890505 0.10048572 -0.09887172 0.083246686
000020 44 2e ad bc dd d3 42 3c 68 58 b9 bd 0b fc 1d bd
       -0.021140225 0.011891332 -0.09050065 -0.038570445
000030 1c 1c ab bd 4f 2e 3e 3d 20 84 ed bc d0 55 cf 3c
       -0.08354971 0.046430882 -0.028993666 0.025309473
000040 a6 94 e0 bd 97 3a 94 bb 8c aa 0e bc 38 a4 be bd
       -0.109658524 -0.004523586 -0.008707654 -0.09308666
000050 e6 32 2a 3c 5c 68 b5 3c a0 fe ff bd 08 fd ed 3c
       0.010388112 0.022144489 -0.12499738 0.029051319
000060 d3 eb 53 bd 4e e7 b2 bd b2 30 82 bd b6 cb e6 3d
       -0.05173857 -0.08735524 -0.06356944 0.112693235
000070 98 03 d0 3d 73 4e fb 3d 2d 1b 99 3d 8e 2e 3d 3d
       0.101569355 0.122708224 0.074758865 0.046186976
000080 62 60 93 bd 62 4f 5a bb 4e e8 5e 3d 64 a1 8d 3d
       -0.07196118 -0.0033311476 0.05442076 0.069155484
000090 e8 23 19 bc 87 8e 00 3e c2 c5 31 bd 2d 7b ed 3d
       -0.00934694 0.1255437 -0.043401487 0.115957595
0000a0 9e a7 2b bd ff 28 eb bd 6b 4b 8d bd 40 7f 6f bd
       -0.0419079 -0.11482429 -0.068991505 -0.058470964
0000b0 71 e7 3b bd ce d9 c5 bd 18 dd 03 bd 06 f2 e1 3d
       -0.045875017 -0.096606836 -0.032193273 0.110324904
0000c0 07 98 f1 3d c3 88 1a ba 2e 93 96 3c 10 f9 93 bd
       0.11796575 -0.0005895013 0.018380728 -0.07225239
0000d0 02 d3 0a bd 47 64 15 bd 10 68 b0 bd 60 79 6d bd
       -0.03389264 -0.036472585 -0.08613598 -0.05797708
0000e0 4b 30 1b 3d f1 ec 54 bd d3 62 6c 3d 05 3d c5 bd
       0.037887853 -0.051983777 0.057711434 -0.09630779
0000f0 a2 72 9d bd e0 22 57 3d 65 89 b1 3d 9f dc c7 3d
       -0.0768788 0.052523494 0.08668784 0.09758877
000100 30 12 9b bd 22 ba ce 3d 94 85 7c 3c ff e2 e6 3d
       -0.07571828 0.10094096 0.015412707 0.11273765
000110 f2 e3 d6 3d 92 21 2e bd ff 36 59 bb fc 07 18 bc
       0.10492696 -0.042512484 -0.0033144352 -0.009279247
000120 0f d8 a2 bc 80 ab a3 3a 00 fd cc bd 50 76 f7 3c
       -0.019878415 0.0012487024 -0.100091934 0.030207783
000130 e9 f9 04 be 23 6d 82 3d 24 93 d0 bd 99 eb 3d bd
       -0.12985958 0.063684724 -0.10184315 -0.04636726
000140 4c 71 a7 bd 27 ef be bd b2 8b 83 3d 10 90 d9 3b
       -0.081759065 -0.093229584 0.06423129 0.006639488
000150 99 86 3c 3d 4e bd b2 3d 19 68 e7 3c f9 cd 4f 3c
       0.0460268 0.08727513 0.02824788 0.012683385
000160 0c 42 8d bd 87 65 8f 3d d6 04 92 bd ac b6 09 bc
       -0.06897363 0.07001787 -0.07129829 -0.008405369
000170 8f 60 87 bd 09 9d 39 bc 6b df 86 bd 08 6c d4 b9
       -0.06610214 -0.011328944 -0.06585582 -0.0004051628
000180 7a f7 aa 3d 66 33 e5 bb 99 f3 77 3d 53 16 c3 bd
       0.08347984 -0.0069946526 0.060535047 -0.095257424
000190 9b be 90 bd 26 0e da bd cc 9b 50 bc f3 91 b3 3d
       -0.07067605 -0.1064723 -0.012732457 0.08768072
0001a0 60 21 9f 3d 7a 3e 08 3c 1e 42 95 3c b2 9d 84 bc
       0.07770038 0.008315677 0.018220004 -0.016188476
0001b0 36 2c 8c 3d 18 ba 83 3c 4c 63 71 bd a6 78 b5 bc
       0.0684437 0.016079947 -0.058932588 -0.022152256
0001c0 b3 49 3b bb e1 87 1a 3d d8 b5 b4 3b 71 a1 bc bc
       -0.0028577864 0.03772724 0.0055148415 -0.0230262
0001d0 f0 bc a0 3d 64 bd d7 3b 32 3b 1c 3d d1 aa af 3d
       0.07848537 0.0065838564 0.03814239 0.085775025
0001e0 80 b5 c9 3c b1 a6 2e bd 1a 09 2e bd 1c 61 2f bd
       0.024622679 -0.042639438 -0.04248915 -0.04281722
0001f0 1b f9 30 3d 9f 89 da 3d 73 93 ef 3d 80 ff 8e 3d
       0.043206315 0.106707804 0.116980456 0.069823265
000200 be 15 1d bd ef 6a 7f bd 1f 5a f4 bc 1a 27 bc 3d
       -0.038350813 -0.06235784 -0.02982813 0.091871455
000210 9d c2 2c bd 5d b6 48 3c e7 03 53 bd b8 6e 0e 3d
       -0.042177785 0.01225051 -0.051517393 0.03477356
000220 62 1e 06 bd 0a bd c4 bc 57 04 70 3d d3 bd 9d 3d
       -0.03274382 -0.024015922 0.05859789 0.07702222
000230 aa d1 00 3c 31 fa b6 3d 27 b1 bc 3d a4 9f 36 bb
       0.007862488 0.08934439 0.09213477 -0.002786615
000240 e4 f7 25 3d 80 f4 c4 3a 40 99 2a 3c 90 02 fa bd
       0.04051961 0.001502648 0.010412514 -0.1220752
000250 6f 16 94 bd 83 2b d9 bd 46 d2 98 3d 87 08 78 3d
       -0.07230841 -0.10604002 0.074619815 0.060555007
000260 77 b7 a6 3d 06 77 31 bd 02 3e 94 bd 14 bc 1f 3d
       0.08140462 -0.0433264 -0.072383896 0.038997725
000270 70 7f ff b9 73 53 05 3e 4e 6c 09 3e 18 da bd bd
       -0.00048732338 0.13020115 0.13420221 -0.09270114
000280 14 cd 38 bc a4 91 db 3d 08 8b 08 bd 6b 13 a8 3d
       -0.011279363 0.10721138 -0.033335716 0.08206829
000290 d0 27 8f bd a6 5b 28 bd 2c d1 54 3d 91 60 f5 ba
       -0.069900155 -0.041103028 0.051957294 -0.0018720796
0002a0 64 48 cb 3d a1 e2 66 bd 44 44 14 3d 15 55 90 bd
       0.09925917 -0.056368474 0.036197916 -0.07047478
0002b0 b7 90 e8 bb ac 4d af 3d aa 30 a9 bd c9 44 22 bd
       -0.0070973295 0.085597366 -0.08261235 -0.03961638
0002c0 ab fb 80 bd 71 88 c1 3d 2e 98 46 3d ff be a1 bd
       -0.06298002 0.09449852 0.048484974 -0.07897758
0002d0 7f 36 97 bd 09 1e c9 bc 09 df b1 3c 09 f4 f7 bc
       -0.07383441 -0.024550455 0.021712797 -0.030267732
0002e0 49 c2 03 3d 49 1e c5 3d b0 b4 95 3d 1d 9d 20 3d
       0.032167707 0.09624917 0.07309854 0.039212335
0002f0 4c ee 9d 3d 3c d7 5d 3b fc 09 cd 3d bf 0d 5e 3c
       0.07711467 0.0033850214 0.1001167 0.013553082
000300 91 d2 4c 3c ff df c6 3d 34 e3 e5 bd 1b 13 ec bd
       0.012501375 0.097106926 -0.11224976 -0.115270816
000310 45 50 80 bd 26 44 41 bd 8d f3 6d bd 9c a0 1d bc
       -0.0626531 -0.047184132 -0.058093596 -0.009620812
000320 28 b6 95 bc c7 46 e7 bd 86 c5 0e 3e a2 cb 9b 3d
       -0.018275335 -0.112927966 0.13942537 0.07607199
000330 89 1e 79 3d ff c0 97 bb 61 e1 ae bd bc f5 e4 3d
       0.060820136 -0.004631161 -0.08539081 0.111796826
000340 1b da 6d bd 3f b7 21 3c 17 46 d4 bd dd 19 b3 bd
       -0.05806933 0.009870349 -0.10364931 -0.087451674
000350 5c 39 d4 3d 13 31 ec 3d 00 31 76 bd 50 b3 81 3d
       0.10362503 0.11532798 -0.060105324 0.06333029
000360 12 0a 4c 3b d6 d6 a7 3b 6b 71 f6 3c 12 62 e3 bc
       0.0031133932 0.005122046 0.030083379 -0.027756725
000370 48 12 26 3d 43 59 a0 bc a2 7c 94 3d 3d c4 24 3e
       0.040544778 -0.019573813 0.07250334 0.16090484
000380 20 84 06 bc 75 03 06 3e 42 f7 e7 bd 4d 3e 3f bd
       -0.008210212 0.13087256 -0.113264576 -0.046690274
000390 00 97 81 3c 8a 8b de bd 3c bb 82 3d 86 58 ad 3d
       0.015819073 -0.10866459 0.063833684 0.0846415
0003a0 df 1d 42 3d d7 d3 a5 3d 9d 4d b5 bc 53 49 ab 3d
       0.04739177 0.08097046 -0.022131735 0.08363595
0003b0 9a de ac bb 19 a6 92 3d 53 50 45 3d c3 26 7d 3d
       -0.0052755596 0.07160587 0.048172306 0.061804544
0003c0 6f 60 68 ba e3 76 8b bd 29 39 3d bd 4e f2 e3 bd
       -0.00088644674 -0.06809785 -0.04619709 -0.111302
0003d0 8c ad 27 bd 14 42 59 bd 3d 34 ea 3c 05 46 3b 3d
       -0.04093699 -0.053041533 0.028589362 0.045721073
0003e0 44 fa ec 3b aa 6d db bc f0 7c 87 3d d7 28 15 bd
       0.0072319824 -0.02678569 0.06615627 -0.0364159
0003f0 a2 98 39 3d d6 17 7c bd 1d cd b0 3c 71 3f 42 bd
       0.045311578 -0.06154617 0.02158218 -0.047423784

main.6.bias f4 [64]
000000 57 73 ef bc 1d 06 e4 bc 35 ae af bd b1 d4 51 bd
       -0.029229803 -0.027834946 -0.08578149 -0.05122823
000010 2f 6c 34 bc 1a bc 50 bb 27 0a de 3d 40 08 23 3d
       -0.011012121 -0.0031850399 0.1084178 0.03980279
000020 30 00 0f 3d 57 aa 93 3d 9f f3 68 bd c7 5d 2a bd
       0.03491229 0.07210224 -0.05687296 -0.04159334
000030 c3 d1 67 bd b6 3a 0b bd 61 72 6f bd 08 f4 be bd
       -0.05659653 -0.033991538 -0.05845869 -0.09323889
000040 58 63 ad bd 89 7b 94 3d 9b 96 f5 bc 8d 12 c1 bc
       -0.08466214 0.07250125 -0.02997904 -0.023568416
000050 0f 22 04 bc 05 21 2d bd dd bd e9 bd 3c 83 0e 3d
       -0.008064761 -0.042267818 -0.11413167 0.034793124
000060 09 b4 42 bd 4a 0c 5d 3c 5c 38 5e bd 39 36 cd bd
       -0.047534976 0.0134916995 -0.054252967 -0.10020108
000070 a1 67 b4 bd 5d d1 b4 bd 2f 0a b8 bd 53 0d 95 bd
       -0.08808828 -0.088289954 -0.08986317 -0.07277932
000080 8b 89 9c bc bd 6e 93 bd aa 56 e4 3d eb 5c 79 3d
       -0.019108554 -0.07198856 0.11149342 0.06087963
000090 fc 76 0c 3d b5 55 d5 bd 7f e7 d0 3d 0d 63 85 bd
       0.03429316 -0.10416738 0.102004044 -0.06513033
0000a0 09 72 f0 3c 0d f4 fa bd 87 8b bb bd dc b4 ad 3d
       0.029351251 -0.1225358 -0.09157472 0.08481762
0000b0 48 55 80 3c e7 a7 e1 bd 32 0a a1 bd 46 31 8a 3d
       0.015665665 -0.11018353 -0.07863273 0.067476794
0000c0 ff 30 0f 3d 12 33 01 3d 6f 89 9a bd cf 11 5d 3d
       0.034958836 0.031542845 -0.07545745 0.05397206
0000d0 52 41 94 bd e9 a4 cd bc 18 db 4c bd 26 1b f0 bb
       -0.07239021 -0.02510305 -0.05001363 -0.007327455
0000e0 26 11 29 bd d0 db 0b bd 92 1f 93 3d 6e 64 d0 bd
       -0.04127612 -0.034145176 0.07183756 -0.101754054
0000f0 f8 cd f7 3d f2 3b b3 3d cf 02 f3 bc c8 c2 9a bd
       0.12099832 0.08751668 -0.029664425 -0.07556683

main.9.weight f4 [64, 64]
000000 af 9b 4a 3d ae 7b f5 3a 78 39 07 be e9 2d 92 bc
       0.049464878 0.0018728876 -0.13205516 -0.017844157
000010 52 52 3f bd 83 3d 44 bc 43 f9 97 bc 00 13 19 3d
       -0.046709366 -0.011977556 -0.018551474 0.037371635
000020 17 1e b8 bc 7c 26 bf bd ad 1d 92 bc 94 f5 3d bd
       -0.022475285 -0.09333512 -0.017836416 -0.04637678
000030 c7 77 7a bc 18 e9 db 3c 35 f8 8f bb 9a 67 9b 3d
       -0.015287346 0.026844546 -0.0043936023 0.0758812
000040 d8 e1 08 be 74 a2 84 3d df 0d 0b be 65 3b 91 3d
       -0.13367403 0.06476298 -0.1357951 0.07091407
000050 55 ea 84 3d f8 1a 3b bd 23 a2 14 bc 64 6e 52 3c
       0.06490008 -0.045680016 -0.0090718595 0.012843702
000060 e2 77 00 be e2 3e 81 bd 05 c5 9e 3d ae 6c 85 bd
       -0.12545732 -0.06310822 0.07752422 -0.0651487
000070 47 52 a7 3c 0c 41 6b bd 5d d9 af bd 13 4b 09 3d
       0.020424975 -0.05743508 -0.08586381 0.033518862
000080 b4 b2 56 bd 77 0f b6 bc 76 97 a0 3d f1 5b b9 bd
       -0.05241652 -0.022224171 0.07841389 -0.090507396
000090 a6 67 54 3d 9d 01 98 bb d0 92 6b 3d 9e 54 5c bc
       0.05185666 -0.004638864 0.05751306 -0.013447909
0000a0 88 1c 92 3c 18 d8 89 3d 30 5f 34 bd 89 f5 90 bd
       0.01783587 0.0673067 -0.04403609 -0.07078082
0000b0 5d 2e 3e bd d9 c8 30 3d 42 67 6e 3c c1 ac a5 3d
       -0.046430934 0.043160293 0.014550986 0.08089591
0000c0 53 40 ef bc 62 18 99 3c 57 ba 13 3c 22 30 c1 bd
       -0.029205477 0.018688384 0.009016595 -0.09433009
0000d0 7b 35 2d bd 66 7a 31 3d 95 f3 02 3d df 1c 4a bb
       -0.04228733 0.04332962 0.03197058 -0.0030839962
0000e0 8e 13 b6 3c d6 93 ea 3d a9 0e 0b 3e 11 ad 87 bd
       0.022226121 0.11453979 0.13579811 -0.06624807
0000f0 8b b5 31 bd d6 e5 8c 3c 10 79 87 bd c2 d4 d8 bd
       -0.043386023 0.017199438 -0.06614888 -0.10587455
000100 c3 9e b1 bc 6b a8 b7 bd be fd 9d bd a3 27 db 3d
       -0.021682149 -0.0896767 -0.07714413 0.107009195
000110 e2 51 77 bd 51 52 57 bc 72 7e 5b bd ae 10 75 3d
       -0.060380824 -0.013142184 -0.053587385 0.05983036
000120 fb 9c 3f 3c 54 23 b7 bd 5d 46 e7 3c 4c 0b 85 3d
       0.011695142 -0.08942285 0.028231794 0.06496295
000130 77 06 ae bd 12 47 cd 3d b2 c9 8d bb 20 43 ef 3a
       -0.08497327 0.10023321 -0.0043270225 0.0018254258
000140 32 0a 02 3d a7 da 71 bd ae e2 ac 3d 2e 1d b6 3d
       0.031748004 -0.059046414 0.08441673 0.08892284
000150 bc 6d bf 3c 54 11 63 bd fb 00 f8 3d 26 ca 8e 3d
       0.023367755 -0.055436447 0.12109562 0.069721505
000160 77 cf 2a 3d 2a a5 73 bd bf e2 87 bd 41 a2 74 bc
       0.04170176 -0.059483685 -0.06635045 -0.0149312625
000170 bd 0f 4f 3a 81 bc c8 bd e2 5f f9 bc 44 fc c4 bc
       0.00078987685 -0.09801579 -0.030441228 -0.02404607
000180 bc 40 c6 bd 84 08 6a 3d b1 2b 0d bd 10 2d 8d 3d
       -0.09680316 0.057137027 -0.034465495 0.068933606
000190 c2 8f 8f bc 54 ec 85 bd 4e 66 7a 39 2c ff 51 bd
       -0.017524604 -0.06539217 0.0002387997 -0.05126874
0001a0 a3 d7 7d 3c b1 01 c1 3d 1f 09 31 3d 79 86 c5 bd
       0.015493306 0.09424151 0.04322159 -0.09644789
0001b0 26 f5 9b 3d 70 ed d2 ba 01 b2 a4 bc 3b 2d 98 bd
       0.07615118 -0.001609249 -0.02010441 -0.07430502
0001c0 0b 29 86 bd eb 20 37 3d eb cb 30 bd 2e bd b6 3c
       -0.06550797 0.044709127 -0.04316322 0.022307005
0001d0 36 42 ae 3d e4 9e e7 bd 09 1e a1 3d 10 d9 6e b8
       0.085087225 -0.11309603 0.07867057 -5.6945777e-05
0001e0 7c 85 64 3d 2d 89 de bd a2 65 11 bc 66 17 7c bd
       0.055791363 -0.10866008 -0.008874329 -0.061545752
0001f0 85 66 59 bd b5 f4 c9 bc ad 39 bd 3d 18 0a 97 bd
       -0.053076286 -0.024652818 0.092395164 -0.07374972
000200 c6 ed 91 3c 03 74 88 3d cd 93 f6 3d 0c 64 9a bc
       0.017813575 0.066627525 0.120399095 -0.018846534
000210 96 c7 e3 bd db c8 11 3e 3b 18 ef bb 87 e2 81 bd
       -0.11122052 0.14236777 -0.0072965897 -0.06342035
000220 c9 35 46 3d 51 69 39 bc 1f bd 76 3d 7f 23 fa 3c
       0.048391137 -0.011316613 0.060238954 0.030534504
000230 8c f6 91 bd ce d4 b0 3d 7b a2 ad 3d 74 34 07 3d
       -0.07127103 0.08634339 0.08478256 0.033009008
000240 33 3b b6 bd 58 3b 1e bd 6b 02 7a 3d 33 6b e9 bd
       -0.0889801 -0.038630813 0.061037462 -0.113974
000250 15 9e 3e bd e0 37 71 3b 06 6e 4b 3d 61 67 b1 bd
       -0.046537478 0.0036806986 0.049665473 -0.08662296
000260 76 c9 fe bb 25 67 64 bd 43 24 8a 3d c2 a5 04 bd
       -0.007775481 -0.05576243 0.067451976 -0.03238464
000270 d8 94 e1 bd e4 bc 0f bd 5b b2 c7 bd ce ba 12 3d
       -0.11014718 -0.03509225 -0.097508155 0.035822682
000280 c0 ca 07 3d a1 30 17 3c aa f5 06 3e 33 a2 88 3d
       0.03315234 0.009227903 0.13179651 0.06671562
000290 74 12 89 bd 3b a3 a4 3d 03 e6 fd bc 52 62 22 3d
       -0.06692973 0.08038946 -0.030993467 0.039644547
0002a0 5e 7c ba 3d d1 9f a1 bd 87 d5 9d bd 9d 54 82 3d
       0.091057524 -0.07891811 -0.07706743 0.06363795
0002b0 cb f6 ab 3d 74 17 e4 bd ce 7f e5 bd 8e 37 95 3d
       0.083966814 -0.11137286 -0.112060174 0.07285987
0002c0 6f 84 33 bc 1a 4c 9b bd 83 f0 32 3d 32 74 ad bd
       -0.010956868 -0.075828746 0.0436864 -0.08469428
0002d0 41 e3 8c 3d 6e 42 27 3b b5 b1 58 3d 4b 06 40 bc
       0.06879283 0.0025521773 0.05290385 -0.01172025
0002e0 de cf 08 bd 1c 2b b7 bd 83 36 11 bb 4e 4e 93 bd
       -0.033401363 -0.08943769 -0.0022157736 -0.0719267
0002f0 f7 e2 b4 bc 2c 7a 96 3c b8 f6 0b bd d5 c3 a6 3c
       -0.022080882 0.018368803 -0.034170836 0.020357052
000300 89 90 2c 3d 56 a2 09 bd bd d0 e5 bd 3f 51 9d bd
       0.042130027 -0.03360208 -0.11221454 -0.07681512
000310 16 5b a6 bd 50 e3 19 bd dd 26 06 3e 24 86 16 3c
       -0.08122842 -0.037570298 0.13100763 0.009187255
000320 61 5a cb bd 98 f2 90 bd fe 8f 8d bd 1c cd c5 3c
       -0.09929348 -0.07077521 -0.0691223 0.024145655
000330 35 f3 18 3d 9d 4e 13 be ca 40 2f 3c 10 90 85 3d
       0.037341315 -0.14385457 0.010696599 0.06521618
000340 90 00 92 bc 2b c5 20 bd 8d b6 22 3d d6 86 f7 bd
       -0.017822534 -0.039250534 0.039724875 -0.12086265
000350 a9 de ff bc 8e 69 06 3d bb d0 f6 3c ba 9d 97 3d
       -0.031234102 0.03281551 0.030128827 0.07403131
000360 1a fd 2c bd fd 53 9f bb df 2f e4 3c 76 ae 5e bd
       -0.042233564 -0.004862307 0.027854858 -0.054365598
000370 8d 63 86 bd c9 8d 02 3d 52 b1 15 3d ff 2e bd 3d
       -0.065619566 0.031873498 0.03654606 0.092374794
000380 d9 d6 55 3d 79 f4 96 3d bf 86 b0 bc 5c 10 9c bd
       0.052206848 0.07370848 -0.021548627 -0.07620308
000390 26 c9 fa 3d 0d 84 8d 3c c1 10 80 ba d0 6f 8f bd
       0.12245397 0.01727488 -0.0009770618 -0.070037484
0003a0 7d bb da 3d 25 fc 38 3d 04 ee 88 3d e8 88 9f bd
       0.10680292 0.04516234 0.06686023 -0.07789785
0003b0 c8 88 fb 3d 21 88 a7 bb 86 8d d1 bd bd 02 4b 3d
       0.12281948 -0.0051126634 -0.102320716 0.04956316
0003c0 24 48 00 3d 5a 1e a3 3c 4b 88 54 3d ba 9d 84 bd
       0.0313188 0.019911934 0.05188779 -0.064753965
0003d0 cd 3e 5d bd 89 a6 13 bd 15 b9 57 3d 93 d8 57 3c
       -0.05401497 -0.036047492 0.052666742 0.013174194
0003e0 61 95 0a be 24 aa 96 3d 31 d8 54 bd da 4a c5 3c
       -0.13533546 0.073566705 -0.05196399 0.024083544
0003f0 66 58 eb 3d be b9 94 3d 76 ef 64 3c 08 a4 65 3c
       0.1149147 0.0726199 0.013973108 0.014016159

main.9.bias f4 [64]
000000 49 8f 51 bd 3e d5 4d 3c 52 3d ac 3a 2a 29 91 bc
       -0.051162038 0.012563048 0.0013140833 -0.017719824
000010 a3 28 63 bd aa 06 90 bd 98 e8 bb bc 4d 40 58 bd
       -0.055458676 -0.07032521 -0.022938058 -0.052795697
000020 96 ac 8e 3c 6a 7e e8 3c 14 c3 92 bd 5e 7f 7e 3d
       0.01741628 0.028380591 -0.071661144 0.062133186
000030 ca b9 f2 3a b8 73 8f 3c 3f 4b 60 bd 31 8e 3b 3c
       0.0018518504 0.017511234 -0.05475926 0.011447475
000040 aa be 56 3d 36 7f 33 3d 16 3a 06 bd 65 0a 82 bd
       0.052427925 0.04382249 -0.03277024 -0.06349639
000050 98 d8 2f 3c 7b 51 20 bd fb d9 c5 bc 85 57 81 3c
       0.010732792 -0.039140206 -0.024151793 0.015788803
000060 9b e2 76 bd 16 5f 4f 3d 8b 31 92 bc 5d a9 c3 3d
       -0.0602747 0.05062779 -0.01784589 0.09553788
000070 5d 4c 21 bd ad 36 13 bd 75 07 d4 3c dd 49 7e 3c
       -0.039379466 -0.035940815 0.025882462 0.01552054
000080 c0 34 8c 3b 4e 5b a3 bd 0b 7e 2c 3c b0 e1 47 3d
       0.004278749 -0.07976399 0.010528098 0.048799217
000090 06 d2 02 3b 3e e3 2c 3d 6d 18 e8 bc 16 e2 81 3d
       0.001996161 0.042208903 -0.02833196 0.063419506
0000a0 82 18 60 3d 14 49 f3 bc 61 16 7c bd be 69 73 3d
       0.054710872 -0.029697932 -0.06154478 0.059427015
0000b0 a4 ef 66 ba 41 57 b6 bc 2a 4e 93 bc bf 4c 2a bd
       -0.0008809513 -0.022258403 -0.017981607 -0.041577097
0000c0 cb a4 38 bd 68 3c 96 3c 38 ae 9d 3c a8 a7 74 bb
       -0.045079034 0.01833935 0.019248113 -0.0037331376
0000d0 fd 64 89 3d 7b 98 19 bd d5 d2 80 3c 18 d3 26 3d
       0.06708715 -0.037498932 0.015725533 0.04072866
0000e0 10 c8 0a bd 05 9a 9c 3d 9b e7 04 bd e7 e5 52 3d
       -0.0338822 0.076465644 -0.03244744 0.051488783
0000f0 f2 da 7c 3d 4d 75 43 bd 3a d2 90 bd 52 ad ae 3d
       0.06173224 -0.04771929 -0.070713475 0.08529152
