models/VANE_link_pred_n2v_model/Generator_epoch_14.pth (torch, 55791 bytes, 8 tensors)

main.0.weight f4 [64, 10]
0.1883703 0.20097768 0.12217376 -0.0894782 -0.050018843 0.24807236 0.16894153 0.09815412
-0.11255346 0.19481638 0.252196 -0.24292877 0.08544443 -0.2238957 0.0052250735 -0.17393598
-0.2118712 -0.10186666 -0.1945551 0.2410018 -0.1583514 0.034642786 -0.19904332 -0.19318366
-0.24418066 0.032766536 0.0151006235 0.18599714 0.085279256 0.12673406 0.20799136 -0.19635682
-0.22758313 -0.106636025 -0.21492217 0.00964851 -0.15832113 -0.1169584 -0.16234916 -0.1495492
0.1866907 -0.041762564 0.056522433 -0.0050690514 0.20995064 0.012199628 0.115867786 -0.139255
-0.07214196 -0.087079994 0.2192616 -0.04995883 0.043089494 0.018470485 0.0400631 0.16634059
-0.040173247 -0.20261349 0.109848164 0.07114988 -0.26937848 -0.12366331 0.046828017 -0.23665097
0.061788503 -0.12719595 0.14756687 0.13877773 -0.20439969 0.18975097 0.12542859 -0.23268151
0.10418302 0.120941594 0.018350156 0.15621343 0.19162308 -0.12961279 0.121956505 0.12141316
-0.048492055 -0.16001482 0.07439224 -0.07813468 0.017870337 0.1918644 -0.0072717005 -0.20102118
-0.2119774 -0.19209622 0.12852354 -0.14211853 -0.12061634 0.1985039 -0.09219317 -0.18488364
-0.042430673 -0.2545734 0.14890197 0.14467445 -0.07010979 -0.06505735 -0.25183827 0.22080012
-0.015142128 -0.19852397 0.0963393 -0.1697824 -0.19247144 -0.02162257 0.21577786 -0.09456445
-0.07737999 0.25625923 -0.17949721 0.06668376 0.106875814 0.15917623 -0.24884841 -0.12400816
0.12614457 -0.055218585 -0.15609509 0.15468623 0.1570464 0.08656915 -0.069140464 -0.24480692
-0.12411387 -0.24035828 0.056244683 0.0438586 0.13714081 0.22443178 -0.03062735 0.10794269
0.20508702 -0.02970678 0.078531824 -0.040701766 -0.25262707 0.17882566 0.0040939646 -0.02873378
-0.066018246 0.16647461 -0.068639815 0.12802462 -0.060793478 0.13592556 0.012292049 0.1541039
0.14761356 0.21361442 -0.08862749 -0.043365683 -0.08732861 -0.03887486 0.15649255 -0.19072223
-0.042587645 -0.08487656 0.19097161 0.22102629 -0.15002759 0.09648174 -0.16506389 0.09358466
-0.13499573 -0.17454231 -0.063192464 -0.04381653 -0.046368215 -0.2478717 -0.0762778 -0.14074498
-0.2531918 0.061721325 0.2324673 0.2246469 -0.24259987 0.043243557 -0.10747291 0.052714325
-0.027554892 -0.13190116 0.15569094 -0.14483346 0.15699103 0.027754243 -0.18442017 -0.009586402
0.14475583 -0.19828913 -0.027313275 -0.10173386 -0.0848979 0.22154051 -0.07028418 0.17086527
-0.19701155 -0.24611206 0.24938342 0.22847599 -0.25238898 0.031168351 -0.0037583006 -0.14635175
0.20255981 -0.029780567 0.08849928 -0.050352953 -0.23491563 -0.21431252 0.15345395 0.16432124
0.25819686 0.012166458 -0.119934894 0.11767876 -0.092916586 -0.1942127 0.121618465 0.054067846
0.0060861153 0.044578914 0.043635134 0.09416818 -0.10352328 -0.086504824 0.21888882 -0.2009232
-0.2636239 -0.12891112 -0.19754708 -0.0045175646 0.20992325 0.012346821 -0.105135426 0.16621725
0.20198004 -0.139324 -0.044103123 0.21826895 -0.20071806 0.045478113 -0.12692277 0.08720153
-0.15262857 0.105626866 -0.026157033 -0.058299627 -0.09412178 -0.18956038 -0.0055546477 0.17172074
00000000: 25e4 403e 18cd 4d3e 3c36 fa3d 5940 b7bd
00000010: 8fe0 4cbd ae06 7e3e 02ff 2c3e 0705 c93d
00000020: 6e82 e6bd f27d 473e d61f 813e 52c2 78be
00000030: 7dfd ae3d ea44 65be 1837 ab3b 461c 32be
00000040: c4f4 58be 789f d0bd 7439 47be 2dc9 763e
00000050: df26 22be 98e5 0d3d 03d2 4bbe f0d1 45be
00000060: 7f0a 7abe 3436 063d 9b68 773c 0976 3e3e
00000070: e4a6 ae3d 93c6 013e b0fb 543e c311 49be
00000080: 8d0b 69be fd63 dabd 8f14 5cbe c914 1e3c
00000090: ef1e 22be e387 efbd dc3e 26be 6d23 19be
000000a0: d92b 3f3e 390f 2bbd 1184 673d 491a a6bb
000000b0: 4dfd 563e f3e0 473c 174c ed3d dd98 0ebe
000000c0: 2abf 93bd ff56 b2bd 1d86 603e a1a1 4cbd
000000d0: 9c7e 303d 6a4f 973c 3519 243d 3055 2a3e
000000e0: b48c 24bd e979 4fbe 13f8 e03d 07b7 913d
000000f0: faeb 89be 3143 fdbd bcce 3f3d a254 72be
00000100: f115 7d3d a83f 02be c51b 173e c01b 0e3e
00000110: 274e 51be 144e 423e 5a70 003e 1044 6ebe
00000120: e85d d53d 3ab0 f73d 1153 963c 6af6 1f3e
00000130: d738 443e 37b9 04be 55c4 f93d 76a7 f83d
00000140: 9b9f 46bd edda 23be f55a 983d 1305 a0bd
00000150: d064 923c 1a78 443e 7247 eebb 7fd8 4dbe
00000160: 9b10 59be dfb4 44be ad9b 033e 8587 11be
00000170: b305 f7bd 9b44 4b3e c6cf bcbd 2352 3dbe
00000180: c9cb 2dbd 7257 82be c279 183e 8a25 143e
00000190: b995 8fbd ca3c 85bd f2f0 80be 6d19 623e
000001a0: b016 78bc de49 4bbe 8a4d c53d 70db 2dbe
000001b0: 3c17 45be d121 b1bc dff4 5c3e 02ab c1bd
000001c0: 6679 9ebd 6934 833e 1ece 37be 7f91 883d
000001d0: b5e1 da3d 18ff 223e 1ed2 7ebe fdf7 fdbd
000001e0: 0b2c 013e e22c 62bd 64d7 1fbe 1166 1e3e
000001f0: c5d0 203e 2b4b b13d 8499 8dbd aaae 7abe
00000200: 6a2f febd 7b20 76be d360 663d 13a5 333d
00000210: a46e 0c3e 72d1 653e 35e6 fabc 0f11 dd3d
00000220: 5502 523e a25b f3bc 4bd5 a03d e5b6 26bd
00000230: 5658 81be 131e 373e aa26 863b 1b63 ebbc
00000240: 9334 87bd 5278 2a3e 0893 8cbd e318 033e
00000250: 9502 79bd 1230 0b3e 9764 493c 6acd 1d3e
00000260: 0228 173e bdbd 5a3e 5482 b5bd 37a0 31bd
00000270: 58d9 b2bd 3f3b 1fbd 953f 203e b04c 43be
00000280: 6270 2ebd c3d3 adbd 108e 433e b754 623e
00000290: d5a0 19be 3898 c53d 8206 29be 50a9 bf3d
000002a0: 523c 0abe 38bb 32be 0d6b 81bd f678 33bd
000002b0: 99ec 3dbd 14d2 7dbe 8937 9cbd 741f 10be
000002c0: 5ba2 81be 80cf 7c3d e80b 6e3e d609 663e
000002d0: 1a6c 78be 2820 313d c21a dcbd faea 573d
000002e0: ccba e1bc 1911 07be 726d 1f3e 394f 14be
000002f0: 42c2 203e de5c e33c a4d8 3cbe 4910 1dbc
00000300: df3a 143e 4e0c 4bbe 17c0 dfbc d859 d0bd
00000310: f3de adbd 84db 623e 27f1 8fbd 4ef7 2e3e
00000320: 65bd 49be cd04 7cbe 5e5e 7f3e 9cf5 693e
00000330: 2139 81be c554 ff3c d24d 76bb 3cdd 15be
00000340: d76b 4f3e 60f6 f3bc 1c3f b53d e63e 4ebd
00000350: b98d 70be be74 5bbe 0823 1d3e d443 283e
00000360: 6132 843e d355 473c 6da0 f5bd 9001 f13d
00000370: 0d4b bebd b2df 46be 1a13 f93d 3f76 5d3d
00000380: 096e c73b 6198 363d c1ba 323d 3fdb c03d
00000390: 0304 d4bd 7129 b1bd 6424 603e d0be 4dbe
000003a0: b6f9 86be 4701 04be c849 4abe 1408 94bb
000003b0: 1ff6 563e 524a 4a3c 3e51 d7bd db34 2a3e
000003c0: dbd3 4e3e f3aa 0ebe 7aa5 34bd e581 5f3e
000003d0: 0989 4dbe 4247 3a3d 0bf8 01be b796 b23d
000003e0: aa4a 1cbe e652 d83d 4647 d6bc 97cb 6ebd
000003f0: ebc2 c0bd 1e1c 42be c303 b6bb 90d7 2f3e

main.0.bias f4 [64]
-0.17251392 -0.013798332 0.004526451 -0.18288705 0.08674887 0.05312059 -0.16531052 -0.03456635
0.19815984 0.22491801 -0.2549739 0.101916835 0.011011513 -0.16778569 -0.23759954 0.28260177
0.06053941 -0.001682543 0.10089057 0.22717857 0.2401073 0.06907371 0.20222083 -0.14102481
0.03359518 0.18693447 0.13818578 -0.20659652 0.26602256 0.2256841 0.22779879 -0.04726196
-0.10740914 -0.10565853 0.1516102 -0.14356928 0.021870846 0.089861885 -0.008581425 -0.18861409
0.004628336 0.22849046 0.2253608 -0.018284185 -0.12677947 -0.16600287 0.17330252 -0.0022052794
-0.0021037092 -0.08582257 0.042119816 -0.283239 -0.018023888 -0.08911327 -0.15673198 -0.11094094
-0.167402 -0.03024319 0.04691604 -0.051792115 -0.097253986 0.07265992 -0.05775022 -0.074101284
00000000: 7da7 30be 6612 62bc a052 943b be46 3bbe
00000010: 64a9 b13d fa94 593d 2947 29be 7295 0dbd
00000020: 6aea 4a3e e850 663e f08b 82be c6b9 d03d
00000030: a269 343c 03d0 2bbe 4b4d 73be 2eb1 903e
00000040: 2cf8 773d c688 dcba b79f ce3d 80a1 683e
00000050: b0de 753e 8476 8d3d fa12 4f3e cf68 10be
00000060: 199b 093d c06b 3f3e 9380 0d3e 0a8e 53be
00000070: 1c34 883e bc19 673e 1644 693e c295 41bd
00000080: 53f9 dbbd 8063 d8bd b43f 1b3e d303 13be
00000090: 7d2a b33c 8209 b83d 1b99 0cbc 0d24 41be
000000a0: 4ca9 973b 67f9 693e fbc4 663e b7c8 95bc
000000b0: 7ad2 01be a8fc 29be 3776 313e 7386 10bb
000000c0: 62de 09bb bec3 afbd d485 2c3d b404 91be
000000d0: d5a6 93bc 0581 b6bd 597e 20be 0135 e3bd
000000e0: 6e6b 2bbe 91c0 f7bc 092b 403d f823 54bd
000000f0: 192d c7bd b9ce 943d 7f8b 6cbd 6ac2 97bd

main.3.weight f4 [64, 64]
0.03646625 -0.029831003 0.05977941 -0.07634636 -0.060467973 -0.022456737 -0.005544187 -0.010155653
0.05756867 0.073255286 0.073126644 0.08547863 0.022384994 0.06445282 -0.0060472237 -0.0403779
0.09986092 0.06548414 -0.10293351 0.040507395 -0.060097925 0.09383323 -0.034527685 0.026497133
0.013202216 0.022532137 -0.01675204 0.08661685 -0.07658654 0.0023678255 -0.057873636 0.057604544
0.060772326 0.06334187 -0.07854725 -0.10377222 -0.049369544 -0.08460761 0.03063121 0.065844774
0.089994185 0.0048170714 -0.061403316 -0.022469679 0.011955436 -0.010308768 0.10129288 0.06403604
-0.08145612 -0.060533587 0.0345223 0.008610217 -0.09592231 -0.010259929 0.018147074 0.005939829
0.06827676 -0.0023315349 0.042785123 -0.061017983 -0.087072134 0.048715208 -0.062419206 -0.018243885
0.06353438 0.012654416 -0.06638204 -0.019407107 0.04982588 0.022571394 0.009334505 0.004938101
-0.046366915 -0.009909368 -0.01152012 0.14223053 -0.028119922 -0.0535751 -0.04377571 -0.025365617
0.10054833 0.07186693 0.0041127764 -0.0491342 0.074107744 0.0980344 0.095367625 -0.047098584
-0.0071851797 -0.052660026 -0.06237329 0.02734121 0.061186876 -0.04758102 0.103572726 -0.0750288
-0.118188925 -0.01763 0.005380418 -0.020228816 0.013012026 -0.054090723 -0.057977572 0.020722203
0.035387572 0.10007443 0.046221297 0.07514604 0.050714865 -0.050525684 0.04202225 0.04484163
-0.053563386 -0.056179248 0.11259318 0.00274247 0.07333639 0.02477447 0.05174937 -0.04929228
0.07950875 0.086039096 0.104564935 -0.04073746 -0.005785381 0.030895453 0.06387797 0.023051297
-0.02348537 -0.013045845 -0.07023232 -0.047627386 0.02165647 -0.029342182 -0.041990165 -0.0032195589
0.06531482 0.017049799 0.0797111 0.053475708 0.023922788 0.112144515 0.03928648 0.017135452
0.082044676 0.11614981 -0.054289673 -0.024475373 -0.023282262 0.03658005 0.092437275 -0.061335552
-0.005937239 0.07802848 -0.047973957 -0.088857606 0.0098080635 0.032065745 0.050537877 -0.0006335379
-0.020542761 0.02269756 -0.017596422 -0.07792041 -0.05870401 -0.042875778 -0.022819236 0.056716565
0.045548182 0.003820829 -0.0793794 -0.006636732 -0.008495787 0.020888343 0.0707329 -0.0344948
0.02460019 0.004876161 0.013066415 -0.016339602 0.09197448 -0.02358459 -0.05993292 -0.0846797
0.0068158973 0.05592802 0.09258432 -0.048986565 -0.07241836 0.024188166 0.019668708 0.050926134
0.07708324 0.08649363 -0.011773034 0.028908486 -0.036807597 0.029582245 -0.043568164 -0.0362669
0.072670326 0.038864136 -0.011447969 0.061579645 -0.019007297 0.071603015 -0.012706464 -0.0014190862
0.05456336 0.05609148 0.04344415 -0.092910245 -0.057941925 -0.029903108 -0.0063202675 -0.037261546
-0.025990838 0.01266232 -0.08275019 -0.021908255 0.051420677 0.068990976 0.056761555 0.10681481
0.07112975 0.055523034 0.026363106 -0.046900224 -0.008720282 0.025261771 -0.055663105 0.111863494
-0.04622737 -0.14002793 -0.030687682 -0.03933345 -0.013782329 -0.046363 -0.050352644 0.04006702
0.020101134 -0.08934842 0.03669737 0.03154573 -0.060467184 -0.010412533 0.026483523 -0.07314667
0.011634215 0.11130281 0.034200873 -0.058094624 0.050180115 -0.054536525 0.093220174 0.013836029
00000000: a25d 153d 2660 f4bc 41db 743d 7b5b 9cbd
00000010: 44ad 77bd 31f7 b7bc 03ac b5bb e563 26bc
00000020: 20cd 6b3d de06 963d 6cc3 953d 6c0f af3d
00000030: bc60 b73c d7ff 833d ca27 c6bb 4c63 25bd
00000040: e283 cc3d 8c1c 863d cece d2bd 15eb 253d
00000050: 3e29 76bd a32b c03d e76c 0dbd 8410 d93c
00000060: 1b4e 583c 5195 b83c 933b 89bc 2d64 b13d
00000070: 67d9 9cbd 852d 1b3b e80c 6dbd bef2 6b3d
00000080: 67ec 783d 62b9 813d 61dd a0bd 8886 d4bd
00000090: b837 4abd c146 adbd 4eee fa3c a0d9 863d
000000a0: df4e b83d 86d8 9d3b 0b82 7bbd 5512 b8bc
000000b0: bce0 433c 1be6 28bc a472 cf3d 5425 833d
000000c0: 77d2 a6bd 11f2 77bd 4167 0d3d de11 0d3c
000000d0: eb72 c4bd 4319 28bc 2ca9 943c e6a2 c23b
000000e0: b0d4 8b3d aacc 18bb 743f 2f3d feed 79bd
000000f0: e052 b2bd 9989 473d 48ab 7fbd 3374 95bc
00000100: 501e 823d 7854 4f3c 4ff3 87bd a7fb 9ebc
00000110: 3916 4c3d a5e7 b83c c0ef 183c cbcf a13b
00000120: 3ceb 3dbd e75a 22bc e3be 3cbc e1a4 113e
00000130: c05b e6bc 9071 5bbd 294e 33bd 8ecb cfbc
00000140: 48ec cd3d f82e 933d 78c4 863b f140 49bd
00000150: cdc5 973d 42c6 c83d 1a50 c33d 72ea 40bd
00000160: a871 ebbb 0ab2 57bd 237b 7fbd acfa df3c
00000170: 179f 7a3d 51e4 42bd f01d d43d b3a8 99bd
00000180: 090d f2bd ca6c 90bc 384e b03b e7b6 a5bc
00000190: 6530 553c 3c8e 5dbd e479 6dbd 9cc1 a93c
000001a0: 8ff2 103d d3f3 cc3d 8b52 3d3d 2be6 993d
000001b0: 64ba 4f3d 05f4 4ebd 861f 2c3d dbab 373d
000001c0: 4865 5bbd 361c 66bd 4197 e63d 03bb 333b
000001d0: 6431 963d d4f3 ca3c 26f7 533d b4e6 49bd
000001e0: 7cd5 a23d 4435 b03d 2426 d63d 53dc 26bd
000001f0: 4b93 bdbb 7618 fd3c 74d2 823d 13d6 bc3c
00000200: 6464 c0bc 3dbe 55bc f6d5 8fbd ef14 43bd
00000210: e968 b13c 045f f0bc e1fd 2bbd 3cff 52bb
00000220: c7c3 853d 05ac 8b3c 933f a33d 5809 5b3d
00000230: b9f9 c33c 06ac e53d dcea 203d a65f 8c3c
00000240: 0a07 a83d f4df ed3d d95e 5ebd 9480 c8bc
00000250: 71ba bebc f6d4 153d c14f bd3d fd3a 7bbd
00000260: 2c8d c2bb 65cd 9f3d 5780 44bd fafa b5bd
00000270: 00b2 203c 5f57 033d ce00 4f3d 0214 26ba
00000280: 4b49 a8bc 3cf0 b93c 5f26 90bc bc94 9fbd
00000290: 9e73 70bd 839e 2fbd 68ef babc a14f 683d
000002a0: bb90 3a3d e066 7a3b ab91 a2bd f178 d9bb
000002b0: ea31 0bbc 081e ab3c 69dc 903d 6b4a 0dbd
000002c0: 5686 c93c 34c8 9f3b 8414 563c a1da 85bc
000002d0: 1e5d bc3d 7834 c1bc 397c 75bd 8d6c adbd
000002e0: e457 df3b c814 653d d99c bd3d 23a6 48bd
000002f0: 1450 94bd 4326 c63c 4520 a13c ec97 503d
00000300: d1dd 9d3d 9323 b13d afe3 40bc 7dd1 ec3c
00000310: 90c3 16bd 7756 f23c 8874 32bd 9a8c 14bd
00000320: 2ed4 943d 0030 1f3d 4390 3bbc f03a 7c3d
00000330: 31b5 9bbc 9aa4 923d c62e 50bc a200 baba
00000340: d47d 5f3d 2ec0 653d 7ef2 313d ba47 bebd
00000350: 8354 6dbd 5df7 f4bc 3f1a cfbb 909f 18bd
00000360: bdea d4bc 9f75 4f3c ee78 a9bd f178 b3bc
00000370: 7d9e 523d 244b 8d3d ce7e 683d b9c1 da3d
00000380: 79ac 913d 1f6c 633d 71f7 d73c 731a 40bd
00000390: 84df 0ebc c6f1 ce3c fffe 63bd b018 e53d
000003a0: e958 3dbd 7b63 0fbe bc64 fbbc 1d1c 21bd
000003b0: 47cf 61bc 21e7 3dbd 933e 4ebd 511d 243d
000003c0: 22ab a43c 4efc b6bd fb4f 163d 1836 013d
000003d0: 70ac 77bd 5499 2abc f9f3 d83c eccd 95bd
000003e0: 6f9d 3e3c baf2 e33d 3716 0c3d a1f4 6dbd
000003f0: aa89 4d3d b161 5fbd 38ea be3d 83b0 623c

main.3.bias f4 [64]
0.07391355 -0.10283057 -0.053762395 0.07836098 0.08442256 -0.05470407 0.038432848 -0.096160114
0.045538787 0.008128356 -0.1071511 -0.039776877 0.013771253 -0.047822088 0.010112179 -0.046873026
0.068042025 -0.10272162 -0.076602325 0.012747363 -0.021862986 -0.06933695 0.006635452 0.05089059
0.038488846 -0.06878268 0.050215457 -0.054255757 -0.091940254 0.084602505 0.0834116 -0.039576843
0.013891024 0.04119988 0.03860904 -0.07968458 0.08309818 0.119472936 -0.023259714 -0.11256687
-0.034865547 -0.0037836432 -0.015674796 0.09385392 0.08331052 0.045749974 -0.00025236316 -0.09269263
0.077491924 -0.049550585 0.0293559 -0.04342196 -0.060606685 -0.016605727 -0.040626954 0.08280792
-0.009410443 0.07204902 -0.118503995 -0.023357159 -0.09138062 0.051492237 -0.03241908 -0.10383704
00000000: fd5f 973d d598 d2bd f535 5cbd b97b a03d
00000010: bce5 ac3d 6011 60bd c36b 1d3d 98ef c4bd
00000020: e186 3a3d cc2c 053c 0972 dbbd 14ed 22bd
00000030: d2a0 613c 18e1 43bd 8ead 253c eefd 3fbd
00000040: 9e59 8b3d b65f d2bd aee1 9cbd 51da 503c
00000050: 011a b3bc 8800 8ebd 356e d93b a772 503d
00000060: 7ba6 1d3d efdd 8cbd b9ae 4d3d 493b 5ebd
00000070: 2c4b bcbd 1444 ad3d b3d3 aa3d 541b 22bd
00000080: 2d97 633c 35c1 283d 8324 1e3d ab31 a3bd
00000090: 612f aa3d 3aae f43d 288b bebc 7689 e6bd
000000a0: 2dcf 0ebd 00f7 77bb 6e68 80bc 7c36 c03d
000000b0: b59e aa3d 5364 3b3d 9c4f 84b9 a2d5 bdbd
000000c0: 16b4 9e3d 8ef5 4abd c97b f03c 3adb 31bd
000000d0: b73e 78bd bc08 88bc 7368 26bd 3397 a93d
000000e0: 422e 1abc 708e 933d 39b2 f2bd 8357 bfbc
000000f0: c325 bbbd 86e9 523d dfc9 04bd 84a8 d4bd

main.6.weight f4 [64, 64]
0.07443394 0.0035149837 -0.015739221 -0.06910342 0.03387222 0.09165403 -0.107510656 0.079142176
-0.03156196 0.007035541 -0.09297956 -0.03866059 -0.079347655 0.03989766 0.006782332 0.017122196
-0.10197025 0.014222162 -0.0037554323 -0.09671766 0.004943893 0.024409415 -0.12520719 0.034880392
-0.044531647 -0.086962484 -0.067293435 0.12092451 0.1018987 0.13057837 0.069349736 0.042340297
-0.07551454 0.0053040227 0.05696898 0.06794176 -0.031450137 0.11876302 -0.03648421 0.12764765
-0.040470965 -0.12375424 -0.05555524 -0.057645656 -0.035807654 -0.094761565 -0.036450088 0.115306586
0.119679436 -0.0036943275 0.007979958 -0.06420763 -0.022975896 -0.041601516 -0.07871704 -0.04937442
0.027076134 -0.04469796 0.055816006 -0.105464816 -0.081436984 0.05539815 0.10799448 0.082215115
-0.07900493 0.09939768 0.025698876 0.11696353 0.08908645 -0.039320283 -0.001817355 0.0072932844
-0.012462248 0.0018090195 -0.087468415 0.028404344 -0.11792767 0.06414725 -0.10443714 -0.03050083
-0.08465488 -0.093399666 0.086286224 -0.0014361887 0.0399785 0.074025095 0.022854917 -0.0015390364
-0.083236225 0.04323069 -0.07427932 -0.03671371 -0.07093297 -0.011388458 -0.06269423 -0.0014631693
0.0623122 -0.0119961705 0.042178147 -0.101049826 -0.033444136 -0.102381356 -0.014458863 0.08823232
0.0809092 0.012877885 0.03676481 -0.008961812 0.06655941 0.01866132 -0.08297134 -0.030766677
-0.004907197 0.051042203 0.0035089904 -0.031500902 0.07568022 0.014038618 0.036132287 0.08539106
0.034649897 -0.044388376 -0.022871355 -0.060538143 0.04756409 0.10795187 0.104223415 0.068144046
-0.018983066 -0.047310274 -0.033179075 0.10003096 -0.05931976 0.011764056 -0.045594644 0.058663227
-0.026373439 -0.021687092 0.05569563 0.08762646 -0.0057720835 0.08182696 0.07658571 0.019485826
0.033132385 0.0035074954 0.012441551 -0.13279064 -0.0759291 -0.12580909 0.0578717 0.05434765
0.08461301 -0.04440272 -0.06255423 0.01936396 -0.0037480544 0.13499421 0.13933559 -0.08838787
-0.009477875 0.11703141 -0.06828927 0.07309822 -0.04640588 -0.024661684 0.05030809 0.028123567
0.08856286 -0.06779344 0.03002151 -0.048455358 0.0098962365 0.08958285 -0.07558288 -0.03521839
-0.050508477 0.097669646 0.037215378 -0.0722126 -0.100482844 -0.03387035 0.0024710605 -0.030988174
0.022426305 0.090342686 0.08258359 0.056338836 0.0757621 0.0029749712 0.09057456 0.021327086
0.027930979 0.085010715 -0.08957041 -0.09696155 -0.05894699 -0.05996651 -0.06513704 -0.01593753
-0.013126236 -0.10219648 0.10573878 0.078625485 0.072734565 0.010275642 -0.06697872 0.104250915
-0.03899259 0.011002385 -0.1103322 -0.094310075 0.072801225 0.106471576 -0.08751597 0.069700845
0.023410248 0.01334589 0.0461026 -0.02102066 0.033275366 -0.01275402 0.08438055 0.11871644
-0.021238279 0.12730996 -0.06554192 -0.05246956 0.0101350965 -0.0913363 0.05995945 0.029081933
0.030074516 0.08841437 -0.03351443 0.052576873 -0.0061867815 0.07411042 0.0137751745 0.039513417
-0.0060750167 -0.066598736 -0.059579432 -0.09192432 -0.0018455874 -0.055947628 0.033517137 0.05246388
0.009749196 -0.025138592 0.06440333 -0.05433225 0.04165221 -0.050981678 0.026628949 -0.04445048
00000000: d270 983d a45b 663b 8aef 80bc 1886 8dbd
00000010: 99bd 0a3d 1cb5 bb3d 8c2e dcbd 4b15 a23d
00000020: 1d47 01bd 658a e63b 116c bebd 915a 1ebd
00000030: 0681 a2bd bb6b 233d 533e de3b d943 8c3c
00000040: c7d5 d0bd 1204 693c b31d 76bb e913 c6bd
00000050: 6100 a23b 41f6 c73c 5036 00be bede 0e3d
00000060: d166 36bd 6319 b2bd 24d1 89bd 45a7 f73d
00000070: 44b0 d03d 56b6 053e 3c07 8e3d 056d 2d3d
00000080: 5ea7 9abd 5ecd ad3b 4e58 693d 0d25 8b3d
00000090: dcd1 00bd 073a f33d 7870 15bd 11b6 023e
000000a0: e2c4 25bd dd72 fdbd e48d 63bd da1d 6cbd
000000b0: 0cab 12bd 5a12 c2bd b04c 15bd dc25 ec3d
000000c0: 7e1a f53d 881c 72bb 5fbe 023c 4a7f 83bd
000000d0: f237 bcbc 5a66 2abd 6636 a1bd d53c 4abd
000000e0: c5ce dd3c 3515 37bd 539f 643d f0fd d7bd
000000f0: 6fc8 a6bd 2ce9 623d 362c dd3d 6660 a83d
00000100: 56cd a1bd 0391 cb3d 7386 d23c 938a ef3d
00000110: f572 b63d 4e0e 21bd 5134 eeba 81fc ee3b
00000120: 752e 4cbc 9f1c ed3a a422 b3bd 3ab0 e83c
00000130: 1084 f1bd a25f 833d 24e3 d5bd e0dc f9bc
00000140: 8a5f adbd 5348 bfbd d5b6 b03d 7f3e bcba
00000150: 7fc0 233d 789a 973d 3c3a bb3c 7eb9 c9ba
00000160: c177 aabd aa12 313d c21f 98bd 1d61 16bd
00000170: 4e45 91bd a896 3abc d565 80bd d1c7 bfba
00000180: 143b 7f3d 968b 44bc fec2 2c3d 36f3 cebd
00000190: b8fc 08bd 51ad d1bd dee4 6cbc 26b3 b43d
000001a0: b9b3 a53d c4fd 523c b396 163d 90d4 12bc
000001b0: 4d50 883d a0df 983c e1ec a9bd 660a fcbc
000001c0: 8dcc a0bb a111 513d 17f7 653b 1707 01bd
000001d0: 3bfe 9a3d 3b02 663c 73ff 133d 82e1 ae3d
000001e0: 0ded 0d3d 96d0 35bd b55c bbbc d8f6 77bd
000001f0: 90d2 423d df15 dd3d 1673 d53d 1b8f 8b3d
00000200: 6082 9bbc 6bc8 41bd c8e6 07bd 08dd cc3d
00000210: 47f9 72bd 07be 403c 73c1 3abd da48 703d
00000220: 1c0d d8bc 21a9 b1bc 1a21 643d 8075 b33d
00000230: bf23 bdbb e594 a73d f8d8 9c3d bda0 9f3c
00000240: d3b5 073d 02de 653b a6d7 4b3c 45fa 07be
00000250: b780 9bbd 19d4 00be e00a 6d3d a49b 5e3d
00000260: 9649 ad3d a0df 35bd 6f1c 80bd 2ba1 9e3c
00000270: eba1 75bb ec3b 0a3e fdad 0e3e b304 b5bd
00000280: 1749 1bbc 2aae ef3d 3fdb 8bbd 85b4 953d
00000290: 1814 3ebd 4d07 cabc db0f 4e3d 6563 e63c
000002a0: 7260 b53d 49d7 8abd abef f53c 2079 46bd
000002b0: d323 223c 3777 b73d 32cb 9abd 2941 10bd
000002c0: fae1 4ebd 0607 c83d 276f 183d 33e4 93bd
000002d0: f3c9 cdbd a3bb 0abd 84f1 213b e9da fdbc
000002e0: 5fb7 b73c 9605 b93d 9621 a93d 8dc3 663d
000002f0: 2929 9b3d bcf7 423b 287f b93d 24b6 ae3c
00000300: 82cf e43c 191a ae3d b170 b7bd c793 c6bd
00000310: 6672 71bd 719f 75bd 9266 85bd 6c8f 82bc
00000320: 6d0f 57bc 634c d1bd 938d d83d 6606 a13d
00000330: dcf5 943d 2b5b 283c 242c 89bd 8181 d53d
00000340: b2b6 1fbd 5943 343c d9f5 e1bd a425 c1bd
00000350: cf18 953d c50d da3d 933b b3bd 51bf 8e3d
00000360: d9c6 bf3c b8a8 5a3c 14d6 3c3d 8533 acbc
00000370: c04b 083d 3df6 50bc b6cf ac3d 9b21 f33d
00000380: e6fb adbc 8b5d 023e d83a 86bd 52ea 56bd
00000390: ad0d 263c 870e bbbd 0a98 753d 3c3d ee3c
000003a0: d55e f63c 9812 b53d 6d46 09bd d95a 573d
000003b0: 7cba cabb 34c7 973d 45b1 613c d2d8 213d
000003c0: ef10 c7bb eb64 88bd 9009 74bd d142 bcbd
000003d0: a3e7 f1ba 5729 65bd 4449 093d 5ee4 563d
000003e0: 17bb 1f3c 73ef cdbc e5e5 833d 7e8b 5ebd
000003f0: 829b 2a3d 2ad2 50bd f424 da3c b511 36bd

main.6.bias f4 [64]
-0.01944741 -0.023421979 -0.07108743 -0.043261003 -0.019212484 -0.018209426 0.10755545 0.041083075
0.036947183 0.08259811 -0.052058324 -0.03640867 -0.04833761 -0.028233746 -0.046005033 -0.071865596
-0.09874464 0.054120217 -0.026411107 -0.027307784 -0.006012548 -0.03345871 -0.10213216 0.050285503
-0.04440412 -0.0010943627 -0.046842024 -0.08964151 -0.10425722 -0.087998405 -0.08902078 -0.080647394
-0.027755965 -0.06905587 0.10992021 0.048396807 0.016990723 -0.089631215 0.073366225 -0.06804695
0.026620891 -0.12998307 -0.08826611 0.07661065 0.014435021 -0.101025894 -0.069896035 0.06271818
0.026083056 0.04888034 -0.07213095 0.06490083 -0.0706062 -0.011263338 -0.05335934 -0.004650049
-0.045042325 -0.023525625 0.061143134 -0.094574764 0.12548788 0.101164185 -0.025410347 -0.0726189
00000000: 2d50 9fbc 73df bfbc 4996 91bd 7332 31bd
00000010: 8063 9dbc ef2b 95bc 0846 dc3d ba46 283d
00000020: ee55 173d 3329 a93d 1c3b 55bd 4221 15bd
00000030: a8fd 45bd 754a e7bc c66f 3cbd 452e 93bd
00000040: a13a cabd 29ad 5d3d 1b5c d8bc 93b4 dfbc
00000050: e904 c5bb 000c 09bd aa2a d1bd 2cf8 4d3d
00000060: 18e1 35bd b870 8fba 6cdd 3fbd f895 b7bd
00000070: cf84 d5bd 8238 b4bd 8750 b6bd 762a a5bd
00000080: 7a60 e3bc 2a6d 8dbd d91d e13d bb3b 463d
00000090: 2130 8b3c 9290 b7bd 0841 963d 335c 8bbd
000000a0: 0e14 da3c 481a 05be ddc4 b4bd 0be6 9c3d
000000b0: de80 6c3c aae6 cebd a725 8fbd 6472 803d
000000c0: 22ac d53c c036 483d 64b9 93bd baea 843d
000000d0: fc99 90bd dd89 38bc 538f 5abd 705f 98bb
000000e0: 4d7e 38bd d0b8 c0bc 3971 7a3d 6ab0 c1bd
000000f0: e57f 003e 2b2f cf3d 5c29 d0bc 38b9 94bd

main.9.weight f4 [64, 64]
0.029032491 0.017151643 -0.14265 -0.034884498 -0.041487478 -0.00048827956 -0.02635667 0.043651022
-0.027230544 -0.08467315 -0.048811167 -0.0154535165 0.027357124 0.005402757 -0.0017579731 0.060102455
-0.1400989 0.057020012 -0.14504363 0.052764166 0.08249177 -0.034319505 -0.020914696 -0.0074000754
-0.119130775 -0.044386033 0.057534028 -0.085561946 0.014870428 -0.050026037 -0.09487623 0.038056113
-0.05270636 -0.016083999 0.080523625 -0.07525177 0.03709749 -0.030672777 0.024420032 -0.006005922
0.038564302 0.058304276 -0.037770767 -0.049019895 -0.049111407 0.05427146 0.023393186 0.070371225
-0.014505843 0.014658251 0.0042809215 -0.10495971 -0.04116682 0.047469154 0.06919366 -0.009798191
0.008619044 0.09065481 0.10566223 -0.059461597 -0.03545653 0.02336882 -0.0586644 -0.10176641
-0.02816335 -0.081580445 -0.09418861 0.12257758 -0.057175763 0.0045752977 -0.045190647 0.065150134
-0.017641367 -0.07217539 0.02948697 0.06208465 -0.02810897 0.09801378 0.01646669 0.017519305
0.008860166 -0.05003875 0.10294607 0.106624365 0.04689875 -0.039342802 0.10167533 0.047140867
0.021397624 -0.07352366 -0.06224825 -0.020998217 0.012482604 -0.1014111 -0.024213886 -0.035246894
-0.08733528 0.07107829 -0.056962844 0.07019939 0.0079741 -0.075019315 -0.010480091 -0.025520118
-0.0023150449 0.09667864 0.06806084 -0.09250506 0.07930373 0.0073776795 -0.012701284 -0.075553015
-0.082039714 0.04540635 -0.03446075 -0.00070451834 0.097287506 -0.07682301 0.10517144 -0.012274536
0.06874118 -0.108905844 -0.004503086 -0.06060245 -0.045533303 -0.010932474 0.07316654 -0.06382408
-0.01744046 0.08866454 0.10338813 0.007698495 -0.08051529 0.13680284 -0.014098426 -0.042449463
0.062979 -0.025560996 0.07075322 0.03923749 -0.032268275 0.107390106 0.107189566 0.034626685
-0.10436829 -0.033387005 0.074605756 -0.13804106 -0.022751395 0.006007554 0.044174965 -0.09270923
-0.0027497553 -0.055436384 0.059226103 -0.00076223083 -0.09580471 -0.027830718 -0.091923796 0.013324384
0.062378265 0.0034501876 0.10358186 0.04910514 -0.08289402 0.093324594 -0.051700383 0.06271776
0.060908463 -0.06273382 -0.044860255 0.07776423 0.0799166 -0.09557741 -0.10072358 0.07088279
-0.0029588235 -0.082700476 0.022563528 -0.09933527 0.09810553 0.03338744 0.049578864 -0.042576905
-0.03127522 -0.09849966 0.0121719865 -0.050210133 -0.024427805 0.040776417 -0.025491513 0.029366208
0.027179204 -0.035377875 -0.1312181 -0.08815049 -0.08966007 -0.025087694 0.13162406 0.012029424
-0.10614209 -0.09547879 -0.06618581 0.05139256 0.053406436 -0.13019617 0.0070794118 0.059641417
-0.018930608 -0.045715604 0.031836074 -0.12961258 -0.024155617 0.036497273 0.019905092 0.0634421
-0.049639255 0.003648511 0.0235629 -0.048727464 -0.089809954 0.035183374 0.02944825 0.09668859
0.04766152 0.07867659 -0.020425433 -0.07464375 0.11305918 0.018730173 -0.007512072 -0.06685857
0.09579698 0.043916527 0.054129645 -0.060607377 0.13052818 -0.028866207 -0.09994213 0.04895988
0.037053905 0.02241043 0.04411635 -0.063434385 -0.05353617 -0.011975726 0.055384625 0.008266222
-0.11638066 0.06845397 -0.043434225 0.021533027 0.11094078 0.08084735 0.03423115 0.021208815
00000000: 8cd5 ed3c 9a81 8c3c d712 12be 0ce3 0ebd
00000010: c6ee 29bd c6ff ffb9 f1e9 d7bc 6acb 323d
00000020: 9712 dfbc 1e69 adbd 38ee 47bd bf30 7dbc
00000030: 0c1c e03c 9c09 b13b ca6b e6ba fe2d 763d
00000040: 1676 0fbe d18d 693d 5186 14be 3d1f 583d
00000050: 72f1 a83d 9c92 0cbd 4c55 abbc 557c f2bb
00000060: d6fa f3bd 21ce 35bd cda8 6b3d 1a3b afbd
00000070: 18a3 733c 1ae8 4cbd 784e c2bd bae0 1b3d
00000080: a0e2 57bd 97c2 83bc 92e9 a43d 9a1d 9abd
00000090: 8af3 173d 7a45 fbbc 850c c83c 53cd c4bb
000000a0: 9af5 1d3d 77d0 6e3d 85b5 1abd 16c9 48bd
000000b0: 0b29 49bd c04b 5e3d 11a3 bf3c ca1e 903d
000000c0: eaa9 6dbc 2929 703c f946 8c3b 1ef5 d6bd
000000d0: 8a9e 28bd 046f 423d 68b5 8d3d 9788 20bc
000000e0: e436 0d3c 3ba9 b93d 7065 d83d 018e 73bd
000000f0: de3a 11bd f86f bf3c 154a 70bd e86a d0bd
00000100: d3b6 e6bc a613 a7bd f5e5 c0bd f409 fb3d
00000110: 2231 6abd 61ec 953b d419 39bd 6f6d 853d
00000120: a184 90bc b1d0 93bd a88e f13c 794c 7e3d
00000130: c844 e6bc 73bb c83d 27e5 863c a584 8f3c
00000140: 3b2a 113c 6ff5 4cbd 64d5 d23d e05d da3d
00000150: e718 403d eb25 21bd 283b d03d c816 413d
00000160: 124a af3c 9393 96bd 05f8 7ebd 7404 acbc
00000170: d683 4c3c 9fb0 cfbd 335c c6bc 0c5f 10bd
00000180: d7dc b2bd 7f91 913d df51 69bd b3c4 8f3d
00000190: cda5 023c baa3 99bd b0b4 2bbc 910f d1bc
000001a0: 02b8 17bb 73ff c53d 7b63 8b3d 4b73 bdbd
000001b0: fe69 a23d 76c0 f13b 0c19 50bc 8abb 9abd
000001c0: 7004 a8bd 02fc 393d b726 0dbd 6daf 38ba
000001d0: ac3e c73d 6255 9dbd 2064 d73d 231b 49bc
000001e0: 2dc8 8c3d 070a dfbd a08e 93bb 463a 78bd
000001f0: 2181 3abd 1f1e 33bc 57d8 953d 33b6 82bd
00000200: 4cdf 8ebc c195 b53d 28bd d33d a843 fc3b
00000210: 33e5 a4bd 0b16 0c3e 16fd 66bc 7ddf 2dbd
00000220: 22fb 803d 4b65 d1bc 10e7 903d 7eb7 203d
00000230: bd2b 04bd 58ef db3d 3486 db3d b6d4 0d3d
00000240: 0bbf d5bd d0c0 08bd e7ca 983d a35a 0dbe
00000250: 2261 babc 04db c43b cff0 343d 56de bdbd
00000260: 3d35 34bb 4311 63bd 1297 723d 72d0 47ba
00000270: 4335 c4bd 3ffd e3bc 8b42 bcbd 844e 5a3c
00000280: 5a80 7f3d 8b1c 623b ba22 d43d 7922 493d
00000290: 57c4 a9bd f720 bf3d c8c3 53bd 2b72 803d
000002a0: 277b 793d 977a 80bd 63bf 37bd da42 9f3d
000002b0: 50ab a33d 17be c3bd 2a48 cebd ff2a 913d
000002c0: d2e8 41bb de5e a9bd 26d7 b83c 4a70 cbbd
000002d0: 8deb c83d 45c1 083d 3513 4b3d 1f65 2ebd
000002e0: 721a 00bd 31ba c9bd 036d 473c 24a9 4dbd
000002f0: d21c c8bc 2c05 273d 94d3 d0bc 6791 f03c
00000300: eca6 de3c 64e8 10bd 0a5e 06be 3e88 b4bd
00000310: b39f b7bd b584 cdbc 75c8 063e 1017 453c
00000320: 0661 d9bd 628a c3bd 6d8c 87bd 0181 523d
00000330: b5c0 5a3d 2552 05be 69fa e73b 8f4a 743d
00000340: 5d14 9bbc 4940 3bbd 8b66 023d 29b9 04be
00000350: 00e2 c5bc 2a7e 153d 0110 a33c efed 813d
00000360: 8852 4bbd db1b 6f3b fc06 c13c 7396 47bd
00000370: 48ee b7bd 711c 103d 753d f13c ab04 c63d
00000380: ba38 433d 3121 a13d 3d53 a7bc d3de 98bd
00000390: 928b e73d 0570 993c d427 f6bb 25ed 88bd
000003a0: 3531 c43d d1e1 333d 0cb7 5d3d 713f 78bd
000003b0: 2ea9 053e d378 ecbc 76ae ccbd 288a 483d
000003c0: d6c5 173d 1496 b73c 59b3 343d e3e9 81bd
000003d0: be48 5bbd d635 44bc fdda 623d 0c6f 073c
000003e0: fc58 eebd 9831 8c3d 16e8 31bd 0866 b03c
000003f0: eb34 e33d 4c93 a53d f635 0c3d 1cbe ad3c

main.9.bias f4 [64]
-0.043374587 0.012077104 -0.005808643 -0.008878332 -0.043450955 -0.07365806 -0.047907718 -0.051167138
0.027038962 0.016417935 -0.06452502 0.052151315 0.013184271 -0.0034737529 -0.041179385 0.023139138
0.0634933 0.014625563 -0.023055656 -0.029520078 0.020475902 -0.017490989 -0.019072684 0.013956701
-0.06619703 0.04811691 -0.0192174 0.06962094 -0.04797845 -0.039783306 2.239515e-05 0.015542529
-0.024236359 -0.087607294 0.016334677 0.04593088 0.010930462 0.033533625 -0.011068244 0.07422924
0.069801114 -0.017883893 -0.05509398 0.045058273 0.019559406 -0.008966153 -0.017387409 -0.033829022
-0.04159531 -0.008500324 0.015003686 -0.0061972067 0.066231325 -0.055265553 -0.0150625715 0.019758588
-0.039272122 0.08033667 -0.03405602 0.039914757 0.06333854 -0.03838709 -0.051887766 0.07216078
00000000: 8da9 31bd 0cdf 453c 6e56 bebb 6c76 11bc
00000010: a1f9 31bd 09da 96bd e23a 44bd a294 51bd
00000020: d080 dd3c e87e 863c b225 84bd 9e9c 553d
00000030: d702 583c e7a7 63bb b7ab 28bd 4a8e bd3c
00000040: c608 823d 0fa0 6f3c 37df bcbc 17d4 f1bc
00000050: 14bd a73c 4349 8fbc 513e 9cbc a6aa 643c
00000060: 4f92 87bd 3d16 453d cf6d 9dbc 6c95 8e3d
00000070: 0d85 44bd d2f3 22bd 38dd bb37 17a6 7e3c
00000080: 548b c6bc 746b b3bd 4dd0 853c 0522 3c3d
00000090: ae15 333c 8e5a 093d 9557 35bc 8005 983d
000000a0: e3f3 8e3d 3e81 92bc 3aaa 61bd 068f 383d
000000b0: 0c3b a03c c5e6 12bc 0a70 8ebc 4d90 0abd
000000c0: d85f 2abd f144 0bbc 05d2 753c f011 cbbb
000000d0: 4aa4 873d 225e 62bd 01c9 76bc c3dc a13c
000000e0: cedb 20bd 8d87 a43d 537e 0bbd a87d 233d
000000f0: a3b7 813d c83b 1dbd 4488 54bd 08c9 933d
