models/VANE_node_pred_n2v_model/Decoder_epoch_13.pth (torch, 3039 bytes, 6 tensors)

decoder.0.weight f4 [8, 8]
00000000: 8368 393e def3 1ebe 26fb 86be 05b2 c0bd
00000010: ab3c 0b3e 7ae7 7cbd 6246 fdbd 852b adbd
00000020: 189c bbbd 0d07 003d f1d0 c83c 644b 9bbe
00000030: d141 a0be e9e4 11be 6c9c 443e c699 22be
00000040: fd82 783e bf67 9cbe 3a1c 9d3e 8c2d 8b3e
00000050: e447 9bbe 0ac3 e7bd 94a7 923e 006e adbe
00000060: be80 85be 8863 27bd 73cf 7e3e b6f9 e33d
00000070: 6d7a 753e 2150 a53e ad7e 4e3e 30ca 413d
00000080: 7862 a3bc 627b 4b3e 8aaf 8a3e 6a6c 69be
00000090: 0041 823c 4597 99be fefd bdbe 3fb7 d73c
000000a0: 0972 a93d 373e 403e 41d5 023e 7e72 9a3d
000000b0: 647d 1abe 87b1 ac3d 3ea6 a0bc 5e6b b73b
000000c0: 70d7 a3be 3b0d 9fbe ff6e f4bc 119e b7be
000000d0: c5b2 80bc cf89 66be 15e8 c5be 358b b4bd
000000e0: a801 b53e 29c5 44be a808 9fbe c861 063d
000000f0: f4b6 103e 749a 84be 06eb 9d3e fe49 813e
0.18106274 -0.15522715 -0.26363486 -0.094089545 0.13597362 -0.06174419 -0.1236694 -0.08455566
-0.09160632 0.031256724 0.024513694 -0.30330956 -0.31300214 -0.14247479 0.19200295 -0.15878972
0.24268718 -0.30547902 0.30685598 0.27183187 -0.30328286 -0.113164976 0.28643477 -0.33872986
-0.26074785 -0.040866405 0.24883823 0.11131613 0.23972483 0.32287696 0.2016551 0.04731196
-0.019944414 0.19871286 0.2708705 -0.22795263 0.015900135 -0.29998222 -0.37107843 0.026332496
0.082737036 0.18773733 0.12776662 0.07541369 -0.15086895 0.08432298 -0.01961052 0.005597516
-0.32000303 -0.31064782 -0.029838083 -0.35862783 -0.015710244 -0.22513507 -0.38653627 -0.08815614
0.35352826 -0.19215836 -0.31061292 0.032808095 0.14132291 -0.25899088 0.3084337 0.25251764

decoder.0.bias f4 [8]
00000000: b844 153d 7d6a abbe b238 763d ae2a 5a3d
00000010: cc1c 64bd 8d36 9a3e 4263 09be 93bc 38be
0.03644249 -0.33479682 0.060112663 0.05326336 -0.055691525 0.30119744 -0.1341677 -0.18040685

decoder.3.weight f4 [8, 8]
00000000: ee30 333e 60f4 523e 09ec 873e 8e02 2cbe
00000010: 113a 913e 790d 9f3e e64d 6a3e 885e d03d
00000020: 25c8 40be c0a2 493c 231b b63e 357b 4ebd
00000030: ef6b 893e d84b de3c c279 71bd 0235 c73d
00000040: 8783 073e 489a 4c3d e540 a3bd b909 183d
00000050: 4f98 bdbe 2aea 8fbe 1a93 173b a262 2e3e
00000060: 921f 613e d55d 04bd 74be 20be c463 62be
00000070: b0dc 383e 6e2b 54be 29ec 0e3e 2a16 dcbd
00000080: 32e8 9bbe 9ffe 8cbe 1247 fdbd 9316 77be
00000090: 9944 a7be 25f7 4dbd 2dd1 b4be 6834 9abd
000000a0: 72c0 473e fdc6 2cbe da08 4fbd c912 5f3d
000000b0: 229e a5be 9205 5fbe cde2 a23e 575c 59be
000000c0: 65c1 05bd b3d5 88be 3ef5 c73d 3cd6 39be
000000d0: 6ef1 023e 7c6e 343e 2f18 b13d c996 12be
000000e0: ae85 c73e 2398 843d 1054 cfbd 4072 81be
000000f0: 6f80 633e 30eb 823e 6f8a 283e db22 f93d
0.17499134 0.20601034 0.26547268 -0.1679785 0.28364614 0.31064966 0.22881278 0.101742804
-0.18826349 0.012306869 0.3556758 -0.050410468 0.2684016 0.027135774 -0.058954008 0.09726907
0.13233767 0.04995182 -0.07971362 0.037118647 -0.37030265 -0.2810834 0.002312845 0.17029813
0.219847 -0.032316048 -0.15697652 -0.2210837 0.18052936 -0.20719692 0.13957275 -0.10746415
-0.30450588 -0.2753801 -0.12367071 -0.24129705 -0.32669523 -0.050284524 -0.35315838 -0.07529527
0.19507006 -0.16872783 -0.05054555 0.054461274 -0.32347208 -0.21779469 0.3181366 -0.21226631
-0.03265514 -0.2672554 0.09763573 -0.1814813 0.1278741 0.17620271 0.08647191 -0.14315332
0.38969177 0.0647433 -0.101234555 -0.25282478 0.22216962 0.2557006 0.16459058 0.12164851

decoder.3.bias f4 [8]
00000000: 1472 59be a3f2 c43e c362 c8bd 34d2 5bbe
00000010: 2db1 88bd edd0 54be a2c5 40bd 25e9 9cbd
-0.21234924 0.38466367 -0.09784462 -0.21466905 -0.066744186 -0.20782824 -0.047063477 -0.07661656

decoder.6.weight f4 [3, 8]
00000000: 533e 953e 5128 cb3d 68ee b53e f469 343e
00000010: 7ad4 d43d 1f9d a13d 6446 f3bd 9da9 79be
00000020: e492 63be 637a 943e b770 153e 24f6 dfbe
00000030: 432b 783d 5115 acbe 11c4 5f3e 6144 813e
00000040: f478 453e b414 153e f7c0 47be 98a1 983e
00000050: 9f86 f2bd e0f8 15be 63fa 183e 3d12 933e
0.29149112 0.09919799 0.35533452 0.17618543 0.10392089 0.078912966 -0.1187866 -0.24381109
-0.22224003 0.28999624 0.14593779 -0.43742478 0.060588133 -0.33610013 0.21852137 0.2524748
0.19284421 0.14558679 -0.19507204 0.29810786 -0.11842083 -0.1464572 0.14939265 0.28724852

decoder.6.bias f4 [3]
00000000: 14f6 953d 1223 4fbd 7c6a 78bb
0.07322326 -0.050570555 -0.0037905267
