models/VANE_node_pred_n2v_model/Decoder_epoch_3.pth (torch, 3039 bytes, 6 tensors)

decoder.0.weight f4 [8, 8]
0	0x3e3eb0d9	0.1862215
1	0xbe0fc5e6	-0.14040336
2	0xbe86f133	-0.26355895
3	0xbd676398	-0.056491464
4	0x3e1f8075	0.15576346
5	0xbc732437	-0.014840177
6	0xbdbaaf11	-0.091154225
7	0xbda8291b	-0.08210965
8	0xbdd41213	-0.1035501
9	0x3cc1aa73	0.023640847
10	0x3c48367d	0.012220022
11	0xbea78b85	-0.32723632
12	0xbe9f9a3a	-0.31172353
13	0xbe2eeac4	-0.17081743
14	0x3e1acf94	0.15118247
15	0xbe19cf8e	-0.15020582
16	0x3e79bb94	0.24387962
17	0xbe9b02b9	-0.30275515
18	0x3e99b3e7	0.30020067
19	0x3e8cb6fd	0.2748336
20	0xbe9187c7	-0.28423902
21	0xbd9e4064	-0.07727125
22	0x3e902d53	0.2815958
23	0xbea79027	-0.32727167
24	0xbea54206	-0.32276934
25	0xbdaac32d	-0.08338008
26	0x3e5c9b31	0.21543576
27	0x3d65ae84	0.056074634
28	0x3e88b170	0.26697874
29	0x3e99eb5a	0.30062371
30	0x3e251861	0.16122581
31	0x3dbd154f	0.0923258
32	0xbd72e4b1	-0.05930013
33	0x3e3b1880	0.18271065
34	0x3e8b4a4e	0.27205127
35	0xbe7b8cfa	-0.24565497
36	0x3cdc5a92	0.026898656
37	0xbe3a5cb8	-0.18199432
38	0xbea175ba	-0.3153513
39	0x3d702976	0.05863329
40	0x3dcaf466	0.099098966
41	0x3e565832	0.20932081
42	0x3e1220e5	0.14270361
43	0x3dece6e1	0.11567474
44	0xbe1431bb	-0.14472096
45	0x3e301207	0.17194377
46	0x3bbbd034	0.005731607
47	0x3a66b993	0.00088014564
48	0xbe9efb62	-0.31051165
49	0xbe98f63e	-0.29875368
50	0xbca7af3e	-0.020469304
51	0xbeab3eae	-0.33446258
52	0xbbd5ddc7	-0.006526682
53	0xbe290879	-0.16507138
54	0xbeb9db6c	-0.36300218
55	0xbdad4f00	-0.08462334
56	0x3eb8950f	0.36051223
57	0xbe34aa1b	-0.17643015
58	0xbe9dcdaa	-0.30820972
59	0x3d47957a	0.048726536
60	0x3e180d71	0.14848877
61	0xbe5328b0	-0.2062099
62	0x3e9c8f9c	0.30578315
63	0x3e800904	0.25006878

decoder.0.bias f4 [8]
0	0x3cb8cbcc	0.022558115
1	0xbeac0a95	-0.33601823
2	0x3d4f5607	0.05061915
3	0xb90b56ec	-0.00013288454
4	0xbdc2e5ae	-0.09516464
5	0x3e9b74db	0.3036259
6	0xbe0f89e9	-0.14017452
7	0xbe361f10	-0.17785287

decoder.3.weight f4 [8, 8]
0	0x3e241d84	0.16026884
1	0x3e5b7fdf	0.21435498
2	0x3e7859cc	0.24253005
3	0xbe42ff74	-0.1904276
4	0x3e962a8b	0.29329333
5	0x3e9572e5	0.2918922
6	0x3e7884de	0.24269435
7	0x3de521d6	0.11188094
8	0xbe5a50fa	-0.21319953
9	0x3c8e7249	0.01738848
10	0x3ebea265	0.37233272
11	0x3bf4d0d8	0.007471185
12	0x3e8227db	0.25421032
13	0x3d1dcde4	0.03852643
14	0xbd938f6b	-0.07205089
15	0x3dc2adc3	0.09505799
16	0x3e304968	0.17215502
17	0x3d7ce5b9	0.061742518
18	0xbdb80bad	-0.08986602
19	0x3d6c0da2	0.05763019
20	0xbe9b542f	-0.30337664
21	0xbe939646	-0.28825587
22	0x3c94b333	0.018151855
23	0x3e29672b	0.16543262
24	0x3e88306a	0.26599437
25	0xbd5b2c4b	-0.053509038
26	0xbe1973e6	-0.14985618
27	0xbe86caa6	-0.26326483
28	0x3e2d0a13	0.16898374
29	0xbe47fbca	-0.19529644
30	0x3e0ab433	0.13545303
31	0xbdf08c92	-0.11745562
32	0xbe8ee3bc	-0.27908123
33	0xbe86fa8c	-0.26363027
34	0xbe04d879	-0.12973203
35	0xbe53b097	-0.20672832
36	0xbe7e7ea2	-0.24852994
37	0xbd5e37d8	-0.054252476
38	0xbeaeca0d	-0.34138528
39	0xbdaa9d91	-0.08330835
40	0x3e807a68	0.2509339
41	0xbe4225ed	-0.1895978
42	0xbd59e94c	-0.053201005
43	0x3ce19c30	0.027540296
44	0xbe8fe448	-0.28103852
45	0xbe5ae903	-0.2137795
46	0x3ea1af07	0.31578848
47	0xbe6e3c54	-0.23265201
48	0xbd90fb92	-0.07079233
49	0xbe8be237	-0.27321026
50	0x3de43eed	0.11144815
51	0xbe20187c	-0.1563434
52	0x3d9aafc4	0.07553056
53	0x3e3afe0c	0.18260974
54	0x3d98160f	0.07426082
55	0xbe1681ad	-0.14697905
56	0x3eb8c3b2	0.36086804
57	0x3d4398d2	0.047753163
58	0xbda89bbc	-0.08232829
59	0xbe5e93ca	-0.21736065
60	0x3e333a21	0.17502643
61	0x3e8b5dee	0.272201
62	0x3e143b9e	0.14475867
63	0x3ddec8ad	0.108781196

decoder.3.bias f4 [8]
0	0xbe6de2e8	-0.23231089
1	0x3ec60604	0.38676465
2	0xbdc1cfec	-0.09463486
3	0xbe4a467e	-0.19753453
4	0xbd80fb82	-0.06297971
5	0xbe3c9a6f	-0.18418287
6	0xbd41b49a	-0.047291376
7	0xbd883d26	-0.06652288

decoder.6.weight f4 [3, 8]
0	0x3e807576	0.25089616
1	0x3dc3ab42	0.09554149
2	0x3eb28473	0.34866676
3	0x3e27c5f6	0.1638411
4	0x3dd17eb0	0.10229242
5	0x3d865cbd	0.06560657
6	0xbe0a8ed8	-0.13531053
7	0xbe81d3e6	-0.25356978
8	0xbe4de515	-0.20106919
9	0x3e96aca4	0.2942859
10	0x3e25b3da	0.16181889
11	0xbed823f1	-0.4221492
12	0x3d6dd3c1	0.058063272
13	0xbea3a859	-0.31964377
14	0x3e6224d5	0.22084363
15	0x3e799096	0.24371561
16	0x3e5ad620	0.21370745
17	0x3e1490a6	0.14508304
18	0xbe50f138	-0.20404518
19	0x3e973628	0.29533505
20	0xbde9d8ae	-0.114182815
21	0xbe1980d1	-0.14990546
22	0x3e281e48	0.16417801
23	0x3e9ca38e	0.30593532

decoder.6.bias f4 [3]
0	0x3db98266	0.09058075
1	0xbd8efc1d	-0.069816805
2	0xbae8d4bc	-0.0017763595
