models/VANE_node_pred_n2v_model/Decoder_epoch_12.pth (torch, 3039 bytes, 6 tensors)

decoder.0.weight f4 [8, 8]
000000 fe 8e 38 3e 1c 6d 1f be 2b 85 85 be fa ef c3 bd
       0.18023297 -0.15568966 -0.26078162 -0.09567256
000010 f4 9e 0e 3e d5 46 6f bd 9b c6 fd bd df 77 ae bd
       0.13927823 -0.05841716 -0.123913966 -0.08518957
000020 e8 e7 bd bd f7 5a fb 3c 85 c7 c2 3c 10 7e 9b be
       -0.09272748 0.030683024 0.023776779 -0.30369616
000030 c1 37 9f be 60 95 14 be 03 d2 43 3e 01 67 21 be
       -0.31097224 -0.14510107 0.19123082 -0.15761949
000040 a3 c4 78 3e 95 f7 9b be a9 59 9d 3e cd ba 8a 3e
       0.24293761 -0.30462328 0.30732468 0.27095643
000050 3d ff 9b be 35 c3 e3 bd 1a 6f 92 3e 4d 8e ad be
       -0.3046817 -0.11121217 0.2860039 -0.3389763
000060 8a b9 85 be c6 a3 29 bd 02 a6 7e 3e 2e 39 e3 3d
       -0.26118118 -0.041415952 0.24868014 0.110948905
000070 fd a8 79 3e 93 b9 a5 3e cc 0e 4d 3e 83 2b 4a 3d
       0.2438087 0.32368144 0.20025176 0.049357902
000080 f0 02 9b bc de 4f 4e 3e 74 a8 8b 3e 1d 60 68 be
       -0.0189223 0.20147654 0.27276957 -0.22692914
000090 1a 0b 69 3c 75 26 98 be 09 e9 be be df 2a c4 3c
       0.014223838 -0.2971684 -0.37287167 0.023946224
0000a0 38 f7 a8 3d 0c e6 41 3e 70 d3 03 3e f0 64 9b 3d
       0.08250278 0.18935412 0.12873626 0.07587612
0000b0 13 d0 1a be d1 63 b4 3d 71 38 a0 bc 4b 5f 93 3b
       -0.15118437 0.08808101 -0.019558163 0.004497444
0000c0 15 27 a4 be 8a 9e 9e be 0f 20 ef bc 36 a6 b7 be
       -0.32061067 -0.3098033 -0.029190091 -0.35868996
0000d0 4a bc 68 bc 94 83 64 be 4f 97 c5 be 40 07 b6 bd
       -0.014205048 -0.22315818 -0.38592002 -0.088881016
0000e0 f5 79 b4 3e a8 99 43 be 4d e6 9e be 39 ce 09 3d
       0.35249296 -0.19101584 -0.3103508 0.033643935
0000f0 cb 4f 13 3e 5d 5f 83 be 7b 0a 9d 3e 0c ed 80 3e
       0.14385907 -0.25658694 0.30672058 0.25180852

decoder.0.bias f4 [8]
000000 c8 ae 0f 3d 02 ac ab be d0 58 76 3d 6b 02 52 3d
       0.035078794 -0.3352967 0.060143292 0.051271837
000010 12 ad 5f bd ea 4a 9a 3e 6a 89 09 be 4a 3a 39 be
       -0.054608412 0.3013528 -0.13431326 -0.18088642

decoder.3.weight f4 [8, 8]
000000 17 b7 2e 3e 70 6d 54 3e 0f 71 87 3e 9e 00 2b be
       0.1706203 0.20744872 0.26453444 -0.16699454
000010 54 a1 90 3e 5d 7c 9e 3e 50 fd 6b 3e 78 3e d3 3d
       0.28248084 0.30954257 0.2304585 0.10314649
000020 9b 7f 46 be 29 b3 54 3c 8d 63 b6 3e a7 ac 4e bd
       -0.19384615 0.012982168 0.35622826 -0.050457623
000030 61 00 89 3e 91 21 e3 3c e1 8f 6f bd ba 15 c3 3d
       0.26758102 0.027725967 -0.058486823 0.095256284
000040 80 85 09 3e df 29 4b 3d 6c 82 a4 bd 5e 4d 1b 3d
       0.13429832 0.04960048 -0.080326885 0.03791558
000050 a4 9c bd be 45 92 90 be d6 dd 58 3b 1b 96 2f 3e
       -0.3703357 -0.28236595 0.003309121 0.17147104
000060 5e da 66 3e 6a 76 0a bd 44 0e 20 be 54 fa 61 be
       0.22544238 -0.033804335 -0.15630442 -0.22068149
000070 70 86 39 3e 20 cf 52 be c6 d8 0c 3e ca 15 dc bd
       0.1811769 -0.20586824 0.13754568 -0.107463434
000080 10 22 9c be de 97 8c be 2b e6 ff bd 96 ec 76 be
       -0.30494738 -0.27459615 -0.12495073 -0.24113688
000090 5e 0f a7 be 6e bb 56 bd bb 06 b4 be ee 40 97 bd
       -0.32628912 -0.05242484 -0.35161385 -0.07385431
0000a0 ca f3 4b 3e 4d 30 2e be 35 de 50 bd dd 2a 5f 3d
       0.19917217 -0.17010613 -0.050993163 0.054484237
0000b0 64 a6 a5 be 2b ee 5e be e7 b0 a2 3e e6 f7 57 be
       -0.32353508 -0.21770541 0.3177559 -0.2109066
0000c0 b7 8c 10 bd 27 94 88 be 62 6f ca 3d eb 21 3a be
       -0.035290446 -0.2667553 0.09884526 -0.18177001
0000d0 b4 c6 03 3e ed 8f 35 3e 4b 2f af 3d fa 5f 14 be
       0.12868768 0.17730685 0.08553942 -0.14489737
0000e0 bd 17 c6 3e cb be 85 3d 00 c3 ce bd 76 56 81 be
       0.38689986 0.065305315 -0.10095787 -0.25261277
0000f0 cd eb 64 3e 32 36 83 3e 71 c8 27 3e 38 40 f6 3d
       0.22355576 0.25627285 0.16385056 0.120239675

decoder.3.bias f4 [8]
000000 30 c3 5a be 4a 01 c5 3e e4 90 c9 bd 2c a8 5a be
       -0.2136352 0.38477546 -0.09842089 -0.21353215
000010 14 89 8b bd 96 88 54 be c5 3c 3d bd 9b 42 9c bd
       -0.06813255 -0.20755228 -0.046200532 -0.076298915

decoder.6.weight f4 [3, 8]
000000 41 ed 94 3e 17 f9 c8 3d b6 29 b6 3e 2e 7d 33 3e
       0.2908726 0.09813135 0.35578698 0.17528221
000010 0b 72 d8 3d 9b ab a1 3d 6f de f6 bd 99 f3 79 be
       0.10568627 0.07894059 -0.120541446 -0.24409331
000020 39 8a 63 be 34 70 94 3e d1 28 16 3e 4a 59 df be
       -0.22220697 0.28991854 0.14664008 -0.4362281
000030 b4 10 76 3d 3a ec ab be 8b 42 60 3e 7d fd 80 3e
       0.060074523 -0.33578664 0.21900384 0.25193396
000040 19 10 46 3e a9 4d 16 3e 9f fc 48 be 24 7b 98 3e
       0.19342078 0.14678062 -0.19627617 0.2978145
000050 d1 1f f5 bd 07 5d 16 be 3f 59 1a 3e 03 81 93 3e
       -0.11968959 -0.14683925 0.15073107 0.28809366

decoder.6.bias f4 [3]
000000 d0 ed 96 3d a4 9e 51 bd c4 95 6e bb
       0.07369578 -0.051176682 -0.0036405185
