models/VANE_node_pred_n2v_model/Decoder_epoch_10.pth (torch, 3039 bytes, 6 tensors)

decoder.0.weight f4 [8, 8]
0	0x3e3d10dd	0.18463464
1	0xbe1a8689	-0.15090384
2	0xbe831e3c	-0.25609004
3	0xbdb8adc1	-0.09017516
4	0x3e0d4e01	0.13799287
5	0xbd51c539	-0.051213477
6	0xbdfdf85b	-0.12400886
7	0xbdb66a57	-0.089070015
8	0xbdc454d7	-0.095864944
9	0x3cd15c54	0.02555672
10	0x3cb4fad0	0.022092253
11	0xbe9d041d	-0.306672
12	0xbe9f4611	-0.31108144
13	0xbe182e0a	-0.14861313
14	0x3e40886b	0.1880204
15	0xbe205a45	-0.15659435
16	0x3e7bee73	0.2460268
17	0xbe9983dd	-0.29983416
18	0x3e9e8cfd	0.3096694
19	0x3e8c453c	0.27396572
20	0xbe9d178b	-0.30682024
21	0xbddfbef6	-0.10925095
22	0x3e92be3d	0.28660765
23	0xbeae4121	-0.34034064
24	0xbe888479	-0.2666357
25	0xbd42c3b6	-0.047549926
26	0x3e7c904e	0.24664423
27	0x3ddb29bb	0.10701319
28	0x3e814588	0.2524836
29	0x3ea6ce2e	0.32579178
30	0x3e467ba6	0.19383106
31	0x3d5d4ad8	0.054026455
32	0xbc8fa165	-0.017533014
33	0x3e54c424	0.20777947
34	0x3e8ddad1	0.27706006
35	0xbe606b93	-0.21916036
36	0x3c35df24	0.011100564
37	0xbe969dc1	-0.29417232
38	0xbec16d30	-0.37778616
39	0x3cb88e65	0.022528837
40	0x3daeca0f	0.08534633
41	0x3e488831	0.19583203
42	0x3e067e9a	0.13134232
43	0x3da4bc07	0.08043676
44	0xbe1d22b6	-0.15345272
45	0x3dc0f36b	0.09421428
46	0xbc950b23	-0.018193787
47	0x3af630ff	0.0018782913
48	0xbea38417	-0.31936714
49	0xbe9ce4fb	-0.30643448
50	0xbce0c5df	-0.027438102
51	0xbeb5a290	-0.35475588
52	0xbc75aa4e	-0.014994217
53	0xbe5d8483	-0.2163258
54	0xbec44b7e	-0.38338846
55	0xbdb7ab77	-0.08968251
56	0x3eb52f9f	0.35387895
57	0xbe408749	-0.18801607
58	0xbe9e63a5	-0.30935398
59	0x3d14971f	0.036276933
60	0x3e12171e	0.14266631
61	0xbe821058	-0.25403094
62	0x3e9beef5	0.30455747
63	0x3e7f9603	0.24959569

decoder.0.bias f4 [8]
0	0x3d123bc2	0.03570152
1	0xbeac6b96	-0.33675832
2	0x3d7f9f09	0.062407527
3	0x3d3f17a3	0.0466534
4	0xbd52c9ea	-0.05146209
5	0x3e9ae5d3	0.30253467
6	0xbe0a275a	-0.13491574
7	0xbe37c9f6	-0.17948136

decoder.3.weight f4 [8, 8]
0	0x3e2dd919	0.16977347
1	0x3e55132a	0.20808092
2	0x3e875b11	0.26436666
3	0xbe29de08	-0.16588604
4	0x3e914d7f	0.28379437
5	0x3e9e8ba1	0.30965903
6	0x3e6c194b	0.23056524
7	0x3dd447e5	0.10365275
8	0xbe4c311d	-0.1994061
9	0x3c049252	0.008091526
10	0x3eb7d9f4	0.35908473
11	0xbd452f07	-0.048140552
12	0x3e8a2804	0.26983654
13	0x3cff4684	0.031161554
14	0xbd713d43	-0.058896314
15	0x3dbb4c4d	0.091454126
16	0x3e0d3301	0.13788988
17	0x3d50659c	0.050878152
18	0xbda29ef7	-0.079404764
19	0x3d2b8ac3	0.04188038
20	0xbebda8da	-0.37042886
21	0xbe90d182	-0.28284842
22	0x3b2ef1d9	0.0026694445
23	0x3e2ee120	0.17078066
24	0x3e6e98f6	0.23300537
25	0xbd089c57	-0.033352222
26	0xbe208f0d	-0.1567957
27	0xbe646757	-0.22305046
28	0x3e39cc1a	0.18144265
29	0xbe526300	-0.20545578
30	0x3e0bd32e	0.13654777
31	0xbdd89b7d	-0.10576532
32	0xbe995ca7	-0.299535
33	0xbe8c8d03	-0.27451333
34	0xbdfdaa08	-0.123859465
35	0xbe746780	-0.23867607
36	0xbea719e6	-0.32636946
37	0xbd58be73	-0.052916
38	0xbeb49da0	-0.35276508
39	0xbd9a9233	-0.075474165
40	0x3e5244f2	0.20534113
41	0xbe2cdc12	-0.16880825
42	0xbd557bb0	-0.05211991
43	0x3d628c97	0.05530986
44	0xbea5a24c	-0.32350385
45	0xbe60415b	-0.21899931
46	0x3ea18c39	0.31552294
47	0xbe56d689	-0.20980276
48	0xbd325ee3	-0.043547522
49	0xbe8a561e	-0.27018827
50	0x3dcd37b8	0.10020393
51	0xbe3a5d83	-0.18199734
52	0x3e06cb05	0.13163383
53	0x3e36dd73	0.17857914
54	0x3dab3bd7	0.08361023
55	0xbe164a5c	-0.14676803
56	0x3ec3c938	0.38239455
57	0x3d794b31	0.060862724
58	0xbdcb5085	-0.09927467
59	0xbe81fb3d	-0.25386992
60	0x3e68a2cc	0.22718352
61	0x3e844ed6	0.25841397
62	0x3e260705	0.16213615
63	0x3df21243	0.118198894

decoder.3.bias f4 [8]
0	0xbe5ac478	-0.2136401
1	0x3ec64b6d	0.3872942
2	0xbdc59728	-0.096479714
3	0xbe5a319a	-0.21307984
4	0xbd868dfa	-0.06570049
5	0xbe539d06	-0.20665368
6	0xbd3c2d14	-0.045941427
7	0xbd996cf6	-0.07491486

decoder.6.weight f4 [3, 8]
0	0x3e94dd2c	0.2907499
1	0x3dc5c424	0.096565515
2	0x3eb5db9a	0.35519105
3	0x3e31c386	0.17359743
4	0x3dd5f877	0.104477815
5	0x3da259ab	0.07927259
6	0xbdfcf6cd	-0.12351761
7	0xbe7c379f	-0.24630593
8	0xbe63bbf0	-0.22239661
9	0x3e95d6c0	0.29265404
10	0x3e165a3d	0.1468286
11	0xbedf1eae	-0.43578094
12	0x3d7276a5	0.05919518
13	0xbeaba1de	-0.33521932
14	0x3e6114eb	0.21980636
15	0x3e813b70	0.2524066
16	0x3e466182	0.19373134
17	0x3e151162	0.14557412
18	0xbe489064	-0.1958633
19	0x3e9922ab	0.29909262
20	0xbdf0e659	-0.11762685
21	0xbe175b82	-0.14781001
22	0x3e1caab6	0.15299496
23	0x3e9474e0	0.2899542

decoder.6.bias f4 [3]
0	0x3d9a2f03	0.07528498
1	0xbd57e247	-0.05270603
2	0xbb708134	-0.0036698105
