models/VANE_node_pred_n2v_model/Decoder_epoch_8.pth (torch, 3039 bytes, 6 tensors)

decoder.0.weight f4 [8, 8]
000000 a7 70 44 3e aa e8 16 be f4 1d 80 be 62 ee a1 bd
       0.19183598 -0.14737192 -0.25022852 -0.07906796
000010 47 15 10 3e e8 62 1e bd ce dc f0 bd 3b ad b8 bd
       0.14070617 -0.038668543 -0.11760865 -0.09017416
000020 2f 29 c4 bd 19 0e cb 3c 1b c1 b2 3c 66 ab 9c be
       -0.09578168 0.024786996 0.021820595 -0.30599517
000030 c1 08 a1 be 1b ff 1b be 56 65 3e 3e 55 02 22 be
       -0.3145199 -0.15234034 0.18593344 -0.15821202
000040 f7 20 80 3e e6 19 98 be 43 d3 9f 3e 48 62 8f 3e
       0.2502515 -0.2970726 0.31215867 0.2800467
000050 4f c1 9c be dd 38 d5 bd f3 e7 94 3e 6b c3 ae be
       -0.30616233 -0.104112364 0.29083213 -0.34133467
000060 b7 a9 91 be 25 70 72 bd a9 40 77 3e 56 e4 c9 3d
       -0.28449795 -0.05918898 0.2414576 0.09858005
000070 08 8b 83 3e 3a 04 a3 3e 90 a5 3d 3e fc 88 83 3d
       0.2569201 0.31839162 0.18520188 0.06422612
000080 3e af 9e bc 41 93 57 3e b8 f5 90 3e 1b fd 5b be
       -0.019370671 0.21052267 0.2831247 -0.21483271
000090 bd 35 49 3c 7c fa 90 be 95 d2 c0 be 82 5e b3 3c
       0.012280879 -0.28316104 -0.3766066 0.02189565
0000a0 5a af bd 3d 80 cb 4d 3e 8c 11 0a 3e b3 3b b4 3d
       0.09261961 0.2009716 0.13483256 0.08800449
0000b0 f3 3f 1b be 4e 7f db 3d 84 82 56 bc 3e ac 14 ba
       -0.15161113 0.10717641 -0.013092641 -0.0005671418
0000c0 66 f4 a0 be 25 02 9c be 05 3a c9 bc 40 32 b2 be
       -0.3143646 -0.30470386 -0.024563799 -0.34803963
0000d0 9a 49 57 bc 34 c0 4f be 23 e6 c0 be e9 76 b7 bd
       -0.013140107 -0.20288163 -0.3767558 -0.08958227
0000e0 1a 52 b8 3e 23 9f 3d be 0b 1d 9d be 64 94 2f 3d
       0.3600014 -0.18517737 -0.3068622 0.042866126
0000f0 65 fb 11 3e 92 6e 80 be 7f 0d 9e 3e a9 c1 7d 3e
       0.14256056 -0.25084358 0.30869672 0.24780907

decoder.0.bias f4 [8]
000000 82 8c 0d 3d 28 e0 aa be 95 b6 86 3d cc c1 05 3d
       0.034557827 -0.33374143 0.065777935 0.032655522
000010 33 93 54 bd b6 13 9c 3e e0 5a 0b be 64 ba 34 be
       -0.051898193 0.30483788 -0.13608885 -0.17649227

decoder.3.weight f4 [8, 8]
000000 b8 24 3a 3e 89 62 50 3e b2 1a 89 3e 81 6c 28 be
       0.1817807 0.20350088 0.2677818 -0.16447641
000010 29 a2 91 3e 5b 73 a0 3e 4b 60 69 3e 7f b7 cc 3d
       0.2844403 0.3133801 0.22790639 0.099959366
000020 d7 0e 54 be 53 99 24 3c 25 21 b8 3e 94 57 30 bd
       -0.20708786 0.010046321 0.35962787 -0.04305227
000030 a1 b1 89 3e 8f f5 0f 3d e1 b8 79 bd 06 a8 b9 3d
       0.26893333 0.035146292 -0.06096733 0.09065251
000040 32 4c 18 3e e2 58 53 3d e3 0c a5 bd 65 a9 2b 3d
       0.14872816 0.051598437 -0.080590986 0.041909594
000050 9e c3 bb be 22 9c 90 be b3 75 03 3b 24 b5 2b 3e
       -0.36672682 -0.2824412 0.0020059168 0.16768318
000060 d9 9c 79 3e f9 e4 22 bd 28 a7 1d be 8d ae 65 be
       0.24376239 -0.039769147 -0.15395796 -0.22429867
000070 52 68 3b 3e 38 97 4e be 3b ff 08 3e e5 99 df bd
       0.18301514 -0.20174873 0.13378613 -0.10918025
000080 47 c0 95 be 50 da 8c be 4f 55 fd bd 73 56 72 be
       -0.29248258 -0.2751031 -0.12369787 -0.2366579
000090 5d 1a a2 be e6 a3 50 bd 42 8e b4 be 7a 7b a1 bd
       -0.3166074 -0.050937556 -0.35264784 -0.078848794
0000a0 6c 95 62 3e 8a c6 2e be c9 ec 5b bd d2 0d 47 3d
       0.22127312 -0.17067924 -0.053692613 0.048597164
0000b0 e2 63 a5 be ab c2 63 be 91 6c a2 3e 7f 10 58 be
       -0.32302767 -0.22242229 0.31723455 -0.21100043
0000c0 17 65 63 bd df 6c 8a be 13 c8 cf 3d 4b 94 32 be
       -0.05551633 -0.27036187 0.10145583 -0.17439382
0000d0 c6 9a 02 3e 3f 95 37 3e b9 be a8 3d 90 51 16 be
       0.12754354 0.17928027 0.082395025 -0.14679551
0000e0 47 e2 bf 3e 9e 29 72 3d bf 90 c7 bd 77 90 7d be
       0.37477323 0.05912172 -0.09744405 -0.2476214
0000f0 cc 3d 67 3e 67 67 85 3e 64 f2 23 3e 80 9a f1 3d
       0.22582167 0.26055452 0.16010433 0.11797047

decoder.3.bias f4 [8]
000000 73 4b 56 be 37 a9 c6 3e 4e fb c0 bd 34 44 55 be
       -0.20927219 0.38800976 -0.094229326 -0.20826799
000010 fa 8d 81 bd bc 5c 52 be dc b8 3d bd 39 e4 96 bd
       -0.06325908 -0.20543188 -0.046318874 -0.07367749

decoder.6.weight f4 [3, 8]
000000 45 e5 94 3e 67 bf c5 3d 44 64 b5 3e 62 4c 2f 3e
       0.2908117 0.09655648 0.3542806 0.17118981
000010 81 39 d0 3d 9a 8e a4 3d 04 d0 ff bd e9 aa 7c be
       0.10167218 0.080350116 -0.12490848 -0.24674572
000020 f2 b7 63 be 91 4b 96 3e 61 87 16 3e f6 ce dc be
       -0.22238138 0.29354528 0.1470008 -0.4312665
000030 37 89 74 3d dc 79 ab be 6a c3 61 3e 7e f8 7f 3e
       0.05970117 -0.3349141 0.22047201 0.24997136
000040 af 4d 46 3e a7 2d 14 3e 21 c1 47 be 0b 11 98 3e
       0.19365571 0.1447054 -0.19507267 0.29700503
000050 8e 32 ec bd 0d c1 18 be 26 7a 1d 3e 2b e7 95 3e
       -0.1153308 -0.14917393 0.15378627 0.2927793

decoder.6.bias f4 [3]
000000 e9 78 a0 3d 15 38 62 bd d3 dd 8a bb
       0.07835562 -0.055229265 -0.0042378693
