models/VANE_node_pred_n2v_model/Decoder_epoch_0.pth (torch, 3039 bytes, 6 tensors)

decoder.0.weight f4 [8, 8]
0	0x3e498f12	0.19683483
1	0xbdfe307e	-0.12411593
2	0xbe7d9a8c	-0.24765986
3	0xbd234922	-0.039864667
4	0x3e18e2fb	0.14930336
5	0xbc968c9a	-0.01837759
6	0xbdaead2f	-0.08529126
7	0xbdbddd2f	-0.09270703
8	0xbdab6d45	-0.08370451
9	0x3d4c1c83	0.04983188
10	0x3d1fa525	0.038975853
11	0xbe9eee4f	-0.3104119
12	0xbeb0d57f	-0.34537885
13	0xbe429300	-0.19001389
14	0x3e0903e4	0.1338039
15	0xbe40f552	-0.18843582
16	0x3e6e06c5	0.2324477
17	0xbea04203	-0.31300363
18	0x3e95811a	0.2920006
19	0x3e939504	0.28824627
20	0xbe85e8ac	-0.26154077
21	0xbd9d29e1	-0.076740034
22	0x3e9c9b19	0.3058708
23	0xbe9e91df	-0.30970666
24	0xbe99baa7	-0.30025217
25	0xbdfb3246	-0.12265448
26	0x3e4f6480	0.20253181
27	0x3d1ab175	0.037766892
28	0x3e913deb	0.28367552
29	0x3ea7748d	0.3270611
30	0x3e09604d	0.13415642
31	0x3dd6a50d	0.104807
32	0xbda4d2e3	-0.08048036
33	0x3e233408	0.15937817
34	0x3e819fe9	0.25317314
35	0xbe8b274d	-0.27178422
36	0x3d470e41	0.048597578
37	0xbdeff7c8	-0.117171824
38	0xbea1748c	-0.3153423
39	0x3da3f60f	0.08005916
40	0x3dc6a3dd	0.09699223
41	0x3e582852	0.21109131
42	0x3e135eb6	0.14391598
43	0x3e07d892	0.13266209
44	0xbe190234	-0.14942247
45	0x3e37d309	0.17951597
46	0x3d2b28cb	0.04178695
47	0x3bad3f7a	0.005287108
48	0xbea63583	-0.324627
49	0xbe9b1f91	-0.3029752
50	0xbce7cadf	-0.028294979
51	0xbeaaeb3b	-0.33382592
52	0xbaa71e9c	-0.0012750211
53	0xbe26ec44	-0.16301066
54	0xbeb73c2a	-0.3578809
55	0xbd8f1811	-0.06987012
56	0x3eb62e18	0.35582042
57	0xbe2e8579	-0.17043103
58	0xbe996c4e	-0.29965442
59	0x3d72f1a6	0.059312485
60	0x3e1ea4ab	0.15492503
61	0xbe421aeb	-0.18955581
62	0x3ea6ea55	0.32600656
63	0x3e803b8f	0.2504544

decoder.0.bias f4 [8]
0	0x3d090e1c	0.03346072
1	0xbe9c56f0	-0.30535078
2	0x3d2858dc	0.041100368
3	0xbc7221e4	-0.014778588
4	0xbdeb533d	-0.11490486
5	0x3e9be67e	0.3044929
6	0xbe185f09	-0.14880003
7	0xbe312ff1	-0.17303444

decoder.3.weight f4 [8, 8]
0	0x3e07e2f9	0.13270177
1	0x3e4a644d	0.19764824
2	0x3e74b880	0.23898506
3	0xbe4e1d9c	-0.20128483
4	0x3e7c7abf	0.24656199
5	0x3e94c0b3	0.29053268
6	0x3e854c95	0.2603499
7	0x3de33d64	0.11095694
8	0xbe61ad45	-0.22038753
9	0x3d0fd6d2	0.035116978
10	0x3ebdb40c	0.37051427
11	0x3c1676e1	0.009183616
12	0x3e8dd4f0	0.2770152
13	0x3d0cce11	0.034376208
14	0xbd8e5c98	-0.069512546
15	0x3de11a53	0.10991349
16	0x3e37a5d5	0.17934354
17	0x3d822c3c	0.06356093
18	0xbdbded11	-0.092737325
19	0x3d9cd8fd	0.07658575
20	0xbe8c395d	-0.27387515
21	0xbe99d554	-0.3004557
22	0x3c9535ee	0.018214192
23	0x3e29e7d2	0.16592339
24	0x3e8cea0f	0.27522323
25	0xbdc5a0f6	-0.096498415
26	0xbdfb3521	-0.12265993
27	0xbe8b537b	-0.27212128
28	0x3df2f3a4	0.11862877
29	0xbe1d88e0	-0.15384245
30	0x3dda8d75	0.10671512
31	0xbe13c49f	-0.14430474
32	0xbe89a99c	-0.26887214
33	0xbe86b725	-0.26311603
34	0xbdffa60e	-0.12482844
35	0xbe3eb016	-0.18621859
36	0xbe57d750	-0.21078229
37	0xbd8474f0	-0.064676166
38	0xbeaf34f5	-0.3422009
39	0xbdb41784	-0.08793548
40	0x3e9051d6	0.28187436
41	0xbe6c8054	-0.23095828
42	0xbcdcf91c	-0.026974253
43	0x3c802e36	0.015647035
44	0xbe987135	-0.2977387
45	0xbe4503b2	-0.19239691
46	0x3e9469d0	0.2898698
47	0xbe842ff3	-0.25817832
48	0xbd93172d	-0.07182155
49	0xbe81aac7	-0.25325605
50	0x3decad2d	0.11556468
51	0xbe288712	-0.16457775
52	0x3d9e1544	0.077189
53	0x3e2fae1f	0.17156266
54	0x3da629a8	0.08113414
55	0xbe0acb54	-0.13554126
56	0x3eb63a1e	0.35591215
57	0x3d40a9f2	0.047037072
58	0xbd84e02d	-0.06488071
59	0xbe5aa3fb	-0.21351616
60	0x3e289711	0.16463877
61	0x3e8ee33a	0.27907735
62	0x3e152308	0.14564145
63	0x3dd9bd9d	0.10631869

decoder.3.bias f4 [8]
0	0xbe6d2e9b	-0.2316231
1	0x3ebbf0fb	0.3670729
2	0xbdd01b28	-0.1016143
3	0xbe1e988d	-0.15487881
4	0xbd86831d	-0.065679766
5	0xbe1431f1	-0.14472176
6	0xbd71bf5c	-0.059020385
7	0xbd7c4646	-0.061590455

decoder.6.weight f4 [3, 8]
0	0x3e41af1c	0.18914455
1	0x3dc70a09	0.09718711
2	0x3eaa722c	0.3329023
3	0x3e157d9d	0.14598699
4	0x3da3865a	0.0798461
5	0x3d351cab	0.044216793
6	0xbe0a50ac	-0.13507336
7	0xbe828b79	-0.25497034
8	0xbe2d3b8e	-0.1691725
9	0x3e8c5432	0.27407986
10	0x3e47e7d4	0.19522029
11	0xbec18cb5	-0.37802663
12	0x3da479b0	0.080310225
13	0xbe8d947c	-0.27652347
14	0x3e3e84bf	0.18605326
15	0x3e5b4f96	0.21417078
16	0x3e7acb71	0.24491669
17	0x3e292dd2	0.16521385
18	0xbe640a51	-0.2226956
19	0x3e8769d6	0.26447934
20	0xbdf18a82	-0.117939964
21	0xbe358460	-0.17726278
22	0x3e4ab0ac	0.19793957
23	0x3eacdae9	0.33760765

decoder.6.bias f4 [3]
0	0x3df0edd0	0.11764109
1	0xbde1126c	-0.10989842
2	0x3c77f0cb	0.015133093
