models/VANE_node_pred_n2v_model/Decoder_epoch_4.pth (torch, 3039 bytes, 6 tensors)

decoder.0.weight f4 [8, 8]
0	0x3e3b3f1e	0.18285796
1	0xbe179a08	-0.14804852
2	0xbe86891c	-0.2627648
3	0xbd9a0125	-0.075197496
4	0x3e1df046	0.15423688
5	0xbc7191cb	-0.014744232
6	0xbdbeb4e7	-0.09311848
7	0xbd9f4526	-0.07776861
8	0xbdcf67e7	-0.1012724
9	0x3cbde283	0.023179298
10	0x3c8ba8c5	0.017048249
11	0xbea31782	-0.31853873
12	0xbea36bc2	-0.3191815
13	0xbe2acc4f	-0.166795
14	0x3e31b874	0.1735552
15	0xbe204a37	-0.1565331
16	0x3e7f468c	0.24929255
17	0xbe98daa5	-0.29854313
18	0x3ea0bba1	0.3139315
19	0x3e8f80c4	0.28027928
20	0xbe98dd53	-0.29856357
21	0xbda81bb7	-0.08208411
22	0x3e92ff10	0.28710222
23	0xbead8592	-0.3389097
24	0xbe9b86ce	-0.30376285
25	0xbd879cf5	-0.06621734
26	0x3e6acfd0	0.22930837
27	0x3da07df3	0.07836523
28	0x3e8c05dd	0.27348223
29	0x3e9f37d6	0.31097287
30	0x3e2d28ba	0.16910067
31	0x3d9235bd	0.07139156
32	0xbd16a4ac	-0.036778137
33	0x3e4132a5	0.18866976
34	0x3e8d0982	0.27546316
35	0xbe707761	-0.2348304
36	0x3cc32fb9	0.023826467
37	0xbe56faea	-0.20994154
38	0xbeac897d	-0.33698645
39	0x3d4090c4	0.04701306
40	0x3dcafd17	0.09911554
41	0x3e57b434	0.21064836
42	0x3e11fd48	0.14256775
43	0x3dd67c36	0.1047291
44	0xbe189f39	-0.14904489
45	0x3e19cda3	0.1501985
46	0x3b32a408	0.0027258415
47	0xbabaa945	-0.001424112
48	0xbe9fa03d	-0.3117694
49	0xbe986612	-0.29765373
50	0xbc9bdd2e	-0.019026365
51	0xbeaf5528	-0.34244657
52	0xbc4d2f98	-0.012523554
53	0xbe2caccb	-0.1686279
54	0xbeba3003	-0.36364755
55	0xbdb5e390	-0.08881295
56	0x3eba1f68	0.36352086
57	0xbe36cd4f	-0.17851757
58	0xbe9d044d	-0.30667344
59	0x3d3b09a5	0.045663495
60	0x3e0e600c	0.13903826
61	0xbe690bb5	-0.22758372
62	0x3e9ea8be	0.30988115
63	0x3e7bf458	0.24604928

decoder.0.bias f4 [8]
0	0x3c8e5c8a	0.01737811
1	0xbeaad123	-0.33362684
2	0x3d805a7a	0.06267257
3	0x3c8ec5be	0.017428275
4	0xbdaf36f8	-0.08555406
5	0x3e9c645c	0.30545318
6	0xbe0dae60	-0.1383605
7	0xbe3303e1	-0.17481948

decoder.3.weight f4 [8, 8]
0	0x3e2faf6d	0.17156763
1	0x3e502b85	0.20329101
2	0x3e86f5a8	0.26359296
3	0xbe2c7b3c	-0.16843885
4	0x3e9618c2	0.29315764
5	0x3e9f198c	0.31074178
6	0x3e6aa328	0.22913802
7	0x3dcfb648	0.10142189
8	0xbe58cabc	-0.21171087
9	0x3c040d6a	0.008059839
10	0x3eba89b3	0.3643318
11	0xbc913386	-0.017724764
12	0x3e749139	0.23883523
13	0x3d27334b	0.0408204
14	0xbd8738cd	-0.06602631
15	0x3db69930	0.08915937
16	0x3e325c05	0.17417915
17	0x3d710e5b	0.05885158
18	0xbdb06e5f	-0.086148016
19	0x3d500916	0.050789915
20	0xbea5e6c8	-0.32402635
21	0xbe91b3e1	-0.2845755
22	0x3c176647	0.009240693
23	0x3e26c8f2	0.16287592
24	0x3e8718ee	0.26386207
25	0xbd30613c	-0.04306148
26	0xbe18be96	-0.14916453
27	0xbe8055eb	-0.2506555
28	0x3e439a8a	0.1910192
29	0xbe4d787a	-0.2006549
30	0x3e0b3015	0.1359256
31	0xbde3355e	-0.11094163
32	0xbe8bce12	-0.27305657
33	0xbe885649	-0.2662833
34	0xbe04e633	-0.12978439
35	0xbe67fb9b	-0.22654574
36	0xbe8ce055	-0.27514902
37	0xbd5b6dcc	-0.053571507
38	0xbeb1eaff	-0.347496
39	0xbda71ef1	-0.081601985
40	0x3e7d1607	0.24715434
41	0xbe37304c	-0.17889518
42	0xbd396adc	-0.045267925
43	0x3d23f795	0.040031034
44	0xbe86a319	-0.2629631
45	0xbe594b30	-0.21220088
46	0x3ea02ab3	0.31282577
47	0xbe6a2a25	-0.2286764
48	0xbd9e6b9a	-0.07735367
49	0xbe8cc608	-0.27494836
50	0x3dd474fa	0.10373874
51	0xbe26c659	-0.16286601
52	0x3da1acdb	0.07894298
53	0x3e391406	0.18074045
54	0x3da279a4	0.07933357
55	0xbe12bd68	-0.14330065
56	0x3eb7d60f	0.359055
57	0x3d5a9f72	0.053374715
58	0xbdbb9e4f	-0.09161054
59	0xbe727e68	-0.23681033
60	0x3e3d7f66	0.1850563
61	0x3e8842ae	0.26613373
62	0x3e1d81ca	0.15381542
63	0x3def9742	0.11698772

decoder.3.bias f4 [8]
0	0xbe597f0a	-0.21239868
1	0x3ec7e83c	0.39044368
2	0xbdbcf335	-0.092260756
3	0xbe503b7e	-0.20335194
4	0xbd80d48c	-0.0629054
5	0xbe427098	-0.18988264
6	0xbd452335	-0.04812928
7	0xbd918d5d	-0.07107041

decoder.6.weight f4 [3, 8]
0	0x3e8e1cef	0.2775645
1	0x3dc6cda8	0.097071946
2	0x3eb23582	0.34806448
3	0x3e2a7c0c	0.16648883
4	0x3dc8ad33	0.0979866
5	0x3d8a9f4b	0.06768664
6	0xbe04da66	-0.12973937
7	0xbe7fcd20	-0.24980593
8	0xbe62b1b6	-0.22138104
9	0x3e97eb1a	0.29671556
10	0x3e221fd8	0.1583246
11	0xbedadf28	-0.4274838
12	0x3d828d97	0.06374662
13	0xbea5286a	-0.32257396
14	0x3e5f5ee2	0.21813539
15	0x3e7c2961	0.2462516
16	0x3e52d233	0.20587997
17	0x3e105c70	0.14097762
18	0xbe4cb794	-0.19991904
19	0x3e989062	0.29797655
20	0xbdecd448	-0.11563927
21	0xbe18a787	-0.14907657
22	0x3e24b8e5	0.16086157
23	0x3e99646a	0.29959422

decoder.6.bias f4 [3]
0	0x3db032d9	0.086034484
1	0xbd811a42	-0.063038364
2	0xbb851afe	-0.0040620556
