models/VANE_node_pred_n2v_model/Discriminator_epoch_9.pth (torch, 35999 bytes, 5 tensors)

main.0.weight f4 [64, 64]
0	0xbdd78d9d	-0.105250575
1	0xbdf74170	-0.12073028
2	0x3ca12907	0.019672884
3	0x3cdbc9eb	0.02682968
4	0xbdd09935	-0.10185472
5	0xbe067410	-0.13130212
6	0xbcb3f4a7	-0.021967245
7	0x3bbc310b	0.005743151
8	0xbb1cf308	-0.002394857
9	0x3d81b167	0.06332665
10	0xbdbc0a69	-0.09181673
11	0x3c6362ee	0.013878567
12	0xbde22430	-0.110420585
13	0x3d088e51	0.03333885
14	0xbd0d4721	-0.034491662
15	0xbd59251a	-0.0530139
16	0xbd67f470	-0.0566296
17	0xbd418be4	-0.04725255
18	0xbd2f74f1	-0.042836133
19	0x3d13a617	0.036047067
20	0xbd424156	-0.04742559
21	0x3c71eb97	0.014765642
22	0x3d624d9d	0.0552498
23	0x3adbc571	0.0016767216
24	0xbdac9b75	-0.084280886
25	0xbc803b17	-0.015653176
26	0xbdff5c32	-0.12468757
27	0xba8ba083	-0.0010652695
28	0xbda9c81d	-0.08290122
29	0x3d444e17	0.047926035
30	0x3dc86b6b	0.09786113
31	0xb91ade02	-0.00014769289
32	0x3dadd34c	0.08487567
33	0x3d20b62e	0.03923624
34	0xbd392751	-0.04520351
35	0x3ddd8476	0.108162805
36	0xbdcb6069	-0.09930498
37	0xbd276c7c	-0.040874943
38	0xbdc355a4	-0.09537819
39	0xbb2a8f86	-0.0026025488
40	0xbdbfa32c	-0.093572944
41	0x3d7f06bb	0.062262278
42	0x3bcaaec1	0.006185383
43	0xbbc7eb7b	-0.0061010695
44	0x3da65f94	0.08123699
45	0xbc3a658b	-0.011376749
46	0x3c986f74	0.018607832
47	0x39edbfa1	0.00045346937
48	0x3da297d3	0.079391144
49	0x3da3810d	0.07983599
50	0xbdbc674c	-0.0919939
51	0xbdc0e546	-0.094187304
52	0xbdb7a549	-0.089670725
53	0x3e01d9f9	0.12680806
54	0x3e11ed3d	0.14250655
55	0xbdaf023c	-0.08545348
56	0x3d0d6867	0.034523394
57	0xbd4a6c24	-0.049419537
58	0x3e03a96d	0.128576
59	0x3d8b5796	0.06803815
60	0x3d4350ff	0.047684666
61	0xbd6499a8	-0.0558106
62	0xbd7680bd	-0.06018137
63	0xbdb1baa3	-0.08678176
64	0x3d390c6b	0.04517786
65	0x3c93de0c	0.018050216
66	0x3d4538bd	0.048149813
67	0xba51d90e	-0.0008005061
68	0x3d841a68	0.06450349
69	0x3dc07db2	0.093989745
70	0xbddd9839	-0.1082005
71	0x3c5444b4	0.012955833
72	0x3c84199f	0.016125498
73	0x3d4caac2	0.049967535
74	0xbe01e59a	-0.12685242
75	0xbc25e771	-0.010125981
76	0x3d86d61c	0.06583807
77	0xbd8368a1	-0.06416441
78	0x3c97b976	0.018521052
79	0x3df55b96	0.11980359
80	0x3d48346d	0.048878122
81	0x3d273d91	0.0408302
82	0x3c33485d	0.010942546
83	0xbcb29c2f	-0.02180299
84	0x3deef46e	0.11667715
85	0xbc3439fb	-0.011000152
86	0xbdf59237	-0.11990779
87	0x3e0bdbe5	0.13658102
88	0x3d053960	0.03252542
89	0x3d98bab1	0.074574836
90	0xbd112196	-0.03543242
91	0xbda647ff	-0.08119201
92	0x3ca5650d	0.020189786
93	0x3d4ff563	0.05077113
94	0x3dd15139	0.1022057
95	0x3c16d3ce	0.009205772
96	0xbd15d175	-0.036576707
97	0xbd4e1b21	-0.05031884
98	0xbd89ce86	-0.06728844
99	0x3d021388	0.031756908
100	0x3e2607a5	0.16213854
101	0xbd1c053c	-0.03809093
102	0x3d0fbfb4	0.03509493
103	0xbb97593e	-0.004618793
104	0x3d62707b	0.05528305
105	0xbd59f12f	-0.053208526
106	0x3de6f78b	0.11277684
107	0x3d4928c1	0.04911113
108	0xbd6d1ad1	-0.057886902
109	0x3e043cae	0.12913772
110	0xbc22df18	-0.009940885
111	0xbb1c02fa	-0.0023805485
112	0x3d6da033	0.058014106
113	0xbd90501a	-0.07046528
114	0xbdb2c587	-0.087290816
115	0x3de7844e	0.11304532
116	0x3d40525c	0.046953544
117	0xbdd3730b	-0.10324677
118	0x3abd19e4	0.0014427272
119	0xbd2284aa	-0.0396773
120	0x3ca00a20	0.019536078
121	0x3da34ee9	0.07974035
122	0x3dc545ef	0.096324794
123	0x3c9d672e	0.019214239
124	0x3af45fe4	0.00186443
125	0x3c65216c	0.013985019
126	0x3d8f2c99	0.06990928
127	0xbc044e58	-0.008075319
128	0x3dde6633	0.10859337
129	0x3dacd02a	0.08438142
130	0xbd9e7191	-0.07736505
131	0x3dd9a570	0.10627258
132	0xbc108908	-0.008821733
133	0x3c3362a9	0.010948815
134	0xbc7a26de	-0.015268056
135	0x3c476e84	0.012172345
136	0x3cec745f	0.028864084
137	0x3d97b737	0.07407992
138	0x3e106368	0.1410042
139	0xbd4d4efb	-0.05012415
140	0x3c9e0acc	0.019292258
141	0x3e0bb723	0.1364408
142	0x3d63c844	0.05561091
143	0xbdf40eaa	-0.119168594
144	0x3dcb8e79	0.09939284
145	0x3dc2c7ff	0.095108025
146	0x3d1cf3c0	0.038318396
147	0x3d45150a	0.048115768
148	0xbdacc83c	-0.08436629
149	0xbd5bb159	-0.05363593
150	0x3cd92960	0.026508987
151	0xbd22e6a5	-0.03977074
152	0xbdb3f151	-0.08786262
153	0x3ba5cf8a	0.005060141
154	0x3c109cf2	0.008826481
155	0xbd0e177b	-0.03469036
156	0x3d4f6eeb	0.05064289
157	0xbced7a25	-0.028988907
158	0x3d04612c	0.032319233
159	0x3e0aeb56	0.13566336
160	0xbdda50b6	-0.10659926
161	0x3c5442b6	0.012955358
162	0xbd0ef957	-0.034905758
163	0xbbf9c8f0	-0.0076228306
164	0x3bf3c92d	0.0074397535
165	0x3d378adc	0.04481016
166	0x3dac0c2b	0.08400758
167	0x3d460ba2	0.048350938
168	0x3b6be84f	0.003599662
169	0x3c005346	0.007832354
170	0x3e25dd80	0.16197777
171	0x3c9bfd40	0.019041657
172	0xbda839a8	-0.08214122
173	0xbcd857fe	-0.026409145
174	0x3cf2f4fc	0.029657833
175	0x3cb4888a	0.022037763
176	0x3da001f2	0.07812871
177	0xbcabd285	-0.020974407
178	0xbd30641d	-0.043064225
179	0x3c3757df	0.011190384
180	0x3de426f6	0.11140244
181	0x3e24b73b	0.16085522
182	0x3db03361	0.0860355
183	0x3b19e9a3	0.0023485206
184	0xbd838f4d	-0.06423817
185	0xbdb1c8bd	-0.08680866
186	0x3d691114	0.056901053
187	0xbd8dcb89	-0.06923587
188	0x3d110ee7	0.035414603
189	0xbd39a1cb	-0.045320313
190	0xbde06266	-0.10956268
191	0x3da9c40b	0.08289345
192	0xbd08c947	-0.033395078
193	0x3da9d130	0.082918525
194	0x3a612eb0	0.0008590026
195	0x3d15af21	0.03654397
196	0xbda282b7	-0.07935088
197	0xbbada898	-0.005299639
198	0x3d552da2	0.052045472
199	0xbd7e7e75	-0.062132318
200	0x3dc15b82	0.09441282
201	0xbaf9b553	-0.0019051231
202	0x3dc3dcbf	0.09563588
203	0xbdcd0782	-0.100111976
204	0x3e1130a6	0.14178714
205	0xbde478ca	-0.11155851
206	0xbd9fefa6	-0.07809381
207	0x3dde9141	0.10867549
208	0x3dc01449	0.09378869
209	0x3ce522e9	0.027970748
210	0x3d565dc8	0.05233553
211	0xbd21361b	-0.03935824
212	0x3cc64bc1	0.024206044
213	0xbd293502	-0.041310318
214	0x3cb50733	0.02209816
215	0xbb252666	-0.002519989
216	0x3d9a6c3f	0.075401776
217	0xbd3d942c	-0.046283886
218	0x3d140152	0.03613407
219	0xbbbaf261	-0.0057051633
220	0x3dc3f8a5	0.095689096
221	0xbbae0e5e	-0.0053117713
222	0xbcc6e2c1	-0.024278047
223	0x3ce9528f	0.02848175
224	0xbd7a36a5	-0.06108727
225	0xbdc4c451	-0.09607757
226	0x3c81bb73	0.015836453
227	0xbc1ad625	-0.00945047
228	0x3c6324d0	0.013863757
229	0xbda6ee24	-0.081508905
230	0x3d8ed0cb	0.06973418
231	0x3bea259b	0.007145596
232	0xbd1f7203	-0.03892709
233	0x3d71a0a8	0.058991104
234	0x3d233d1d	0.039853204
235	0xbd48777f	-0.048942085
236	0xbd783d5e	-0.0606054
237	0xbc76ccfe	-0.015063522
238	0x3dc58377	0.096442156
239	0xbc8ea546	-0.017412793
240	0xbcfebb89	-0.031095283
241	0x3beff17a	0.0073224874
242	0x3d3f782e	0.04674547
243	0xbd86805a	-0.0656745
244	0xbdffa80f	-0.124832265
245	0x3ce07c00	0.027402878
246	0xbce9fb2a	-0.028562147
247	0xbc9b9434	-0.018991567
248	0x3d1aff35	0.03784104
249	0xbd7edea5	-0.06222405
250	0xbd6c5aad	-0.057703663
251	0xbd94b3c6	-0.072608516
252	0xbde3ae53	-0.11117234
253	0xbcc490b7	-0.023994787
254	0x3d30a2dc	0.043124065
255	0x3da523be	0.08063458

main.0.bias f4 [64]
0	0xbd9a5fb8	-0.07537788
1	0x3d966890	0.073441625
2	0x3b470802	0.0030369763
3	0x3dd1fdc1	0.10253478
4	0xbb7cfd3e	-0.0038603093
5	0xbd56479f	-0.052314397
6	0xbd258463	-0.040409457
7	0x3df9b0e0	0.12191939
8	0x3dd816cc	0.10551223
9	0x3dbb7ae7	0.09154301
10	0xbda5fe70	-0.08105171
11	0x3de77b5c	0.11302826
12	0xbd2bcfb6	-0.041946135
13	0x3c628926	0.013826644
14	0xbc25e674	-0.010125745
15	0xbdd16b4e	-0.10225545
16	0xbdad698c	-0.08467397
17	0xbc14a133	-0.009071636
18	0xbd298a1d	-0.04139148
19	0xbdb81331	-0.089880355
20	0x3d0b9f90	0.034087718
21	0x3dc41d00	0.09575844
22	0xbd5e8746	-0.054328226
23	0x3d7a8812	0.061164923
24	0x3827ccf0	4.0006766e-05
25	0xbbf131ac	-0.0073606577
26	0x3dabf8bc	0.08397052
27	0xbd77bf01	-0.06048489
28	0xbd72533b	-0.059161406
29	0x3b9fe8fc	0.004880069
30	0x3d1af18f	0.037828024
31	0xbd2cc229	-0.042177353
32	0xbcd4b4f7	-0.025965197
33	0x3d5b2b3b	0.053508025
34	0xbd9255fa	-0.07145305
35	0xbd896719	-0.067091174
36	0xbbd6435d	-0.006538792
37	0xbda18c70	-0.078881145
38	0xbd9468fd	-0.072465874
39	0xbd091268	-0.03346482
40	0x3e07717d	0.13226886
41	0xbdb10a50	-0.08644545
42	0xbd7fc552	-0.06244404
43	0xbd9bf44b	-0.076149546
44	0x3d96eb44	0.07369092
45	0xbd68914a	-0.056779183
46	0xbda887d5	-0.08229033
47	0xbc6e579e	-0.014547257
48	0xbd420a26	-0.04737296
49	0xbd838d05	-0.06423382
50	0x3d30147d	0.04298829
51	0xbd20e5be	-0.0392816
52	0x3d777b95	0.06042059
53	0xbd8db2ea	-0.06918891
54	0xbd865815	-0.06559769
55	0x3cab7e19	0.020934151
56	0xbdc992a7	-0.09842425
57	0xbd87a262	-0.06622769
58	0x3cda30ba	0.026634563
59	0xbda6d46f	-0.08145987
60	0xbdb47b20	-0.08812547
61	0x3dd81b40	0.105520725
62	0xbc53e07f	-0.012931942
63	0xbdbf7802	-0.093490615

main.3.weight f4 [64, 64]
0	0x3de94fe2	0.113921896
1	0x3dc3978a	0.09550388
2	0xbd41c003	-0.047302257
3	0x3dd943dd	0.10608647
4	0x3e193b20	0.1496396
5	0xbd86e6a8	-0.06586963
6	0xbd1d23c4	-0.038364187
7	0x3dc290bd	0.09500263
8	0x3d9f05c2	0.0776477
9	0xbc4fad07	-0.01267553
10	0x3d2869bc	0.04111646
11	0x3d0ce405	0.034397144
12	0xbd6cd66b	-0.057821672
13	0xbe023e9d	-0.12719198
14	0x3dbf4a6a	0.09340365
15	0xbce3d3d7	-0.027810974
16	0x3d02dd22	0.03194917
17	0xbc51695d	-0.012781468
18	0x3da63489	0.08115489
19	0xbc964c3b	-0.018346896
20	0xbd948a7f	-0.072529785
21	0x3c9986ce	0.018741038
22	0x3bc3b05d	0.005971952
23	0x3d9ddf68	0.07708627
24	0x3d8606d6	0.065442726
25	0xbd862dbb	-0.06551691
26	0x3d4c6388	0.049899608
27	0xbdbd7001	-0.09249879
28	0x3d32810f	0.04358011
29	0xbc76867e	-0.015046714
30	0x3cf29835	0.029613594
31	0xbd3f777f	-0.04674482
32	0xbca005e7	-0.019534064
33	0x3dba45ae	0.090953216
34	0x3dee2737	0.116285734
35	0x3cfe2004	0.031021126
36	0x3d9d9913	0.07695212
37	0xbd582e8a	-0.052778758
38	0xbcd4b746	-0.025966298
39	0xbdaad55a	-0.08341475
40	0x3d868a2b	0.06569322
41	0xbda2677d	-0.07929895
42	0xbd65cf83	-0.0561061
43	0xbd9fdb4e	-0.07805501
44	0x3dbe031b	0.09277936
45	0xbd205a67	-0.039148714
46	0xbd94004b	-0.072266184
47	0x3d8259dc	0.063647956
48	0x3d103ffd	0.035217274
49	0xbcdff146	-0.027336728
50	0x3db8e458	0.09027928
51	0x3e016cf7	0.12639223
52	0x3d0ca213	0.034334254
53	0x3d92a168	0.07159692
54	0xbd1352f6	-0.03596779
55	0xbc5e2edc	-0.013560977
56	0xbda12f05	-0.078702964
57	0x3af5a964	0.0018742499
58	0x3d28a983	0.041177284
59	0x3d38118c	0.04493861
60	0x3bc60743	0.006043346
61	0xbd91b78f	-0.07115089
62	0x3ca3a9ae	0.01997837
63	0x3da46288	0.08026606
64	0xbdacb7cb	-0.08433493
65	0xbdf1f251	-0.11813796
66	0xbd8d82f9	-0.06909747
67	0x3cbe2e71	0.023215504
68	0x3c9f0d6d	0.019415582
69	0x3db45192	0.08804621
70	0xbc809cd9	-0.01569979
71	0xbde4d314	-0.111730725
72	0xbd40e18e	-0.047090106
73	0xbd4a6a50	-0.049417794
74	0x3d9e64ee	0.077340946
75	0xbe030d35	-0.12798007
76	0xbdf5feb7	-0.120114736
77	0xbccf7c80	-0.02532792
78	0x3bd7567a	0.006571588
79	0xbdb2b0ac	-0.08725104
80	0xbd2d9256	-0.042375885
81	0xbc9ea73e	-0.019366857
82	0xbda35eb3	-0.07977047
83	0x3db82bb6	0.08992712
84	0xbe066fb9	-0.13128556
85	0x3cab45f7	0.020907385
86	0xbe12c739	-0.1433381
87	0x3ce2a8bf	0.027668355
88	0xbe03807d	-0.12841983
89	0x3db1f045	0.08688406
90	0x3d648a22	0.055795796
91	0xbd9864b2	-0.07441081
92	0x3d6f5c49	0.05843762
93	0xbde5e169	-0.11224634
94	0xbd46a96c	-0.048501417
95	0x3d497c54	0.049190834
96	0x3dafc560	0.08582568
97	0xbd39f7c8	-0.04540232
98	0x3da3deb2	0.0800146
99	0xbdbad27b	-0.09122177
100	0xbddc7fa6	-0.107665345
101	0x3d849cd4	0.06475225
102	0x3d96c8f3	0.07362547
103	0xbd80ad81	-0.06283093
104	0xbd535890	-0.05159813
105	0x3d2a332c	0.041552708
106	0x3dd3a75e	0.10334657
107	0x3ded01f6	0.1157264
108	0xbd20786c	-0.039177343
109	0x3d1750cc	0.03694229
110	0xbdd8670b	-0.10566529
111	0x3c7804e9	0.015137889
112	0xbd2da0e0	-0.04238975
113	0xbcb61bf0	-0.022230119
114	0x3dc0a1e2	0.09405877
115	0x3d668c71	0.05628628
116	0x3dd69217	0.10477083
117	0xbcfee3ab	-0.03111442
118	0x3dc32244	0.0952802
119	0x3dbc8453	0.09204926
120	0x3d304738	0.04303667
121	0x3da314fd	0.079629876
122	0xbdd4d012	-0.10391249
123	0xbd8f388f	-0.069932096
124	0x3e0c6c8c	0.13713282
125	0x3c3bf437	0.0114718
126	0xbdbc01c4	-0.09180024
127	0x3dd3f970	0.10350311
128	0xbda62508	-0.08112532
129	0xbc2913b5	-0.01031964
130	0xbd352c93	-0.044231962
131	0xbd5efa0b	-0.05443768
132	0xbbc0d463	-0.0058846935
133	0x3d3d03d3	0.046146225
134	0xbde2f500	-0.11081886
135	0xbd813a1f	-0.06309914
136	0xbc1b994c	-0.009496998
137	0xbb6a3ef9	-0.00357431
138	0x3d0787f9	0.033088658
139	0x3bbc552c	0.005747458
140	0x3cf1034d	0.02942052
141	0xbe0293fe	-0.12751767
142	0xbe04487e	-0.12918279
143	0x3e000b35	0.12504275
144	0xbc189b5c	-0.009314384
145	0xbbc863ac	-0.0061153974
146	0x3c1c871d	0.009553698
147	0xbd5a0031	-0.05322284
148	0xbd8c1df3	-0.0684165
149	0xbc2304ca	-0.009949872
150	0x3c5a78d0	0.013334468
151	0x3d298c91	0.04139382
152	0x3d626b7b	0.055278283
153	0xbc128ea8	-0.008945145
154	0xbd5ee998	-0.05442199
155	0x3dd53bdb	0.10411807
156	0xbdd6f66f	-0.10496222
157	0x3c9147b0	0.017734379
158	0xbd54396b	-0.05181257
159	0xbcc3305b	-0.023826769
160	0xbe283635	-0.16426928
161	0xbc8d51e1	-0.017250957
162	0x3dcdca1e	0.100483164
163	0xbdc809e2	-0.0976751
164	0xbd6ccc1f	-0.057811853
165	0xbd13169c	-0.035910234
166	0xbc91090d	-0.017704511
167	0xbd21ee22	-0.03953374
168	0xbd188789	-0.03723863
169	0x3ccf6299	0.02531557
170	0x3c18b7d7	0.009321175
171	0x3e1d0a56	0.15335974
172	0x3d155b0f	0.036463793
173	0xbdcacbf6	-0.09902184
174	0xbcd8a655	-0.0264465
175	0x3d77b5e9	0.060476217
176	0xbb4f39d0	-0.0031620152
177	0xbd89df73	-0.06732073
178	0x3df7ce64	0.12099913
179	0x3da275f8	0.07932657
180	0x3d24e419	0.040256593
181	0xbde3a447	-0.11115318
182	0xbd0e1924	-0.034691945
183	0x3d1fc9b7	0.03901073
184	0xbdc1f44f	-0.09470426
185	0xbd351f5c	-0.04421936
186	0xbd2a95df	-0.041646834
187	0x3d7d80e9	0.061890516
188	0x3e0af8fd	0.13571544
189	0x3c9ef582	0.019404177
190	0xbd379300	-0.044817924
191	0xbaefa862	-0.0018284435
192	0x3cddb719	0.027064847
193	0x3d2cfd48	0.042233735
194	0xbd0bae8e	-0.034102015
195	0x3d2bb726	0.04192271
196	0x3dc1555e	0.094401106
197	0x3dc6bd3e	0.09704064
198	0xbca899e9	-0.020581203
199	0x3dc5d789	0.09660251
200	0x3dbd3235	0.09238092
201	0xbdcf6536	-0.10126726
202	0x3e0793cb	0.13239972
203	0x3d17f815	0.037101824
204	0xbbc82b02	-0.0061086426
205	0x3c6da00a	0.014503488
206	0x3ce6030d	0.028077627
207	0x3e0b3c4d	0.13597222
208	0x3e0e2c71	0.1388414
209	0x3db0acc0	0.086266994
210	0x3d8fa5f4	0.07014075
211	0xbd7f0973	-0.06226487
212	0xbe2c6d04	-0.16838461
213	0xbd571fb7	-0.05252048
214	0xbd06359b	-0.032765966
215	0x3d6c52a6	0.057696007
216	0x3cec1731	0.028819652
217	0x3e1a4107	0.15063868
218	0x3e0510a9	0.12994637
219	0x3c2c9952	0.010534601
220	0x3c74f9d1	0.014952139
221	0xbdb71297	-0.089390926
222	0xbda790c7	-0.08181911
223	0x3c293911	0.010328547
224	0x3d9cd4ae	0.07657753
225	0x3c945971	0.018109055
226	0x3cf019e4	0.02930922
227	0x3e0ddfb7	0.13854872
228	0x3c4de787	0.012567407
229	0xbd8f957b	-0.07010933
230	0x3d94fdec	0.07274994
231	0xbddb56ff	-0.107099526
232	0x3d7f6c99	0.062359426
233	0x3e151a33	0.14560775
234	0xbd3c0fcb	-0.0459135
235	0xbdacabf7	-0.08431237
236	0x3b5e925a	0.0033961744
237	0x3cd38a20	0.0258227
238	0x3be8b0c3	0.0071011498
239	0xbdb562df	-0.08856749
240	0x3d1a8d1b	0.037732225
241	0x3e09d78d	0.13461132
242	0x3c4083fe	0.011750219
243	0xbca730e2	-0.020409051
244	0x3d1c2e9b	0.038130384
245	0xbd6a27a4	-0.05716671
246	0x3c07177a	0.008245343
247	0x3df2b761	0.11851383
248	0x3ce64ad5	0.028111855
249	0x3d624f5f	0.055251475
250	0xbd61508a	-0.05500845
251	0xbca7ffe0	-0.020507753
252	0x3b0394ce	0.0020077708
253	0xbcafee7c	-0.021476023
254	0xbd44fdd1	-0.04809362
255	0xbd1cb024	-0.03825392

main.3.bias f4 [64]
0	0xbdcb5b84	-0.099295646
1	0xbde3d24f	-0.111240976
2	0x3d8d2f22	0.068937555
3	0xbd3809b9	-0.044931147
4	0xbda59a1a	-0.08086033
5	0x3df06196	0.11737363
6	0x3dcbbdbd	0.09948299
7	0xbd528bf0	-0.051402986
8	0xbbe81288	-0.007082287
9	0x3cc66e92	0.024222646
10	0xbdade384	-0.08490661
11	0x3d45cff6	0.04829403
12	0x3dc08218	0.093998134
13	0xbc89099d	-0.016728217
14	0x3d06574e	0.032798104
15	0xbd3c99d3	-0.046045136
16	0x3de954ec	0.11393151
17	0xbd5e2125	-0.054230828
18	0xbd0833f3	-0.033252668
19	0x3c094362	0.008377882
20	0xbccf9d0d	-0.025343442
21	0x3cd7f5a6	0.026362251
22	0xbd66d18a	-0.056352176
23	0xbde3590d	-0.111009695
24	0xbb3e50e2	-0.002903991
25	0x3c0d3ba5	0.008620177
26	0xbd22e758	-0.039771408
27	0x3d9c1dbc	0.07622859
28	0x3e1d5faf	0.15368532
29	0x3d9210d7	0.07132118
30	0x3dae0c06	0.08498387
31	0x3b559282	0.0032588546
32	0xbdd42104	-0.1035786
33	0xbd1de5fc	-0.03854941
34	0x3c4786a8	0.012178101
35	0x3dcb4aa9	0.0992635
36	0xbd973034	-0.07382241
37	0x3d5594f0	0.05214399
38	0xbd9bae68	-0.07601625
39	0xbdc32108	-0.095277846
40	0xbc18737f	-0.00930488
41	0xbd48f08e	-0.049057536
42	0x3da9b1b9	0.08285851
43	0xbd60f2a1	-0.05491889
44	0x3de14d90	0.11001122
45	0xbda4388c	-0.08018598
46	0x3d282022	0.04104627
47	0x3c2d7ec8	0.010589309
48	0xbb507d67	-0.0031813027
49	0xbdb1ed98	-0.086878955
50	0x3d1c1df4	0.038114503
51	0x3cfa6c9f	0.030569373
52	0xbdcf241c	-0.10114309
53	0xbc94f2f3	-0.018182253
54	0x3daef7d5	0.08543364
55	0x3d86c23c	0.06580016
56	0xbc334e8c	-0.01094402
57	0x3ce1ed70	0.02757904
58	0xbd07896c	-0.03309004
59	0xbc43be69	-0.011947253
60	0xbdc1d292	-0.09463991
61	0x3d74336f	0.059619363
62	0x3d36eadb	0.04465757
63	0xbd9c045d	-0.0761802

main.6.weight f4 [1, 64]
0	0xbd6a1cd0	-0.057156384
1	0xbd83953f	-0.06424951
2	0x3c0173a9	0.007901111
3	0xbd45447b	-0.04816101
4	0xbe041ec5	-0.12902363
5	0xbd987ffe	-0.074462876
6	0x3c96ca62	0.01840705
7	0x3dea6810	0.114456296
8	0xbd1c9172	-0.038224645
9	0x3bf55b73	0.0074877082
10	0xbd6d2fce	-0.05790692
11	0xbd90734e	-0.070532426
12	0xbd5a35d6	-0.053274
13	0x3cc6773f	0.024226783
14	0x3d9f84d8	0.0778901
15	0xbd83ccb9	-0.06435532
16	0xbd287e43	-0.041136038
17	0xbda896bd	-0.08231876
18	0x3c22f469	0.009945967
19	0xbdbcd803	-0.092208885
20	0xbd104328	-0.035220295
21	0xba9ce42a	-0.0011969854
22	0x3d477058	0.048691124
23	0x3d5d525f	0.054033633
24	0xbdb588b5	-0.088639654
25	0x3d30f03e	0.043197863
26	0xbe02f6c3	-0.12789445
27	0x3d6e96d7	0.05824932
28	0x3d4f6cdb	0.050640922
29	0xbd9bea1a	-0.07613011
30	0xbc0f7194	-0.0087551065
31	0xbdc2ab00	-0.09505272
32	0x3d8479e4	0.06468561
33	0xbc764126	-0.015030181
34	0x3d706563	0.05869044
35	0xbc9536f8	-0.018214688
36	0x3bd40c88	0.0064712204
37	0xbc99e5a8	-0.018786266
38	0x3d3fad18	0.046795934
39	0x3dac40bb	0.08410784
40	0xbc94fafc	-0.018186085
41	0xbd1302ea	-0.03589145
42	0xbdab9c30	-0.083794
43	0xbda02fcd	-0.07821617
44	0x3ca3a745	0.019977221
45	0x3cf5ec0f	0.030019788
46	0x396cb398	0.00022573618
47	0xbdd4cc5e	-0.103905424
48	0xbda4e8d2	-0.080522195
49	0x3cb33292	0.0218747
50	0xbd99033c	-0.0747132
51	0x3d138985	0.03601982
52	0x3df7982d	0.12089572
53	0x3cc1717d	0.023613686
54	0x3c8c2b7d	0.01711058
55	0x3c07af3d	0.008281526
56	0xbd1d5284	-0.03840877
57	0xbdfb52e3	-0.12271669
58	0xbddefb6a	-0.10887797
59	0xbd056f96	-0.03257712
60	0x3d50afce	0.05094891
61	0x3cf5d7eb	0.030010184
62	0xbd434940	-0.04767728
63	0x3d70ef9f	0.05882227
