models/VANE_node_pred_n2v_model/Discriminator_epoch_1.pth (torch, 35999 bytes, 5 tensors)

main.0.weight f4 [64, 64]
000000 b0 e0 da bd 5b 64 f9 bd 15 d2 ad 3c 39 5a e4 3c
       -0.10687387 -0.121773444 0.021218339 0.027875053
000010 b6 15 cb bd 37 87 06 be 06 06 c6 bc 86 06 db 3b
       -0.099162504 -0.13137518 -0.024172794 0.0066841273
000020 d8 8a 39 3b a0 5c 84 3d 6e a0 c0 bd 67 f7 5e 3c
       0.0028311517 0.06462979 -0.094055995 0.01360879
000030 dd 27 e8 bd 89 e5 fd 3c 4a f8 0e bd ca 59 65 bd
       -0.11335728 0.03099324 -0.034904756 -0.055993833
000040 c6 43 54 bd 20 7e 45 bd 6e b0 08 bd eb 7f 19 3d
       -0.051822446 -0.048215985 -0.03337138 0.037475508
000050 90 fd 46 bd b6 df 8d 3c e8 ef 52 3d f5 57 21 3b
       -0.04858166 0.017318588 0.051498324 0.0024619077
000060 a6 6a ad bd 9f 39 81 bc c0 8c 01 be 39 ea a8 bb
       -0.08467607 -0.015774546 -0.12651348 -0.0051548746
000070 67 96 aa bd 90 23 51 3d 82 48 c5 3d 64 39 a6 3b
       -0.08329468 0.051059306 0.096329704 0.0050727595
000080 b5 51 ac 3d 0f 96 21 3d eb 82 30 bd 96 32 d7 3d
       0.08414022 0.039449748 -0.043093603 0.105076954
000090 68 3f ce bd d5 f7 17 bd 66 d4 c2 bd 56 ad e1 bb
       -0.100706875 -0.037101585 -0.09513168 -0.0068871183
0000a0 cd a6 c9 bd c8 99 83 3d 3f 8a 98 3b 5d ac a5 bb
       -0.09846268 0.06425816 0.004655152 -0.0050559477
0000b0 e4 2b b6 3d ed 60 12 bc 7a ae 60 3c 31 b5 c3 ba
       0.0889509 -0.008934242 0.013713473 -0.0014931319
0000c0 2b 90 a4 3d 91 6f 96 3d 0f 7e bc bd a5 be c3 bd
       0.0803531 0.07345498 -0.09203731 -0.09557847
0000d0 71 68 bc bd d5 99 ef 3d 04 9e 12 3e 88 b0 b6 bd
       -0.09199608 0.11699263 0.1431809 -0.089203894
0000e0 d6 7e f4 3c 9e f5 48 bd 84 7c fd 3d 55 dd 80 3d
       0.029845636 -0.049062364 0.12377265 0.06292216
0000f0 3f 02 50 3d dd c8 5a bd a6 2f 7b bd ed 00 ba bd
       0.050783392 -0.053414214 -0.061324738 -0.09082208
000100 3d a8 09 3d be f8 56 3d b2 9a 4c 3d ce a8 4f bc
       0.03360771 0.052483313 0.049952216 -0.0126745235
000110 f6 a4 4f 3d b2 20 93 3d 9d 90 17 be f8 36 00 3d
       0.05069443 0.071839705 -0.1480126 0.031302422
000120 53 c8 31 bc 51 e5 41 3d 7c 44 60 bd 64 c2 6a 3c
       -0.010850984 0.047337834 -0.05475281 0.014328573
000130 ee 8e 49 3d d8 6c cc bb ff 0d bc 3c 5e b9 e1 3d
       0.049208574 -0.006238561 0.022955893 0.11021684
000140 c6 71 16 bd 74 00 43 3d c3 c9 0b bc a7 40 06 3d
       -0.036729597 0.047607854 -0.00853199 0.0327765
000150 2b 9e 0c 3e e3 93 d4 bc fc 74 37 bd c0 1f fc 3d
       0.13732211 -0.025949424 -0.0447893 0.12310743
000160 fe 67 47 3d 7a 2c c1 3d 98 84 9b bd 4d 51 a5 bd
       0.04868316 0.09432311 -0.075936496 -0.080721475
000170 45 5b b1 3d e7 56 ba 3d c6 ef d9 3d f9 71 b9 3c
       0.086599864 0.090986066 0.10641436 0.022637354
000180 6f d0 b6 bd 68 30 c2 bd f7 08 f5 bd ce aa 6c 3d
       -0.08926474 -0.09481889 -0.119646005 0.05778008
000190 17 51 89 3d 6d fd 6e bd e2 93 8a 3d c2 9a a3 3c
       0.0670492 -0.058347154 0.06766488 0.019971255
0001a0 e3 0d a0 3d e9 58 93 bc 4d 56 f8 3d f8 2a ba 3d
       0.07815149 -0.017986732 0.121258356 0.09090227
0001b0 1c a1 b2 bd b0 46 b1 3d f7 86 7f 3d 44 f9 06 3b
       -0.087221354 0.08656061 0.062384572 0.0020595351
0001c0 a9 42 d9 3d db 1d 0d 3d 14 59 bb bd e1 4a aa 3d
       0.106084175 0.0344523 -0.0914785 0.08315063
0001d0 a6 58 a2 3d 27 2a a6 bd 19 4c 9f 3d a8 c9 b5 3c
       0.079270646 -0.08113509 0.07778186 0.022190884
0001e0 7e 2e 58 3d f5 1a e7 3c 70 cd 89 3d 98 b9 89 bd
       0.052778713 0.028211096 0.06728637 -0.06724852
0001f0 5c be 87 bd b7 6d 9a bb cb 16 9c 3d a2 ba 9d bd
       -0.06628105 -0.004712786 0.07621535 -0.07701613
000200 d5 3f fd 3d 45 3a ac 3d 36 b8 a2 bd 47 bf 00 3e
       0.123656906 0.084095515 -0.07945292 0.12572967
000210 a4 c4 96 3b 13 f6 1a 3b fc 63 cd 3c ce 00 01 bb
       0.004601078 0.0023645207 0.02507209 -0.0019684318
000220 83 8e b1 3c ca 06 6c 3d e3 56 fa 3d 0c 82 6c bd
       0.0216744 0.057623662 0.122236036 -0.05774121
000230 8a 87 e1 3b ad c0 06 3e f6 6c 5b 3d b8 1d f9 bd
       0.0068826126 0.13159437 0.05357071 -0.121638715
000240 b5 4b cf 3d fd 0e 68 3d fd 9d ba 3b 1b a8 da 3c
       0.10121862 0.05665492 0.005695103 0.026691487
000250 01 fa f6 bd 00 34 bc bd 0d e2 e5 3c a0 c3 5f bc
       -0.12059403 -0.09189606 0.028061891 -0.0136574805
000260 8b bb a9 bd 56 9b 92 3c c2 1d 10 bc 51 c1 c4 bc
       -0.08287724 0.017896336 -0.008796157 -0.024017962
000270 2c 21 44 3d 56 d8 9d bc 66 45 a0 3d e0 c1 eb 3d
       0.047883198 -0.019268196 0.07825737 0.11511588
000280 7b 89 f2 bd 30 84 3e 3c 20 5b a3 bc ad c0 9c bc
       -0.118426286 0.011628196 -0.019940913 -0.019134844
000290 62 d1 56 3c 9e 64 78 3d 06 7f b1 3d ea f0 8a 3d
       0.013111444 0.06064283 0.08666806 0.06784232
0002a0 23 79 ac 3c ca 69 7c bb 71 b5 e9 3d 01 91 25 bd
       0.021053856 -0.0038515204 0.1141156 -0.04042149
0002b0 44 3f d1 bd c3 79 09 bc 30 36 a4 3c e9 de a3 3c
       -0.10217145 -0.008390847 0.02004537 0.020003753
0002c0 97 c3 8f 3d 53 ec 23 3c 1a b3 28 bd 23 26 8c 3c
       0.07019728 0.010005075 -0.04118643 0.017108029
0002d0 fb df dd 3d 34 2c 13 3e ca 87 86 3d 96 5c b3 3a
       0.108337365 0.14372331 0.065688685 0.0013684209
0002e0 c6 11 2d bd 63 4e d0 bd 92 6a 4e 3d d4 d4 56 bd
       -0.04225328 -0.10171201 0.050394602 -0.052449062
0002f0 e3 52 26 3d c9 02 c1 bc 26 be a0 bd 8e 26 91 3d
       0.04060639 -0.023560898 -0.07848768 0.07087432
000300 4c ec 06 bd 89 68 d5 3d 4f 92 80 3d 6f e4 0c 3d
       -0.032940194 0.10420329 0.06277906 0.03439754
000310 59 0b 01 be 92 ad f7 3c 02 d0 aa 3d c6 a1 91 bd
       -0.12601985 0.030234132 0.083404556 -0.07110934
000320 7c 69 de 3d eb 07 4c bd 2b ec cb 3d ac c4 10 bd
       0.10859963 -0.04981224 0.09957155 -0.03534381
000330 d6 7a c0 3d bf 09 96 bd 07 24 70 bd 77 4a d2 3d
       0.09398429 -0.07326078 -0.05862811 0.10268109
000340 a0 c5 be 3d 01 f7 0d 3d e8 4e 81 3d cf d2 32 bd
       0.09315038 0.03465939 0.06313878 -0.043658074
000350 ab 12 09 3d 0c 49 8f bc 7e ee 81 3c 9a b0 10 3d
       0.03346507 -0.017490886 0.015860792 0.03532467
000360 71 27 c1 3d ed 5b a4 bd f5 d9 45 3d 95 ae 83 bc
       0.09431351 -0.08025346 0.048303563 -0.016074458
000370 0b 02 d8 3d 64 4d e2 bc 3f 63 46 bd 81 39 86 3d
       0.10547265 -0.027624793 -0.048434492 0.06553937
000380 af 60 9f bd 21 6e 96 bd a0 40 d1 3c 3f 5b ab 3c
       -0.07782113 -0.07345224 0.02554351 0.020917533
000390 f5 43 7e bc f4 27 6c bd fa 75 89 3d 65 19 5a bb
       -0.015519132 -0.05765529 0.06711955 -0.0033279296
0003a0 6d 77 87 bd 9c dc 57 3d a2 64 b4 3d aa e2 45 bc
       -0.066145755 0.052700624 0.08808257 -0.012077967
0003b0 7b f5 d0 bd 0b f4 d3 bc 9f 23 ea 3d 6d 25 18 3d
       -0.10203072 -0.025873205 0.114325754 0.037145067
0003c0 39 ec 0c bd b4 37 54 3d cc 04 9d 3d 6b 3f 88 bd
       -0.034404967 0.051810935 0.076669306 -0.06652721
0003d0 64 a0 01 be 96 c4 cf 3d ea 39 53 bd ea d8 1b bd
       -0.1265884 0.10144918 -0.051568903 -0.038048662
0003e0 f9 6f 3f 3d 5f 58 b1 bd 51 2a 43 bc c8 bd 6a bd
       0.046737645 -0.086594336 -0.0119119445 -0.057309896
0003f0 e8 e9 c6 bd b0 7c f5 bc a9 50 95 bc fd bd a2 3d
       -0.09712583 -0.029966682 -0.018226938 0.07946394

main.0.bias f4 [64]
000000 f4 6d 92 bd 77 82 bf 3d f8 1a 4b bc 4e fd cb 3d
       -0.07149878 0.09351056 -0.012396567 0.099604234
000010 99 23 8d bc c9 52 20 bd cd 9c 90 bd a6 a7 04 3e
       -0.017228888 -0.03914145 -0.070611574 0.12954578
000020 53 31 ec 3d 93 43 d2 3d ab 70 85 bd 70 4e d7 3d
       0.11532845 0.10266795 -0.0651563 0.10513008
000030 5f 8c 82 bc 08 7a 88 bb dd 23 e7 3c 82 cc b4 bd
       -0.015936075 -0.004164938 0.028215343 -0.08828069
000040 4d 0a cf bd 15 21 74 bc e2 99 6e bd 3e 8d aa bd
       -0.101093866 -0.0149004655 -0.058252223 -0.08327721
000050 74 54 10 3d 13 b5 d0 3d 47 23 a3 bd 0c 5e ac 3d
       0.03523679 0.10190787 -0.07965713 0.084163755
000060 96 87 0f bc 37 e7 62 3a fd 0e b7 3d 63 3d 27 bd
       -0.008760354 0.00086556695 0.08938406 -0.040830027
000070 46 5b 46 bd 67 cf d8 bc 05 bf 50 3d bd 7c 06 bd
       -0.04842689 -0.026466085 0.05096342 -0.032833803
000080 ad 18 b2 3c 88 f3 06 3d 79 c5 9c bd e8 e6 8c bd
       0.021740282 0.032947093 -0.076548524 -0.06879979
000090 b1 de ac bc 8f 12 ab bd 9b bf 9f bd 52 40 67 bc
       -0.021102281 -0.08353149 -0.07800218 -0.014114456
0000a0 02 8b 04 3e d1 1b 8e bd e0 33 4f bd 0c c4 96 bd
       0.12943652 -0.06938899 -0.05058658 -0.07361612
0000b0 22 d1 91 3d 0c 24 bb bd 09 87 8a bd 0b 78 17 bc
       0.07119967 -0.09137735 -0.06764037 -0.009244929
0000c0 d1 7c 84 bd db 02 56 bd 90 fc 65 3d 32 fb 61 bd
       -0.06469119 -0.052248817 0.056149065 -0.0551712
0000d0 ab 34 70 3d 1e 4d 7d bd f1 89 5a bd d7 ed 3a 3d
       0.058643978 -0.061841123 -0.053354207 0.045636978
0000e0 ed e4 a2 bd bf 42 65 bd 39 b9 20 3d 6b 27 ca bd
       -0.079538204 -0.055971857 0.039239142 -0.098708
0000f0 bc 54 a2 bd ee 5c 97 3d f6 13 e0 3c 0a 09 b1 bd
       -0.07926318 0.07390772 0.027353268 -0.08644302

main.3.weight f4 [64, 64]
000000 2e ba dc 3d e4 41 f2 3d e6 73 59 bd ca 85 fe 3d
       0.107776985 0.11828974 -0.053089045 0.12427862
000010 9c 3e 0a 3e 8d 3b 80 bd 7b 6f 9b bd 9e 5c ce 3d
       0.13500446 -0.062613584 -0.075896226 0.10076259
000020 b2 fe 8b 3d fd 34 2e bc 56 ad 44 3d dd 5d 18 3d
       0.06835689 -0.010632751 0.04801687 0.03719889
000030 9d a2 4b bd 66 0f f4 bd 33 d5 95 3d bf 54 1b bc
       -0.049715627 -0.119169995 0.07316055 -0.009480654
000040 03 78 d3 3c 50 3d 00 bc e1 23 a3 3d 92 e0 bb bc
       0.025814062 -0.007827118 0.07965828 -0.022934232
000050 bf 58 0b bd 8b 2d 35 3c ee dd 44 3c 9e de b2 3d
       -0.03402018 0.011058222 0.012015803 0.08733867
000060 3c 1e 8f 3d 95 85 9f bc bd 91 54 3d 1c 6c 92 bd
       0.069881886 -0.019472877 0.0518968 -0.071495265
000070 97 68 56 3d 0c a8 8a bb 39 56 11 3d af 25 39 bd
       0.05234584 -0.0042314585 0.03548262 -0.045201954
000080 28 44 d8 bc 38 12 f4 3d 8e 22 dc 3d e2 30 1a 3d
       -0.026399687 0.119175375 0.10748778 0.037644275
000090 54 51 b4 3d 9c b2 4d bd 46 0f 2a bd 89 b4 b9 bd
       0.088045746 -0.050219163 -0.041518472 -0.090676375
0000a0 4e 5b aa 3d 9f a2 93 bd 6f 24 08 bd 0c aa a2 bd
       0.08318196 -0.07208752 -0.03323787 -0.0794259
0000b0 3f 3f 04 3e 4a 39 cc bc da e3 8b bd b4 e3 b7 3d
       0.12914751 -0.024929661 -0.068305686 0.08978978
0000c0 2b d3 67 3c 1c e0 85 bc b5 49 97 3d 34 52 f6 3d
       0.014149467 -0.016342215 0.073871054 0.12027398
0000d0 a7 3f 32 3d 11 7f 97 3d 2d 0b cc bc 32 13 b3 bc
       0.043517735 0.07397283 -0.024907673 -0.021859739
0000e0 c0 3b 8d bd c6 54 97 3c b0 89 20 3d 39 29 df 3c
       -0.06896162 0.01847304 0.03919381 0.027241336
0000f0 ef 76 45 3c a8 40 7c bd e9 9b 84 3a 99 d1 b1 3d
       0.012052282 -0.0615851 0.0010117266 0.08682556
000100 64 87 bd bd 8d a7 f6 bd 5f e9 af bd 35 e4 a4 3c
       -0.09254339 -0.120436765 -0.08589434 0.020128349
000110 cf 25 66 3b 9f da bb 3d 7d ce 32 bd af c6 01 be
       0.003511775 0.09172558 -0.043653954 -0.12673448
000120 e3 51 38 bd 7b 96 6a bd 9f f7 ad 3d cd 7f fc bd
       -0.04499997 -0.057272416 0.084944956 -0.123290636
000130 22 96 e9 bd 92 c8 06 bd d0 c7 87 bc 59 fc 9f bd
       -0.11405589 -0.032906123 -0.01657477 -0.07811803
000140 8e 83 71 bd b0 71 a3 bc a4 20 ba bd a4 1a a8 3d
       -0.05896335 -0.019951671 -0.09088257 0.08208206
000150 4f b6 03 be 6d 38 87 3c 1f 72 8f bd 08 58 0e 3d
       -0.12862514 0.016506398 -0.07004189 0.034751922
000160 82 76 0a be 56 bd c6 3d 8f 33 3c 3d 2c 50 94 bd
       -0.1352177 0.09704082 0.045947608 -0.07241854
000170 2d a1 74 3d 21 2e c7 bd 4c 5b 55 bd 72 8e 57 3d
       0.05972402 -0.09725595 -0.05208902 0.05262608
000180 c0 ec ae 3d e8 6b 09 bd fe 9b 80 3d 73 3f d6 bd
       0.0854125 -0.033550173 0.06279753 -0.10461321
000190 90 44 df bd 44 94 76 3d 28 de 88 3d 91 15 87 bd
       -0.10901749 0.06019999 0.06682998 -0.0659591
0001a0 e8 bf 5b bd 65 32 48 3d 33 7f fa 3d b6 4c eb 3d
       -0.053649813 0.048876185 0.122312926 0.11489241
0001b0 60 6d b8 bc c9 c3 04 3d a7 d2 cd bd 7e b4 12 3d
       -0.022513092 0.032413278 -0.10049944 0.035816662
0001c0 94 ca 76 bd 52 5b 0c bc 18 de 9a 3d 28 07 5a 3d
       -0.060251787 -0.008566694 0.07561892 0.05322948
0001d0 db cb f5 3d 72 61 fb bc d9 51 d5 3d d5 6e b5 3d
       0.12001773 -0.030686114 0.10416002 0.0885903
0001e0 74 2d 5b 3d df 69 a0 3d 6f 03 e0 bd 52 32 95 bd
       0.053510144 0.07832693 -0.10938155 -0.072849885
0001f0 b7 bc 0d 3e 8c 41 fd 3c 16 5d da bd bc d7 d4 3d
       0.1384152 0.030915044 -0.10662286 0.103927106
000200 48 ac a9 bd 01 1e 35 bb d7 d2 29 bd 11 11 62 bd
       -0.08284813 -0.0027636292 -0.04146084 -0.055192057
000210 87 cc cf bc eb c8 43 3d 96 0e d7 bd 97 c8 e9 bd
       -0.02536608 0.047799032 -0.10500829 -0.114152126
000220 39 14 30 bd c1 e0 c3 bc e6 9f 0f 3d b5 59 cd 3c
       -0.042988036 -0.023910882 0.0350646 0.02506719
000230 8c 18 81 3c 2c e0 b6 bd e4 d0 10 be 18 82 00 3e
       0.015758775 -0.08929476 -0.14142185 0.12549627
000240 40 06 38 bc 85 81 c9 bc bb b0 d7 ba 4c 87 56 bd
       -0.011231959 -0.024597893 -0.0016455868 -0.052375123
000250 62 92 90 bd de a0 1d bd aa b9 31 ba 3f e6 92 3d
       -0.0705917 -0.038483493 -0.000677968 0.07172822
000260 26 dd dc 3a 75 8b ed bb 7d e4 84 bd 49 ea d9 3d
       0.0016850575 -0.0072492906 -0.06488893 0.106403895
000270 e6 2c d5 bd 0a 1e 09 3b 2a f3 5f bd cd b7 a5 bc
       -0.10408954 0.0020922446 -0.05467526 -0.020229245
000280 6d 70 f7 bd 3a c5 4b 3d cb 23 ca 3d 05 93 e3 bd
       -0.120819904 0.049748637 0.09870108 -0.11112026
000290 2a 17 cc bc 40 4c ef bc 8f f3 99 bc 7a 47 01 bd
       -0.02491339 -0.029211164 -0.018792896 -0.031562306
0002a0 91 cb fc bc 8a 68 e1 3c a3 8b 84 bc 82 c0 1b 3e
       -0.030858787 0.027515668 -0.016179865 0.15210155
0002b0 e0 9e a9 3d 90 00 c5 bd 9b 07 cb bc 08 50 81 3d
       0.08282256 -0.09619248 -0.0247839 0.06314093
0002c0 69 49 d7 bb 26 f7 80 bd b2 16 80 3d 56 2d a6 3d
       -0.0065700305 -0.0629714 0.06254329 0.08114116
0002d0 f8 7b 20 3d ad e2 dd bd 47 99 ef bc 23 21 7d 3d
       0.039180726 -0.108342506 -0.029247893 0.06179918
0002e0 ba f6 b5 bd e3 76 1e bd 76 00 88 bd 38 e5 76 3d
       -0.0888495 -0.038687598 -0.06640713 0.060277194
0002f0 ab 0b 0d 3e d7 09 96 3d be bf 92 bd 74 8a 01 3c
       0.13773982 0.073260956 -0.07165478 0.007906545
000300 78 80 eb 3c 1c bc 9a 3a 81 bf b9 bc e2 14 82 3d
       0.028747782 0.0011805329 -0.022674324 0.06351639
000310 ad c2 82 3d 5b c3 c4 3d 45 d8 3b bd 53 ec 63 3d
       0.06384788 0.096075736 -0.045860548 0.0556453
000320 f1 cb 85 3d 61 a7 d9 bd 2d 38 08 3e f3 75 64 3d
       0.06533039 -0.10627628 0.1330268 0.055776548
000330 6d 7c 55 b8 eb d6 11 3c 3e 4a 6a 3d 72 5b 0a 3e
       -5.0899038e-05 0.008901338 0.05719971 0.13511446
000340 19 37 14 3e 61 b0 c7 3d e7 1e 8a 3d 14 89 69 bd
       0.14474143 0.097504385 0.067441754 -0.057015494
000350 16 db 02 be 32 56 ad bd 2c 36 aa bc df 2c 12 3d
       -0.12778887 -0.08463706 -0.020777784 0.035687324
000360 e5 15 89 3c 48 1c 01 3e 6e 11 d2 3d 16 16 37 3c
       0.016734073 0.12608445 0.10257231 0.011174699
000370 a0 38 73 3c a1 c2 82 bd b6 14 e7 bd f7 af e5 bc
       0.014845043 -0.06384779 -0.11283247 -0.028038008
000380 93 cb 85 3d b6 02 4d 3d 6e 9c 16 3d 55 7d 0b 3e
       0.06532969 0.050051413 0.036770277 0.13622029
000390 d9 06 1a bb 42 62 97 bd ab d6 8b 3d ec a7 c2 bd
       -0.0023502617 -0.07391788 0.06828054 -0.09504685
0003a0 80 6f 4c 3d fd ce 13 3e ee 1a 28 bd eb f4 a9 bd
       0.049911022 0.14434429 -0.041041307 -0.082986675
0003b0 4e c0 c8 3b e3 e9 80 3b 1b 25 fe 3b b7 9c 89 bd
       0.00612644 0.0039341315 0.007755888 -0.06719344
0003c0 6e 6d ff 3c e6 b0 0d 3e 5e 1f d7 bc a6 1c 49 bd
       0.03118011 0.13837013 -0.026260074 -0.049099587
0003d0 05 a8 dc 3c 1f fe 6e bd f0 71 92 3c 6f fb de 3d
       0.026935587 -0.058347818 0.017876595 0.10887801
0003e0 fb e3 f5 3c fe 49 76 3d 6e 72 90 bd ec 7d 84 bc
       0.030015936 0.06012916 -0.07053076 -0.016173325
0003f0 f0 f1 d6 3b d6 f7 24 bd 3d 28 8b bc a9 a1 21 bd
       0.006559603 -0.040275417 -0.01698696 -0.03946081

main.3.bias f4 [64]
000000 60 c7 b0 bd 43 c8 e2 bd 34 8a 9e 3d ca 21 84 bd
       -0.08631778 -0.11073353 0.07741204 -0.06451757
000010 c7 cf ac bd 3e 2a ee 3d 28 d8 f5 3d 67 9b 53 bd
       -0.08438068 0.11629151 0.12004119 -0.051661875
000020 9b 5a 44 ba 39 be 79 3c 0e db e2 bd a5 1d 4a 3d
       -0.0007490308 0.0152431065 -0.110769376 0.049344677
000030 8a 68 c8 3d b5 9b 29 bd 41 89 0c 3d 80 b8 87 bd
       0.09785564 -0.04140826 0.034310583 -0.066269875
000040 6d 3f fb 3d 32 73 72 bd ef 23 09 bd a0 fd 7d 3c
       0.12267957 -0.05919189 -0.033481535 0.015502363
000050 5c 2f 35 bb dd 77 1e 3d 1d a8 64 bd c8 d6 e2 bd
       -0.0027646637 0.03868853 -0.055824388 -0.110761225
000060 37 65 07 3d 2a 95 bd 3c 1d 28 27 bd a9 95 9a 3d
       0.03305551 0.023142416 -0.04080974 0.07548077
000070 3e 89 0b 3e aa 8d 1d 3d 40 52 ce 3d 95 e6 4b 3c
       0.13626572 0.03846518 0.10074282 0.012445112
000080 68 3e c7 bd 3f 59 31 bd 0f 14 ed 3c f1 7f cc 3d
       -0.097287 -0.043298002 0.028940229 0.099853404
000090 91 10 64 bd 95 b4 68 3d a3 2f 98 bd 33 08 c4 bd
       -0.05567986 0.05681284 -0.07430961 -0.095718764
0000a0 22 ab ed bc 92 d6 37 bd 84 de c0 3d 25 d8 60 bd
       -0.029012267 -0.044882365 0.094174415 -0.05489363
0000b0 ca be ea 3d 13 40 92 bd b6 74 49 3d 5f 67 85 3c
       0.114621714 -0.071411274 0.04918357 0.016284643
0000c0 29 1f 85 3b 3a e0 b0 bd d6 c0 2e 3d 00 9b 26 3d
       0.0040625525 -0.08636518 0.04266437 0.040675163
0000d0 c1 2d bb bd cc 6a 40 bb b2 a9 a3 3d 61 09 98 3d
       -0.09139586 -0.002936053 0.07991351 0.07423664
0000e0 bb 6c fb bb bb 22 46 3d 72 0f 42 bd 1e 28 55 3c
       -0.007672874 0.048372965 -0.04737801 0.013010053
0000f0 c1 66 bd bd 4c 86 7d 3d e8 3d a8 3d 77 62 97 bd
       -0.092481144 0.061895654 0.08214933 -0.073918276

main.6.weight f4 [1, 64]
000000 0a e6 98 bd b5 06 b1 bd 5e d6 e4 bc 4d 6d 29 bd
       -0.074657515 -0.086438574 -0.02793425 -0.041364003
000010 c5 48 08 be bd ce 91 bd 03 b0 61 3d eb c4 ef 3d
       -0.1330901 -0.0711951 0.0550995 0.11707481
000020 d9 7c 56 bd ba 78 49 3d 5f c6 33 bd 85 2f c0 bd
       -0.052365158 0.0491874 -0.043890353 -0.09384064
000030 1c 47 a2 bd 93 b2 93 3c d0 85 d7 3d fa fa a6 bd
       -0.07923719 0.018029487 0.105235696 -0.08153339
000040 e0 eb 73 bd 36 63 aa bd 2a 50 20 3c 57 f6 be bd
       -0.05955112 -0.08319704 0.009784738 -0.09324329
000050 0e e7 07 bd 36 75 73 3c 21 e7 3a 3d 0c de 4b 3d
       -0.033179335 0.014859488 0.045630578 0.049772307
000060 e6 72 bf bd c9 0b 8b 3d 61 38 00 be a4 53 bc 3d
       -0.09348087 0.06789357 -0.12521507 0.09195641
000070 4e 6b 7c 3d 39 22 c7 bd 84 c2 cc bc fa 56 c5 bd
       0.06162577 -0.09723324 -0.024995096 -0.0963573
000080 dc 6c 9a 3d f2 d9 e5 bb 5b 35 b4 3d 2f 56 fd bc
       0.075402945 -0.0070145065 0.08799239 -0.030924885
000090 c2 26 bd bc ef d5 40 bd 38 d9 92 3d a7 a9 b5 3d
       -0.02308977 -0.047079023 0.071703374 0.08870249
0000a0 93 43 c0 bc 72 62 1b bd d8 3a c8 bd 42 78 e2 bd
       -0.023469722 -0.03793568 -0.097768486 -0.110580936
0000b0 c7 bc 27 3d 5a 43 ba 3c 7c 52 4a ba 98 01 dd bd
       0.040951516 0.022737194 -0.00077179796 -0.107913196
0000c0 39 29 a6 bd 28 4a 28 3d a8 19 b6 bd 0e d1 b4 3d
       -0.08113331 0.041086346 -0.08891612 0.088289365
0000d0 4a e1 f0 3d 95 09 d8 3c aa 03 10 3d 03 d7 2d 3d
       0.117617205 0.026371757 0.035159744 0.04244138
0000e0 d3 64 9b bd 59 16 0e be 64 ba dc bd f7 3e 17 bd
       -0.0758759 -0.13875712 -0.10777739 -0.036925282
0000f0 71 95 52 3d dc 18 8c 3d 29 a8 81 bd a4 df 71 3d
       0.05141205 0.06840679 -0.06330902 0.05905117
