models/VANE_node_pred_n2v_model/Discriminator_epoch_8.pth (torch, 35999 bytes, 5 tensors)

main.0.weight f4 [64, 64]
00000000: 4222 d7bd ae53 f6bd d6e8 a83c 8b31 da3c
00000010: 9243 cdbd 767e 06be c649 aebc 8d53 cd3b
00000020: bca3 20bb 048e 813d 953c bbbd 0a62 663c
00000030: 8a49 e3bd 6465 093d ebc8 0bbd 8590 5dbd
00000040: 88bb 66bd 14d1 48bd 1a48 30bd 003e 143d
00000050: e60c 42bd 4562 563c d783 623d 8ffc 353b
00000060: 360b acbd 09a3 81bc f427 febd f177 8cba
00000070: 97f8 a8bd b1ee 453d c4f4 ca3d e233 62ba
00000080: ae8d aa3d e882 203d 76dd 32bd 5488 db3d
00000090: ad7c cbbd f454 24bd 0586 c4bd 651a 10bb
000000a0: 5a7f bfbd 2732 7e3d 93e5 b13b 80d6 f8bb
000000b0: 684e a33d 38c6 30bc b9ac 933c e587 8939
000000c0: 0f23 a23d 5186 a23d b603 bcbd ff44 c1bd
000000d0: cf5c b8bd c903 013e b662 113e a933 aebd
000000e0: 24e0 0d3d a979 4fbd b195 033e 3e2d 8a3d
000000f0: 8846 483d b477 61bd cefd 6fbd bd17 b4bd
00000100: 5c8a 2a3d d315 813c 8dd5 333d c144 3dbb
00000110: bab1 6b3d b31d c63d 3499 e7bd 52db 613c
00000120: d382 773c 0720 503d ecdf 04be 69d6 0bbc
00000130: 44c3 933d c04f 82bd cf0c 8d3c d4ff f73d
00000140: 3398 3d3d 55b4 493d ed1b 303c c955 a8bc
00000150: c6b3 ee3d bb6f 8dbb fed1 f8bd 6757 053e
00000160: 901f f53c 32cb 9b3d 2d9e 1cbd 979c a6bd
00000170: da32 8f3c ba9c 3e3d 5bc5 c13d 13b4 323c
00000180: d675 f4bc 34a6 49bd 66c4 8fbd 5c82 193d
00000190: 0a22 263e 3c7c 2abd 31db 183d 10bc 11bc
000001a0: 0339 613d a782 56bd 70c6 f23d 98aa 673d
000001b0: bc23 50bd 3dda f93d 3939 14bc d69e 9cba
000001c0: c1c1 713d 64fa 90bd 4821 b0bd d9f9 ee3d
000001d0: 37b7 463d 9ddd c7bd 94fc cc3b ced6 23bd
000001e0: ce4e 853c a7f9 b03d 1a19 c63d ffd7 a83c
000001f0: f45f 1cba 4b1f b83b 13b8 6e3d 6baf eeba
00000200: 1e97 fd3d 7a86 973d d39a 83bd 5e76 d63d
00000210: 5ed3 04bc 69e0 5c3c 0c65 8d3c cf4b dd3c
00000220: 45be 883c 6580 a63d 3430 0c3e b642 55bd
00000230: f5cd 43bc 03b0 123e c409 653d 0346 03be
00000240: a55b b73d e2b9 8e3d eb5c 1d3c 7e71 0c3d
00000250: fbe7 ebbd 5ec7 b6bd aa28 c73c e848 e5bb
00000260: 9333 aabd aa1e 723c 74ce 033d 47aa cbbc
00000270: b574 863d ad79 b5bc 784d 8a3d f3c6 063e
00000280: c019 d7bd f06e 3a3b 1b90 b7bc cc2a 85bc
00000290: 0581 a73c c803 703d 32ff ad3d d02d 9b3d
000002a0: 634b 123d e735 88bb 7f56 e93d 4d23 babc
000002b0: 1215 fdbd 7d8d 78bc f07e f83c 8e8b 003d
000002c0: 091a 8f3d 3011 563b 1d38 32bd c5ec 5e3b
000002d0: fd96 da3d 5f33 113e 6f1b 863d 98c8 06bc
000002e0: b48e 9cbd fe90 efbd bb22 463d 1a82 77bd
000002f0: b00a 303d bedc d1bc 18cc a3bd 07a4 3d3d
00000300: 53b3 06bd 6e02 b53d b9a3 f2bb 7ca5 153d
00000310: f232 a2bd 599a cabb eea8 4b3d 0c21 85bd
00000320: 4944 c03d 48ba 1dbb 223e d13d 24f2 c7bd
00000330: eacc 133e d6bf debd e3d0 9ebd fb2f d73d
00000340: a76d c13d 85ec e23c 7edd 663d a4bd 21bd
00000350: a152 ec3c 6262 23bd 8846 c03c 4575 f5b9
00000360: 85bd 9c3d a648 44bd 54f5 183d e158 b6bb
00000370: 14e2 cd3d 8467 19bb fe67 abbc 0365 c63c
00000380: b84d 80bd 4e56 c1bd 4b0a 7a3c cb2f 5ebc
00000390: 1833 6e3c 011d a3bd 2f22 803d d2c3 8b3b
000003a0: f8d5 40bd a05f 7b3d f1c0 363d d761 44bd
000003b0: b412 70bd 5609 81bc 64ca c43d 06dd 9bbc
000003c0: 39b6 06bd a22f a33b c67a 433d cc1d 85bd
000003d0: 844a fdbd c64d ef3c 60b5 b6bc 5ce3 37bc
000003e0: df40 283d ae40 82bd e47e 5cbd a73f 8fbd
000003f0: 9bfa d8bd 829f c7bc 9907 223d da3c b23d
-0.10504581 -0.120276794 0.020618837 0.026634952 -0.10022654 -0.13134179 -0.021275412 0.0062660635
-0.0024511656 0.063259155 -0.091424145 0.01406146 -0.11098011 0.03354396 -0.034127157 -0.054092903
-0.056331187 -0.049027517 -0.04303751 0.03619194 -0.047375582 0.013084953 0.055301514 0.0027768945
-0.08400576 -0.015824812 -0.12409964 -0.0010716898 -0.0825054 0.048323337 0.099099666 -0.0008628947
0.083278045 0.039187342 -0.043668233 0.10719362 -0.099358894 -0.04012008 -0.09595875 -0.0021988389
-0.09350462 0.062059548 0.0054289787 -0.00759393 0.07973939 -0.0107894465 0.018026697 0.00026231926
0.07916843 0.07935775 -0.09180395 -0.09436988 -0.09002077 0.125991 0.14197811 -0.08505947
0.034637585 -0.050653134 0.12850071 0.067469105 0.04889539 -0.0550458 -0.058591656 -0.0879359
0.041635856 0.015757477 0.04390483 -0.0028880092 0.05754254 0.096736334 -0.11308518 0.0137852
0.0151068745 0.050811794 -0.12976044 -0.008535006 0.07214978 -0.06362867 0.017218022 0.12109342
0.046287727 0.049244244 0.0107488455 -0.020548718 0.11655383 -0.004316298 -0.12149428 0.13021623
0.029922277 0.07607116 -0.038236786 -0.08135336 0.017480303 0.046536185 0.09461471 0.010907191
-0.029841345 -0.04923077 -0.07019882 0.037477836 0.16223922 -0.041622385 0.037318412 -0.008894935
0.05498601 -0.052370694 0.11854255 0.056559175 -0.05081533 0.12199829 -0.009046846 -0.0011949192
0.05902267 -0.07079008 -0.08600098 0.116687484 0.04851457 -0.09759066 0.0062556956 -0.039999776
0.016272929 0.086413674 0.096727565 0.020610807 -0.0005965226 0.005618965 0.058281016 -0.0018210238
0.12382339 0.07398696 -0.06426015 0.104717955 -0.0081070345 0.013481238 0.017260097 0.027013687
0.01669229 0.08129958 0.13690263 -0.052065574 -0.011950959 0.14324956 0.055917516 -0.12819676
0.08953027 0.06969048 0.009604673 0.034287922 -0.11518856 -0.08924745 0.024311382 -0.0069972165
-0.08310618 0.014777819 0.03217931 -0.024861468 0.06565229 -0.022152746 0.06753057 0.1316183
-0.10502958 0.0028447472 -0.022407582 -0.016255759 0.020447263 0.058597356 0.0849594 0.075770974
0.035716426 -0.0041568163 0.11393451 -0.02272191 -0.123575345 -0.015170452 0.030333966 0.03138309
0.06987388 0.0032664053 -0.043510545 0.0034015637 0.1067333 0.14179753 0.06548201 -0.008226536
-0.07644406 -0.11697577 0.048372965 -0.06042681 0.042978942 -0.025617953 -0.07997912 0.046299007
-0.03288586 0.08838354 -0.007404771 0.03653477 -0.07919873 -0.0061829505 0.04972165 -0.06500444
0.09388024 -0.002406733 0.10216929 -0.097629815 0.14433637 -0.108764336 -0.07754686 0.105071984
0.09444743 0.027700672 0.056363575 -0.039487496 0.028847994 -0.039888747 0.023471132 -0.00046817414
0.076533355 -0.047920845 0.037343338 -0.0055647944 0.100528866 -0.0023407647 -0.02092361 0.024218088
-0.06264824 -0.094402894 0.015261243 -0.013561199 0.014538549 -0.079645164 0.0625652 0.004265287
-0.047079057 0.061370492 0.044617597 -0.04794487 -0.058611587 -0.015751522 0.096089154 -0.01902629
-0.032888625 0.0049800435 0.047724508 -0.06499824 -0.12367728 0.02921189 -0.022303283 -0.01122364
0.04107749 -0.06359993 -0.05383195 -0.069945626 -0.10594674 -0.024368051 0.039558027 0.08703013

main.0.bias f4 [64]
00000000: d3a1 9abd 857a 943d 46f3 52bc ecab d13d
00000010: 1017 a4bc 2328 54bd a021 1ebd 18dd ef3d
00000020: 72b1 e73d e3b7 b63d 2280 a6bd 7b5c e33d
00000030: 53f7 28bd 3ef8 943c 828f 36bc 0aff d2bd
00000040: 2aa1 bbbd a331 e7bc 8937 03bd a7de b7bd
00000050: b066 213d 2a59 c53d adc6 b1bd 30f6 803d
00000060: 0a16 02bb 8448 f9bb 00be a73d 5e01 81bd
00000070: 5e6c 72bd 4f10 e33a bd5a 2c3d 320e 38bd
00000080: 56b8 c3bc 3142 583d 45bd 97bd ce89 96bd
00000090: 1a61 32bc 309b b2bd e3c0 94bd ef1a 07bd
000000a0: 3755 083e 40cd b0bd 3362 8bbd b6ec 9fbd
000000b0: e29e 933d 77ad acbd 62cf a8bd 75aa 20bc
000000c0: 205a 46bd a9b8 83bd 0d3a 373d b586 2bbd
000000d0: 0414 6b3d f142 90bd 4510 87bd b048 a43c
000000e0: 6559 c9bd c4a7 a4bd 1724 0b3d ef63 a6bd
000000f0: 4870 bcbd d66a cf3d 23b1 26bc 8099 c5bd
-0.07550397 0.07249931 -0.012875384 0.102378696 -0.020030528 -0.05179609 -0.038606286 0.11712092
0.11313142 0.08921792 -0.08129908 0.111016236 -0.04125149 0.018184777 -0.011142613 -0.10302551
-0.09161599 -0.02822191 -0.032035384 -0.089780144 0.03940457 0.09636147 -0.086804725 0.062969565
-0.0019849562 -0.0076075215 0.081905365 -0.06299089 -0.05918538 0.0017323586 0.042078722 -0.044935413
-0.02389161 0.0527975 -0.07409147 -0.07350503 -0.010887409 -0.08721006 -0.07263353 -0.03298467
0.13313757 -0.08632898 -0.068058394 -0.07808821 0.07208039 -0.08431523 -0.0824268 -0.009806265
-0.048425794 -0.064317055 0.044733096 -0.041876514 0.057392135 -0.07044018 -0.065949 0.020054191
-0.09831504 -0.08039811 0.033969965 -0.081245296 -0.092011034 0.10127799 -0.010174069 -0.096484184

main.3.weight f4 [64, 64]
00000000: a962 ea3d 7b5b bb3d 2503 44bd 66e5 ce3d
00000010: e51b 113e d594 86bd e2c6 1bbd cba0 ba3d
00000020: 3bba 983d f619 88bc 2297 283d 5679 fa3c
00000030: a571 6cbd 8545 03be 9726 be3d 9ad8 debc
00000040: 7576 033d ae59 8fbc c5d6 a63d c182 95bc
00000050: 0c44 98bd e57e 8c3c 9b03 413c 9bbc 9e3d
00000060: b43c 7e3d ce71 83bd de31 3b3d 6ecf bcbd
00000070: b509 353d 071f 5bbc bd23 eb3c e48b 3fbd
00000080: 9e9c 9abc d282 ba3d dd30 ee3d d7a0 dd3c
00000090: 55c4 a33d 5e9a 5fbd 46b2 c9bc 6f90 aabd
000000a0: 98ed 743d 23b8 a1bd c64a 66bd 85bc a1bd
000000b0: 8af2 b83d 1cce 24bd 4678 93bd 9edd 793d
000000c0: 153d 113d c77d dfbc aa0e b33d c984 013e
000000d0: 1c91 0e3d 86b3 923d 3eb6 12bd d135 7dbc
000000e0: 96db a0bd 9e67 b938 a072 273d a857 3d3d
000000f0: 970d a63b 42e6 99bd 9b97 8d3c 89b4 a23d
00000100: 3569 b2bd 501b febd 0f89 9abd 0889 a33c
00000110: d90e a23b 95c1 b63d d87f 67bc 25e3 f9bd
00000120: 7e1b 20bd 4de8 44bd f7f6 9c3d 6be3 fcbd
00000130: 9077 f4bd 7094 8cbc 1074 b53b e18a b6bd
00000140: 4b27 3abd 9b3a 47bc 16f8 95bd 81d1 b13d
00000150: 500b 09be 8c77 c73c ccee bbbd 87ff 083d
00000160: dab2 02be 2510 bc3d 02e6 433d f23c 99bd
00000170: 90fa 6f3d 2e14 d0bd 0eed 46bd 77b0 4b3d
00000180: c953 ae3d 0a09 3fbd 0254 933d 7a31 d1bd
00000190: 9e00 d0bd ca19 793d 70cd 963d 4e86 80bd
000001a0: 6335 71bd dec6 2c3d 5e1f e03d 3fbf e23d
000001b0: f3d1 32bd ac6e 013d daa8 d6bd a8ca 103c
000001c0: 8ec9 31bd 1cf4 babc b69f c03d 0ebe 643d
000001d0: c9c5 d13d b62c 00bd 7822 c43d bdfd b33d
000001e0: 2d43 333d 85b4 9b3d de6b bebd 5439 8fbd
000001f0: 0edb 093e 9f51 b23a 4780 c0bd cbaa d23d
00000200: 421f a5bd ca95 1cbc 6e56 1cbd 1566 57bd
00000210: e255 27bc 6e8a 3a3d 9a2f e3bd a324 7abd
00000220: b175 abbc e879 2abc 822c 083d 3fa3 20bb
00000230: 91a4 ee3c 575d 0bbe b8cb 02be d666 003e
00000240: c973 95bb f34e 2fbc e06c 4d3b eeb9 56bd
00000250: 1edc 89bd 8a70 45bc a749 beba 2f21 2d3d
00000260: 81a1 473d adb9 32bc 943e 73bd 2cd9 d53d
00000270: b9f8 d6bd e169 693c 7182 53bd e3fb c6bc
00000280: 8b6a 25be 2425 39bc 0341 d23d bef5 c4bd
00000290: 009f 6fbd 207e 10bd 1fda 8ebc 6fb4 1bbd
000002a0: 4608 1ebd 7e9d cb3c 46f4 d13b aded 1e3e
000002b0: 201d 253d 3325 c8bd 3c33 ddbc ea36 7d3d
000002c0: 9e85 25bb 9690 89bd a5ad ed3d ce82 a33d
000002d0: 89ba 3b3d fcdc e3bd 5138 0dbd 2c00 213d
000002e0: 74da c2bd cbcc 30bd db5d 4ebd 30f6 7c3d
000002f0: b4e1 0b3e 3166 3e3c 86e5 38bd 4cda 2bba
00000300: c486 e63c 4518 033d 68f7 06bd 460c 003d
00000310: 6468 a73d 6f61 c73d 7a63 61bc 0d3c b43d
00000320: 4c05 ab3d 86e3 e8bd 3ab4 073e 62a9 e43c
00000330: f65a b2bb bbc1 f23a 8e73 d93c bcb3 0b3e
00000340: 1a37 0e3e 20f3 773d 8fff 913d 9cdb 7dbd
00000350: ca1c 37be 85df 6ebd d8c2 f3bc d578 6c3d
00000360: 2fb0 de3c 3de1 1c3e 8180 f33d 2c09 353c
00000370: 9337 853c 6c49 abbd 1a63 babd f17b 2f3c
00000380: aa98 913d a33c 993c a4cc fe3c ef5f 0c3e
00000390: 76e1 823c a131 95bd 1775 993d af02 debd
000003a0: 73ec 533d ea93 153e 3c70 38bd f678 aebd
000003b0: a762 52bb 8c1d 213c 3dee d83b fabc b4bd
000003c0: 9903 213d 2ee7 093e 16e0 323c 7e68 a2bc
000003d0: fbc5 373d b1d7 69bd 2fea 1b3c e70c e83d
000003e0: 820b e83c 53bf 4a3d 1b76 5fbd ea6a 9fbc
000003f0: c832 a53a 8201 17bd 534e 4bbd 178c 1ebd
0.11444599 0.09148308 -0.04785456 0.10102348 0.14170797 -0.06571356 -0.038031466 0.091127
0.07457396 -0.016613942 0.041159756 0.030575436 -0.057725567 -0.12819488 0.09284704 -0.027202893
0.03209539 -0.017498817 0.08146433 -0.018250825 -0.07434854 0.017150352 0.011780645 0.077508174
0.06206961 -0.06418191 0.045701854 -0.092192516 0.04419871 -0.013374097 0.028703565 -0.04676427
-0.018873509 0.09106983 0.11630414 0.027054233 0.07996432 -0.054590575 -0.02462114 -0.0832833
0.0597969 -0.078964494 -0.056223653 -0.07897285 0.09030636 -0.040235624 -0.07200675 0.061002366
0.035458643 -0.027281655 0.08743031 0.1264831 0.034806356 0.07163148 -0.03581833 -0.015454725
-0.07854383 8.8407876e-05 0.0408808 0.046226174 0.005067538 -0.07514621 0.017284205 0.079445906
-0.08711473 -0.12407553 -0.07545673 0.019962803 0.0049456176 0.089236416 -0.014129601 -0.122015275
-0.03908872 -0.0480731 0.07664292 -0.12348064 -0.11936867 -0.017160624 0.0055375174 -0.08913208
-0.04544763 -0.012159969 -0.07322709 0.08682538 -0.13383222 0.024348997 -0.09176406 0.033446815
-0.12763539 0.09182767 0.047826774 -0.074823275 0.058588564 -0.10160099 -0.048565917 0.049728837
0.085120745 -0.04663948 0.071937576 -0.10214515 -0.10156368 0.06081561 0.07363403 -0.062756166
-0.058888804 0.042181842 0.10943483 0.110716335 -0.043657254 0.031599686 -0.10481425 0.0088373795
-0.04340511 -0.022821479 0.094054624 0.055845313 0.10242803 -0.03129264 0.09576887 0.08788631
0.043765236 0.07602791 -0.09297918 -0.06993356 0.13462469 0.0013604647 -0.09399467 0.102864824
-0.080626026 -0.009557197 -0.038168363 -0.052587587 -0.010213347 0.045542173 -0.11093064 -0.061070096
-0.020930143 -0.010405041 0.03324557 -0.0024511365 0.029131206 -0.13609825 -0.12773025 0.12539229
-0.004560922 -0.010699975 0.0031345412 -0.05242341 -0.06731437 -0.012050757 -0.00145178 0.042267974
0.048738007 -0.010908526 -0.05938585 0.10441813 -0.10496659 0.014246435 -0.05163807 -0.02429003
-0.16153924 -0.011300359 0.10266306 -0.09617184 -0.058501244 -0.035276532 -0.017437993 -0.03801387
-0.03858211 0.024855372 0.0064072935 0.15520354 0.04031098 -0.0977272 -0.02700197 0.06181995
-0.0025256644 -0.06717031 0.11605386 0.079839334 0.04583219 -0.11126134 -0.034477536 0.039306805
-0.09514323 -0.043164056 -0.050382476 0.06175822 0.13660318 0.011621044 -0.045140766 -0.0006555661
0.028140433 0.032005567 -0.03295079 0.031261705 0.08174208 0.09735381 -0.013756627 0.08800516
0.0835062 -0.11371522 0.13252345 0.0279128 -0.0054429723 0.0018520871 0.026544359 0.13642782
0.13888207 0.060534596 0.07128822 -0.061977014 -0.17882076 -0.058318634 -0.029755995 0.057732422
0.02718362 0.15320297 0.118897445 0.01104955 0.016261851 -0.083636135 -0.091009334 0.010710702
0.071091965 0.018705672 0.03110344 0.13708471 0.015976649 -0.072848566 0.07493036 -0.108403556
0.051739167 0.14607206 -0.04502891 -0.08519165 -0.0032102258 0.009833705 0.006620197 -0.08825107
0.03931007 0.13467094 0.010917684 -0.019825216 0.044866543 -0.057090465 0.009516283 0.11330586
0.0283258 0.049498867 -0.054555994 -0.01946016 0.0012603635 -0.036866672 -0.049635243 -0.03870782

main.3.bias f4 [64]
00000000: 71ea d5bd 3d77 eebd 2474 8d3d ca2f 5ebd
00000010: edec a5bd 72f4 ed3d 0711 d23d e387 52bd
00000020: 87e7 febb 58c9 dc3c 788c b6bd edda 4c3d
00000030: 4ee3 c13d dc75 f7bb 00dc 0c3d 71ac 3cbd
00000040: b283 e23d 3f1f 32bd 10dc 07bd 3c42 1b3c
00000050: 3265 86bc 21e1 da3c 7b09 69bd ab31 e2bd
00000060: 68c6 b63a 6398 c63b cde9 25bd 6a0c a23d
00000070: cce8 183e a142 8a3d bf01 b03d f287 0b3b
00000080: 4699 d1bd c45d 27bd 1560 073c 0352 cd3d
00000090: bcaf 9bbd aea8 533d 1c50 9ebd 9c8a c3bd
000000a0: b15f 8dbc 75b6 5fbd ec89 a23d 0932 50bd
000000b0: b929 e93d 1b0c a4bd 7f90 463d dfb8 2b3c
000000c0: 9e45 74bb 197d a1bd 04b0 233d 549a 093d
000000d0: cd22 cebd 7a92 95bc 4f0f ad3d f4e2 823d
000000e0: a5ca 82bc f8c9 e73c 9904 eabc a9e7 4dbc
000000f0: e6bb c1bd b221 723d afa9 533d 9958 9bbd
-0.10445107 -0.11643837 0.06906918 -0.054244794 -0.08101831 0.1161889 0.10257154 -0.051399123
-0.007779065 0.026951477 -0.08913511 0.05001347 0.09467183 -0.0075518917 0.034389496 -0.04606289
0.11060275 -0.04348683 -0.033168852 0.009476241 -0.016405676 0.026718678 -0.056893807 -0.1104463
0.0013944628 0.0060606464 -0.040506173 0.07912524 0.14932555 0.0675099 0.08594083 0.0021290747
-0.10234313 -0.040860906 0.008262654 0.10025408 -0.07601878 0.051674537 -0.077301234 -0.09547922
-0.017257543 -0.054617364 0.07936463 -0.050828967 0.11384911 -0.080101214 0.048477646 0.010481088
-0.003727294 -0.078851886 0.039962783 0.033594444 -0.100652315 -0.018258322 0.084501855 0.06390944
-0.015965769 0.028294548 -0.028566645 -0.012567439 -0.09459667 0.059114166 0.051675495 -0.07585258

main.6.weight f4 [1, 64]
00000000: 3a98 63bd f03b 86bd 45d1 fe3b 045f 35bd
00000010: 6afb 03be 3d3d 99bd e870 0b3d cf06 eb3d
00000020: 4af6 19bd 2a3d 8a3c c166 72bd 3cc1 85bd
00000030: 2b3c 81bd cf02 273c 3d1b a73d f756 89bd
00000040: dec0 1bbd d2fc b4bd a137 2f3c 6095 bdbd
00000050: 6406 1fbd cf56 9839 82a4 3c3d a7c8 4e3d
00000060: 5440 b9bd d863 213d c6a8 02be cc15 553d
00000070: c412 4e3d 2437 a1bd 7a03 ddbb 0bdb c1bd
00000080: 0a04 783d f04b 4abc 962b 513d 93de d9bc
00000090: d7ba 183c 59da b5bc 16bb 483d 9077 ac3d
000000a0: ddcb 90bc a23a 09bd 0a6b 98bd 3b32 a4bd
000000b0: 9ab9 c63c c07b e23c 6c60 12bb 33d9 d4bd
000000c0: dd90 a4bd c8ff 123d 3b1c 9bbd 5fd3 f23c
000000d0: f8bd f63d 50d9 be3c 401f b73c 7cc6 ef3b
000000e0: 777e 01bd 19d2 fbbd 00f3 e7bd f927 08bd
000000f0: c834 303d 71ed f33c 7cba 51bd 00c1 703d
-0.055565096 -0.06554401 0.0077764117 -0.044280067 -0.12888876 -0.074823834 0.034043223 0.11475908
-0.037588395 0.016874868 -0.059180025 -0.06530997 -0.06310304 0.010193541 0.08159492 -0.0670604
-0.03802573 -0.08837284 0.010694415 -0.09257007 -0.038824454 0.00029056377 0.046055324 0.050484326
-0.09045473 0.03940186 -0.12759694 0.05202274 0.050310865 -0.07871845 -0.006744799 -0.09465607
0.060550727 -0.0123472065 0.051066957 -0.02659539 0.00932189 -0.022198843 0.049006544 0.08421242
-0.017675335 -0.033503182 -0.07442291 -0.08017393 0.024258424 0.0276469 -0.0022335304 -0.1039299
-0.08035443 0.035888463 -0.07573744 0.029641805 0.120479524 0.023296982 0.022353768 0.0073173624
-0.031614747 -0.12295932 -0.113256454 -0.033241246 0.043019086 0.029776307 -0.051203236 0.05877781
