models/VANE_node_pred_n2v_model/Discriminator_epoch_13.pth (torch, 35999 bytes, 5 tensors)

main.0.weight f4 [64, 64]
00000000: d3b8 dabd e7a0 f5bd 4814 b83c cff2 cb3c
00000010: 7d1b d6bd d829 06be c66d b3bc c565 9f3b
00000020: 5eb8 44bb 0cde 823d 3b5d bdbd 0023 6e3c
00000030: b932 dbbd 2f8f 0e3d 03a0 09bd 7b80 5fbd
00000040: 50bc 68bd 5463 46bd be07 31bd ca42 123d
00000050: 876f 44bd aa54 873c a6d5 623d baa1 053a
00000060: b64f acbd 3f60 7cbc 176f fcbd 1b96 eaba
00000070: 8f84 abbd bae1 433d d5e4 c93d b782 cbba
00000080: 1691 a43d 37de 1b3d c692 41bd efef da3d
00000090: 0cfc c9bd f4f7 24bd c8b8 c4bd b4dc a3bb
000000a0: 01fe bebd 78f8 7e3d 8d75 b23b c63c 70bb
000000b0: 0563 a23d f250 42bc d112 a03c 7c19 1b3b
000000c0: 8afc 9f3d 0353 9d3d 4d76 b7bd d037 bfbd
000000d0: dee9 b6bd 5d22 fe3d 5ed1 113e 32f8 aabd
000000e0: 821e 093d 55ad 4fbd e7f2 033e e99a 913d
000000f0: 9826 403d 5bfd 67bd cf2b 76bd f23b b3bd
00000100: fd9c 843d 3eef 283c ac0b 5f3d 1ac0 c53c
00000110: e6d8 8d3d 6d30 b33d fc06 cabd 9427 cf3b
00000120: 9521 f13c 9845 383d e843 eabd 2813 72bc
00000130: 5e93 213d 2148 a8bd db92 2c3c 4539 093e
00000140: 5a38 333d 0caa 383d ea64 493c dd0a bebc
00000150: 2623 e73d 553a 45bc e996 edbd 878b 073e
00000160: 553a 963c 6741 8f3d 3e54 48bd 70d7 90bd
00000170: 2c0d ed3c 1d12 6e3d d97a b33d 79fd a13c
00000180: f91b 98bc 5546 43bd 3a23 90bd c67c 213d
00000190: 3938 223e 7aac 3abd 002a 533d 335b 553c
000001a0: 1ac6 753d 7e5c 53bd ada6 e13d fefb 123d
000001b0: f1be 80bd 7a5e 0c3e 0737 94bc e5d0 64bc
000001c0: 1c10 a43d 2d56 36bd 525c d5bd b16c c33d
000001d0: b91e 413d e26b c5bd 5642 e1bb c612 56bd
000001e0: ea2c da3c 25ed bf3d a5db bc3d 8316 4e3b
000001f0: dd39 6cbb 4bb7 f03c 9293 923d 4571 a5bb
00000200: f7f7 d63d ad2b b73d 8e6b 99bd ee39 d53d
00000210: 0a4e 47bc 691e 283c bdb3 85bc c736 463c
00000220: 9945 d53c 272f 9f3d 6be4 0d3e 5ab9 4dbd
00000230: 0f38 f53c 3a5d 123e ae67 673d 84c9 fdbd
00000240: e2d1 cf3d a1c8 c23d d622 143d d5bc 483d
00000250: 9a33 acbd 76f0 49bd d91d d63c e194 22bd
00000260: 1a2f acbd 5852 3f3b fc98 173c 29c4 17bd
00000270: 235e 453d 543a eabc a516 0a3d b9e4 023e
00000280: cd22 e3bd f340 373c 3eb6 0dbd 365f efbb
00000290: 4df9 c03b 99bf 493d fbf1 a33d 4446 293d
000002a0: 30ae 39bb e081 cd3b e72c 283e 0b0d 063d
000002b0: eec5 a6bd 6fc4 fabc b2c4 d73c 605e bb3c
000002c0: 893e 983d 1ec7 c5bc bca8 22bd b74a 453c
000002d0: ee71 e53d c4f3 223e 0a7d b53d 14dc ba3b
000002e0: 2017 6cbd d33d b4bd 687d 753d f5bb 82bd
000002f0: 990b 023d d8e9 43bd b92e debd bb5c a63d
00000300: d7a3 08bd b255 943d a663 66bb 6565 303d
00000310: 3ed7 8ebd 0b4a 72bb 0bac 623d ee3d 6bbd
00000320: 302a ab3d 1db7 e7bb eeca bd3d c1b8 e3bd
00000330: 137a 0a3e 53b1 d9bd dae7 adbd 5dc4 e63d
00000340: 418e cb3d 58b9 083d e937 1e3d 0abe 2fbd
00000350: 8f7b 853c 9c3f 29bd 6cf4 df3c b2c1 16bc
00000360: b1aa 963d c459 38bd 61c0 503d e3ea 41ba
00000370: 50da ca3d e560 10bc 0d61 64bc bfbc d93c
00000380: 4e92 5fbd f342 d3bd 9a66 bc3c 1b8b 69bc
00000390: 8174 823c 3531 8cbd fdc0 983d 850e 613c
000003a0: 562b 1abd b4ae 6f3d f319 393d e4d2 20bd
000003b0: caff 5abd ea86 febb 8f11 ce3d 0fbc c5bc
000003c0: 8c1f 15bd e2ea 793c 4b2d 3b3d 7551 8bbd
000003d0: e4cf fbbd c907 f43c 524c d3bc cb3b 4fbc
000003e0: 4ebf 3e3d 4559 99bd b25d 71bd 37f9 8fbd
000003f0: 1d5c ecbd 3559 e3bc 22ee 453d 6e1d 943d
-0.10679784 -0.1199358 0.022470608 0.024896054 -0.10454462 -0.131019 -0.02190293 0.004864427
-0.0030017118 0.06390008 -0.09246298 0.014534712 -0.10703034 0.03480452 -0.033599865 -0.054565888
-0.056820214 -0.04843457 -0.043220274 0.035708226 -0.047957923 0.016519863 0.055379532 0.00050976465
-0.08413641 -0.015403806 -0.12325876 -0.0017897518 -0.08374893 0.04782269 0.09858099 -0.0015526627
0.080354854 0.038053717 -0.047259115 0.10690295 -0.09862527 -0.04027553 -0.09605557 -0.005000675
-0.09325791 0.062248677 0.005446142 -0.0036657318 0.07929043 -0.011860119 0.019540222 0.0023666313
0.0781184 0.07681849 -0.08958111 -0.09336817 -0.089313254 0.12408898 0.14240023 -0.08348121
0.03347636 -0.05070241 0.12885629 0.07109625 0.046911806 -0.056638103 -0.060100373 -0.08751668
0.06475256 0.010310946 0.05445449 0.024139453 0.06926136 0.08749471 -0.098646134 0.0063218568
0.029434958 0.044988245 -0.11438733 -0.014775075 0.03944718 -0.082168825 0.01053306 0.13400753
0.043754913 0.045084044 0.012292126 -0.02319854 0.11286001 -0.012037833 -0.116010495 0.13236819
0.018338362 0.069948964 -0.048908465 -0.070723414 0.028936945 0.058122743 0.08763666 0.019774185
-0.018568026 -0.047674496 -0.07037969 0.039425634 0.1584176 -0.045574643 0.051553726 0.013022232
0.060003377 -0.05160188 0.11018119 0.03588485 -0.06286419 0.13707915 -0.018092645 -0.01396582
0.08010885 -0.044515777 -0.10417999 0.095422156 0.04714844 -0.09639718 -0.006874363 -0.052263997
0.026632745 0.093714036 0.09221581 0.0031446523 -0.0036045231 0.029384276 0.07157053 -0.005048903
0.10496514 0.08943877 -0.074912176 0.1041144 -0.012164602 0.010261157 -0.016321057 0.012098021
0.026034163 0.077726655 0.13856666 -0.050225593 0.029933957 0.14293376 0.05649536 -0.12391952
0.10147454 0.09510923 0.036166035 0.04900821 -0.0840828 -0.049301587 0.02613728 -0.039692763
-0.084074214 0.0029193368 0.009252783 -0.037052307 0.04818548 -0.028592266 0.033713 0.12782563
-0.11090622 0.011184919 -0.034597628 -0.007305051 0.005889094 0.049254987 0.080051385 0.041326776
-0.0028332584 0.006271586 0.16423379 0.032727282 -0.08143221 -0.030611245 0.026338909 0.02287215
0.07433803 -0.024142798 -0.0397117 0.012041739 0.11203371 0.15913302 0.0886174 0.005702505
-0.05763924 -0.088008545 0.05993405 -0.06383506 0.03174934 -0.047830433 -0.108487554 0.08123156
-0.033359375 0.072429076 -0.003515461 0.043065447 -0.06974648 -0.0036970403 0.055339854 -0.057432108
0.08357656 -0.0070713894 0.092672214 -0.111192234 0.1352313 -0.10629525 -0.08491488 0.11267922
0.09939242 0.033379883 0.03862754 -0.042905845 0.016294269 -0.04132043 0.02733823 -0.009201454
0.073567756 -0.045007482 0.050964717 -0.00073973666 0.09904921 -0.008812164 -0.013939154 0.026579259
-0.054582886 -0.10315504 0.022998143 -0.014254357 0.015924694 -0.06845323 0.074586846 0.013736372
-0.037638985 0.05851622 0.045190763 -0.03926362 -0.053466596 -0.007767548 0.10061943 -0.024137525
-0.03640704 0.015253754 0.04569749 -0.06802646 -0.12295511 0.029788869 -0.025793228 -0.012648533
0.04656916 -0.0748773 -0.058927245 -0.07029956 -0.11541007 -0.027752498 0.048322804 0.07232176

main.0.bias f4 [64]
00000000: 2633 9abd 5947 893d 5824 61b9 b085 cc3d
00000010: d0d1 b5ba 89ff 4ebd 47ca 21bd bcf0 f83d
00000020: 4a72 cf3d bf66 b43d 9ec2 a2bd 7a89 f13d
00000030: 32c7 24bd dd75 843c b20a 1cbb 1011 d1bd
00000040: 5537 b9bd d770 c0bb 83d2 1fbd f52d b7bd
00000050: 8591 d73c 0592 c53d 1275 89bd e5f1 5c3d
00000060: 08ef e83b a71f edbb 258a a13d b522 6abd
00000070: 16df 70bd 6d9c b7ba 93a8 0f3d e570 dbbc
00000080: fc4f d4bc 729f 643d d49d 89bd 69ea 8fbd
00000090: 7c8e c0bb 3410 a5bd e88e 91bd 7422 ffbc
000000a0: 0242 003e 4d88 b1bd 6609 93bd 55f4 82bd
000000b0: fd87 8c3d 20fb 83bd 079e a1bd 39fe 8dbc
000000c0: 203e 23bd 4583 83bd ed15 183d fc4d 17bd
000000d0: c246 733d 6565 8ebd e490 84bd 64c9 b93c
000000e0: 1a79 c9bd 4ce0 8bbd d1ed 013d 11b9 9cbd
000000f0: 5147 aebd f74b d33d b801 57bc ef87 b8bd
-0.07529287 0.067030616 -0.00021471211 0.09986436 -0.0013871733 -0.050536666 -0.039499547 0.121552914
0.10129221 0.0880866 -0.079472765 0.117938 -0.04022903 0.016169483 -0.0023810086 -0.102083325
-0.09043757 -0.0058728266 -0.03901912 -0.089443125 0.026314506 0.09646992 -0.067117825 0.053941626
0.007108573 -0.0072364393 0.07887677 -0.057162005 -0.0588065 -0.001400841 0.035072874 -0.02678723
-0.025917046 0.05581612 -0.067195565 -0.07027132 -0.0058763605 -0.08059731 -0.07107335 -0.031144358
0.1252518 -0.086685754 -0.07179527 -0.06394259 0.06861875 -0.06444383 -0.078914694 -0.017333137
-0.03985417 -0.06421522 0.037130285 -0.036939606 0.05939365 -0.06952933 -0.06472948 0.022679038
-0.098375514 -0.068298906 0.03172094 -0.07652486 -0.08509696 0.103172235 -0.013122968 -0.09010302

main.3.weight f4 [64, 64]
00000000: b46e df3d a212 bb3d 9744 4bbd d27f db3d
00000010: 3e03 203e 9123 86bd 97a8 1ebd 8978 bb3d
00000020: d3d6 9f3d ac46 aebc 59b6 2c3d fd96 253d
00000030: 6809 6ebd f0a1 0bbe bae2 b53d d0eb ecbc
00000040: 762b ea3c e7da 603c 4716 a93d f8dd a3bc
00000050: aeb7 89bd e059 9b3c 767d 4fbb b821 9d3d
00000060: 2a7a 7c3d 4bcd 90bd b696 3d3d 0bfb b8bd
00000070: 5c68 353d 829c eabc 9487 de3c 80b3 5fbd
00000080: 5190 c8bc a9fd ad3d ab5c f23d d6f3 063d
00000090: ceee 8b3d 397d 45bd 4d6a c6bc 1dfe afbd
000000a0: 83d5 8c3d 58ce a3bd 5555 76bd 0cbb 96bd
000000b0: e97b c13d 6b78 3dbd 1981 89bd 280c 913d
000000c0: e7c9 123d 9ba8 e0bc f13a b23d acde 013e
000000d0: 45b2 d63c d5e4 913d d186 19bd 29c4 373a
000000e0: 7b9f a0bd 6e6c 6f3b cb6d 353d f411 443d
000000f0: 4472 2f3c 4be7 8ebd f84c 203d 6509 a93d
00000100: 7890 b7bd 65ae eebd 10a2 98bd 1f83 833c
00000110: fa7e 483c 695e b63d 5f71 80bc fbb0 e9bd
00000120: 6652 32bd 70ad 49bd 2d02 a33d d1c6 f6bd
00000130: a6df f3bd 55f9 d3bc 4a7f 8fbb 5055 b5bd
00000140: cc9a 38bd ae48 acbc 0773 a1bd 9bd2 af3d
00000150: 7bba 03be a00b ef3c 8ffd dcbd ab62 f83c
00000160: d503 0abe 8ea2 a83d cc31 5b3d f1df 96bd
00000170: e9cd 703d a7ec d7bd 64ef 43bd 60dc 3b3d
00000180: 46c8 983d a04a 37bd 666a b93d 04dc b9bd
00000190: cc79 cebd 5480 813d bf04 9c3d 0163 89bd
000001a0: 21d8 72bd 495b 273d f7c3 0b3e 9c42 013e
000001b0: 6e52 29bd 9750 213d cba4 d3bd f969 c53c
000001c0: 10d5 18bd 421f c3bc abf4 c93d edc5 683d
000001d0: e55e e03d 269a 04bd 1917 be3d 500c c23d
000001e0: 7d75 2d3d a2aa a23d 04a0 d3bd f6e1 86bd
000001f0: 3a0b 0f3e ab8e b23b ee16 bcbd 888c d33d
00000200: 731d a5bd 5d96 00bc 60b3 32bd 9fde 4dbd
00000210: a52c 9c3c 7897 3b3d f9c9 e2bd 2c8a 75bd
00000220: 2a76 8abc 9de2 d4bb 8f2c 073d 3a8a dd3a
00000230: 6ba4 e73c b391 13be 0b40 ffbd fe6e 003e
00000240: 3c05 03bc 01f7 0ebb 6bc9 2a3c f3e4 56bd
00000250: 995f 8bbd 0a5e a1bc dfbc 2bbd e92e 313d
00000260: cc25 943d 7540 d1bb c60d 34bd f3b3 d43d
00000270: d496 d7bd 9f6e f2ba ab0b 59bd 19fa bebc
00000280: 14e5 18be 279c d2bc ddaf c43d 47a4 c1bd
00000290: 1c6a 7cbd cb9c fbbc b618 9ebc 5496 19bd
000002a0: eca6 c0bc 4ab6 ce3c 8a80 f3bc 5117 0e3e
000002b0: ecdd 453d 3a1b cbbd f31b ddbc ee7b 6a3d
000002c0: 0a22 c9bb e855 88bd fe46 fd3d 0eb9 a13d
000002d0: 8a71 f13c cbd4 e1bd ed6a 0abd 8faf 2f3d
000002e0: e3f3 bfbd cdfc 1fbd ed83 19bd dda0 7a3d
000002f0: 7371 0b3e 35fb ee3c f8f8 f3bc cafd 283a
00000300: ec42 b23c a99c 043d a48c 3bbd 766a 1e3d
00000310: 5803 be3d 50b7 c73d c4e2 bebc f8b4 a23d
00000320: e0ac c33d 40f3 e2bd d3b4 093e 21ed 0c3d
00000330: f158 9ebb 6af2 cb3c d548 dc3b bbf5 113e
00000340: 7acc 0a3e 0d21 e63d 8c16 8f3d d1ce 82bd
00000350: c047 15be 61a5 45bd 2f01 01bd 5593 543d
00000360: 1fb9 47bc 5875 103e 908f f63d f0e0 6e3c
00000370: 97ce ae3c 0437 0abe 96f1 92bd fd06 d3ba
00000380: 9314 ac3d f167 8b3b 2511 403d 184b 0e3e
00000390: ee33 1abc ad6b 91bd 3e2d af3d 888a f8bd
000003a0: 2e23 5a3d a86f 163e 57e1 c9bc aa72 86bd
000003b0: bd05 6bbc f6dc 413d 664d 743c cccf cfbd
000003c0: 8145 3a3d 335f 093e b5b1 9abc 9237 86bc
000003d0: 624a 303c b43d 6dbd bbc7 893b 3f45 083e
000003e0: 65f3 e73c e92f 5d3d c8da 36bd 5022 e6bb
000003f0: ee7f f1b7 6e2d c8bc 83b6 1ebd 87b0 03bd
0.10909787 0.09134413 -0.04962596 0.10717739 0.15626237 -0.065497525 -0.038735 0.0915385
0.07804646 -0.021273933 0.042166088 0.040427197 -0.05811444 -0.13635993 0.08881135 -0.028921038
0.028585177 0.013724065 0.08256202 -0.020003304 -0.06724487 0.018963754 -0.0031660474 0.07672447
0.061639942 -0.070704065 0.046286307 -0.09032258 0.044288978 -0.028639082 0.027164258 -0.054614544
-0.024482878 0.084956475 0.11834081 0.032947384 0.06832658 -0.048215125 -0.02422061 -0.0859339
0.06876662 -0.07998341 -0.060139973 -0.07359895 0.09447462 -0.046257418 -0.067140765 0.07082397
0.03583708 -0.027424147 0.087026484 0.12682599 0.026208052 0.07123724 -0.037482087 0.0007010126
-0.078429185 0.0036533135 0.04429416 0.047868684 0.010708395 -0.069777094 0.039135903 0.08253745
-0.08963102 -0.11654357 -0.07452786 0.016053734 0.012237305 0.08904726 -0.01567906 -0.114107095
-0.043535613 -0.04923767 0.07959399 -0.1204964 -0.11907892 -0.025875727 -0.0043791877 -0.08854163
-0.0450695 -0.02103075 -0.07883268 0.08585092 -0.12864105 0.029180348 -0.1079055 0.030320486
-0.13478024 0.0823413 0.053514287 -0.07366932 0.05879012 -0.10543185 -0.047835723 0.045864463
0.07460074 -0.044748902 0.09053497 -0.09075168 -0.10081825 0.06323305 0.07618093 -0.067083366
-0.059288148 0.04085854 0.13648973 0.12623066 -0.041338377 0.039383497 -0.10334166 0.024098383
-0.037312567 -0.023818616 0.0986112 0.05682938 0.109556 -0.03237357 0.09281749 0.09475005
0.042348374 0.07942702 -0.10333255 -0.065860674 0.13969126 0.0054491363 -0.09184061 0.103295386
-0.080622576 -0.007848349 -0.043628097 -0.050261136 0.019064257 0.04579875 -0.110736795 -0.059946224
-0.016902048 -0.006496741 0.03300148 0.0016902157 0.028276643 -0.14411049 -0.12463387 0.1254234
-0.007996853 -0.0021814706 0.010423998 -0.052464437 -0.06805343 -0.019698162 -0.04192817 0.043257628
0.07233772 -0.0063858577 -0.043958448 0.10385885 -0.10526815 -0.0018496102 -0.052989643 -0.023312615
-0.14931136 -0.025709225 0.09603856 -0.094551615 -0.06162463 -0.030714413 -0.019298892 -0.03749688
-0.023517095 0.025233407 -0.029724378 0.13876082 0.048307344 -0.099173024 -0.026990866 0.057247095
-0.006138091 -0.0665701 0.12367056 0.078966245 0.029473085 -0.11026915 -0.03379338 0.042892035
-0.093726896 -0.03905945 -0.03747933 0.061188567 0.13617496 0.02917252 -0.029781803 0.0006446509
0.021760426 0.032375965 -0.045788422 0.038675748 0.092779815 0.09751761 -0.02330149 0.07944673
0.09554458 -0.110815525 0.13447885 0.03440583 -0.00483238 0.024895865 0.0067225494 0.14253895
0.13554564 0.11236773 0.06986722 -0.06387103 -0.14578152 -0.04825342 -0.03149527 0.05189832
-0.012190132 0.14107263 0.12039101 0.0145799965 0.021338744 -0.1349755 -0.07174985 -0.0016100105
0.08402362 0.004254334 0.04689135 0.13895833 -0.009411795 -0.07100616 0.08553551 -0.12135798
0.053256206 0.14691031 -0.024643583 -0.06564839 -0.01434463 0.047329865 0.014911031 -0.10147056
0.04547644 0.13415222 -0.018883565 -0.01638392 0.010759922 -0.057920173 0.004204718 0.13307665
0.028314302 0.05400077 -0.04464224 -0.0070231333 -2.878901e-05 -0.024435725 -0.038748275 -0.03215077

main.3.bias f4 [64]
00000000: 04b7 c9bd bc57 ddbd 55ce 8c3d f127 51bd
00000010: 42eb a4bd cc82 dc3d b249 c63d 4eab 52bd
00000020: ff9a 21bc f8be a53c 8b74 b6bd 8d48 583d
00000030: 6214 bd3d 8e2e 8fbc 77fa 003d f4c5 45bd
00000040: 4b7b eb3d 10f1 56bd d9ff 07bd c720 113c
00000050: dc29 b4bc 5ae0 c83c df6c 64bd f926 e2bd
00000060: 5cf8 013a 056e 283c 66df 20bd dede a03d
00000070: df16 1d3e 18ec 913d a131 a23d 99df 743b
00000080: f5c3 d2bd 9780 1abd 2e96 663c 0222 d43d
00000090: fed6 88bd 7fff 5e3d 3ec3 a0bd 777a c4bd
000000a0: 4f6d 4fbb 13a7 64bd e1a2 a23d bb68 6cbd
000000b0: 0830 e23d e3f2 a5bd 8083 2a3d 634b 3b3c
000000c0: e9a0 503b a18f b6bd 1ab9 173d 0572 ee3c
000000d0: bdd7 cbbd 6c9c 94bc f0e0 ae3d d3a7 843d
000000e0: 52df 4ebc 6a06 e43c b0fb 14bd 7aa6 9fbc
000000f0: 4e28 c1bd 4eba 6c3d ae32 6f3d b10f 9dbd
-0.098493606 -0.1080775 0.06875292 -0.05106348 -0.08052684 0.10767135 0.09682025 -0.0514329
-0.009863614 0.020232663 -0.089089476 0.052803565 0.09232403 -0.017478254 0.031488862 -0.048284486
0.11498126 -0.05247599 -0.03320298 0.008857912 -0.021992616 0.024521042 -0.05576789 -0.1104259
0.0004957968 0.010280137 -0.03927555 0.078550085 0.15340756 0.071251094 0.07919622 0.003736472
-0.10291282 -0.03772029 0.014073892 0.10358049 -0.066816315 0.05444288 -0.078497395 -0.09593671
-0.0031650846 -0.055823397 0.07941223 -0.057717066 0.110443175 -0.081029676 0.041629314 0.011431548
0.0031834191 -0.08914114 0.03704176 0.029107103 -0.09953258 -0.018140994 0.08538997 0.064773224
-0.012626486 0.02783509 -0.03637284 -0.019488562 -0.09431516 0.05779486 0.05839794 -0.076690085

main.6.weight f4 [1, 64]
00000000: bfba 63bd d0e4 7bbd 8715 b0bb 7020 3abd
00000010: 535f 06be 5780 88bd f7c1 b83c 79a0 eb3d
00000020: 6fea 17bd 7a2a a13c 678d 5cbd 5cf6 88bd
00000030: 5199 7cbd 19d2 043d e418 a33d 9ad0 81bd
00000040: 6fe2 2bbd 3f7d aabd 77c7 233c fe29 bdbd
00000050: d896 10bd 2bf0 84ba b70d 2a3d 5bd4 403d
00000060: 5a72 b6bd 03f6 803d 2244 04be 8194 673d
00000070: b933 433d 3546 93bd 3e24 84bb c887 c2bd
00000080: 49e6 893d af34 95bc 8a8f 483d ae56 cfbc
00000090: 0f2d 433c d03f abbc df13 483d 100d b63d
000000a0: 699a 9abc 0528 0abd 84b6 9bbd 80ab 9abd
000000b0: e77b 583c d01c c43c a87d 2b3c b794 d5bd
000000c0: e893 a6bd 9f78 fc3c b515 97bd 6bce 1a3d
000000d0: c8e0 e63d c7c8 be3c d4f7 c83c 2212 fb3b
000000e0: 08c8 00bd 263f fcbd 4b1c dabd b5c0 e3bc
000000f0: 3a5d 2f3d 8968 153d e98b 5bbd 9aa5 703d
-0.055598017 -0.06149751 -0.00537366 -0.04544109 -0.13122301 -0.06665104 0.022553427 0.11505217
-0.037088808 0.019673575 -0.05384579 -0.06687614 -0.06166965 0.032426927 0.07963732 -0.06338616
-0.04196399 -0.0832467 0.009996287 -0.09236525 -0.035300106 -0.0010142376 0.041516986 0.047077518
-0.089085296 0.06296923 -0.12916616 0.05653811 0.04765675 -0.07191125 -0.0040326407 -0.094985545
0.067333765 -0.018213598 0.048965015 -0.025309887 0.011912598 -0.020904452 0.048847076 0.0888921
-0.018872457 -0.03372957 -0.076031715 -0.07552242 0.013213134 0.02393952 0.0104669705 -0.10428756
-0.0813368 0.030819235 -0.07377187 0.03779451 0.11273342 0.023289097 0.024532236 0.0076620737
-0.031440765 -0.12316732 -0.10649928 -0.02780185 0.042813517 0.036476646 -0.053600226 0.05875168
