models/VANE_node_pred_n2v_model/Extractor_epoch_6.pth (torch, 229143 bytes, 5 tensors)

encoder.weight f4 [850, 64]
-0.039465692 0.046976138 -0.017785015 0.042006403 0.07796241 -0.07410533 -0.09848763 -0.061662912
-0.006387149 0.06265907 -0.02345323 -0.060482588 -0.033689998 -0.010717982 -0.025954997 0.05536458
0.0294775 -0.088059515 -0.0042114006 0.073838755 0.004890264 0.041544653 0.063189276 -0.016909994
0.030988341 -0.074368715 -0.021605264 -0.069764555 -0.084396146 -0.05025909 -0.057097577 -0.014354674
-0.03943441 -0.0033560009 0.14403746 -0.013057106 -0.012242114 -0.13930255 0.04105961 -0.037980802
-0.05164341 0.09222327 -0.03165599 -0.03743088 0.06572301 0.052586433 0.03784158 -0.08472401
0.046492994 -0.07597717 -0.019562354 -0.0065739965 -0.05522559 -0.021035684 -0.036874373 0.043940928
0.115612425 0.06700879 -0.07557217 -0.05209149 -0.034790978 0.08926011 0.054795858 0.0006768681
-0.04735482 0.07821241 0.0019455869 0.028780317 0.061758477 -0.030718522 -0.06662876 -0.013590759
-0.01018041 -0.023678642 0.01768662 -0.07785346 -0.010555276 -0.04955781 -0.03898562 0.066971555
0.09765962 -0.03340162 0.0025768783 -0.045150768 -0.04502371 0.1258597 0.05678618 0.025509767
0.005897499 -0.10850424 -0.028138764 -0.08525971 -0.07757019 0.0058609704 -0.02321318 0.0068653566
0.018554967 0.03292248 0.11706219 0.06635558 -0.04234528 -0.07693014 0.09221395 -0.11576304
-0.015733518 0.023006508 -0.005246091 0.027032644 0.094405964 -0.016574914 0.029582756 -0.026046162
0.07451056 0.006188184 -0.09697783 0.042738426 -0.08898091 -0.09329335 -0.05418925 -0.01665254
0.10105135 0.08542468 -0.070102386 -0.011669208 -0.055077426 0.054345526 -0.023114162 0.04115479
-0.0332663 -0.094480306 -0.06393904 -0.027124854 0.0891896 -0.047249403 -0.09248993 0.033628855
-0.054862864 -0.08534958 0.021463467 -0.1001226 0.015592614 -0.060494173 0.09040019 0.09050197
0.08854713 0.014368697 0.007488362 0.0012055965 0.008723594 -0.023490269 -0.016819945 -0.07977118
-0.046265062 0.059559673 0.0011979791 -0.03383672 -0.043687433 -0.017996129 0.06839204 0.01000965
-0.13891251 -0.081695996 -0.01692596 -0.07158932 0.097629815 -0.039346892 -0.011523715 0.0084422
0.09302851 0.08206986 -0.04581997 -0.07464328 0.024624288 -0.08083401 0.013261479 0.06350732
-0.008945131 0.026132833 0.04099869 0.039107982 -0.055429637 -0.06880815 -0.054531977 -0.014709219
-0.013428433 -0.030283812 -0.017245289 0.055541165 0.005978583 -0.0067799776 -0.05519208 -0.021681162
1.2279527e-05 -0.041241348 0.060119823 -0.09009939 0.12486349 -0.00734449 0.0012079013 0.03541383
0.104242206 0.065394714 -0.1137858 0.016088512 0.12764695 -0.058116164 -0.04189332 0.062572956
0.04963723 0.12961301 0.007876611 0.04932353 0.043649282 0.02716285 0.022910567 0.021760283
-0.13467807 0.047752462 -0.020614235 0.030463109 -0.02128478 0.018727696 -0.11101125 0.022730852
0.0055024996 -0.122437365 -0.0047864234 -0.07386469 -0.0024773276 0.044034667 0.045751814 0.06983279
0.0695508 0.006759805 -0.0063599846 -0.056942146 -0.04084559 0.10629811 -0.02791195 -0.06031553
0.025804494 -0.11537476 -0.0013605094 0.0024413303 -0.08029195 -0.05901197 -0.0002576531 0.017381202
-0.015072036 0.089826785 -0.05874487 -0.1312927 0.054371845 -0.054923296 -0.076124184 -0.019371249
00000000: c7a6 21bd 0d6a 403d e1b1 91bc e80e 2c3d
00000010: c2aa 9f3d 89c4 97bd e2b3 c9bd 4092 7cbd
00000020: 4a4b d1bb 6653 803d fd20 c0bc 97bc 77bd
00000030: 86fe 09bd 7a9a 2fbc 939f d4bc f8c5 623d
00000040: cc7a f13c 8c58 b4bd caff 89bb c638 973d
00000050: 823e a03b ba2a 2a3d 6169 813d d486 8abc
00000060: 43db fd3c a04e 98bd 86fd b0bc b8e0 8ebd
00000070: e3d7 acbd 7adc 4dbd 26df 69bd de2f 6bbc
00000080: fa85 21bd 5af0 5bbb 8e7e 133e 79ed 55bc
00000090: 2693 48bc 54a5 0ebe 1f2e 283d c291 1bbd
000000a0: 0a88 53bd 8edf bc3d b6a9 01bd 1f51 19bd
000000b0: c999 863d df64 573d c6ff 1a3d c883 adbd
000000c0: 706f 3e3d eb99 9bbd 3b41 a0bc ae6a d7bb
000000d0: 3a34 62bd 0753 acbc 9509 17bd 67fb 333d
000000e0: 35c6 ec3d e83b 893d 95c5 9abd e35d 55bd
000000f0: fc80 0ebd 01ce b63d 9f71 603d d96f 313a
00000100: 21f7 41bd d42d a03d 1003 ff3a b3c4 eb3c
00000110: 75f6 7c3d 69a5 fbbc a974 88bd c6ab 5ebc
00000120: bccb 26bc b6f9 c1bc 88e3 903c a371 9fbd
00000130: 09f0 2cbc 21fd 4abd 63af 1fbd 6228 893d
00000140: c401 c83d 23d0 08bd d8e0 283b 03f0 38bd
00000150: c86a 38bd 5de1 003e a098 683d dcf9 d03c
00000160: cf3f c13b 7937 debd 4483 e6bc a59c aebd
00000170: 1fdd 9ebd 620d c03b 9129 bebc c9f6 e03b
00000180: 9600 983c b9d9 063d 4dbe ef3d 6fe5 873d
00000190: 3f72 2dbd 8d8d 9dbd abda bc3d 2c15 edbd
000001a0: 94e3 80bc 2578 bc3c 67e7 abbb 9073 dd3c
000001b0: ea57 c13d 1dc8 87bc 8957 f23c c35e d5bc
000001c0: fe98 983d 40c6 ca3b 509c c6bd 7d0e 2f3d
000001d0: a03b b6bd 9510 bfbd 8cf5 5dbd e86a 88bc
000001e0: 03f4 ce3d 22f3 ae3d d791 8fbd 3530 3fbc
000001f0: de98 61bd 6a99 5e3d e959 bdbc ed91 283d
00000200: 3e42 08bd e47e c1bd 79f2 82bd f134 debc
00000210: 09a9 b63d 9788 41bd 5c6b bdbd 69be 093d
00000220: e2b7 60bd c3cb aebd 27d4 af3c 140d cdbd
00000230: 2a78 7f3c bdc8 77bd bc23 b93d 1959 b93d
00000240: 3358 b53d af6a 6b3c ef60 f53b 1b05 9e3a
00000250: 68ed 0e3c aa6e c0bc fbc9 89bc 135f a3bd
00000260: 6f80 3dbd d8f4 733d 8205 9d3a 5f98 0abd
00000270: 98f1 32bd 9e6c 93bc 2011 8c3d 84ff 233c
00000280: 153f 0ebe 3b50 a7bd 50a8 8abc 6c9d 92bd
00000290: 24f2 c73d 352a 21bd f7cd 3cbc 2751 0a3c
000002a0: bb85 be3d 3e14 a83d b9ad 3bbd 93de 98bd
000002b0: e0b8 c93c 4d8c a5bd ad46 593c 2010 823d
000002c0: 998e 12bc 8614 d63c 3eee 273d b12f 203d
000002d0: 300a 63bd 4aeb 8cbd ec5c 5fbd f0fe 70bc
000002e0: ee02 5cbc c215 f8bc fe45 8dbc 227f 633d
000002f0: fde7 c33b 932a debb 1711 62bd b19c b1bc
00000300: 2b04 4e37 b0ec 28bd 3440 763d 0786 b8bd
00000310: 6eb8 ff3d 0caa f0bb 7152 9e3a 180e 113d
00000320: f07c d53d aaed 853d 8808 e9bd 0ecc 833c
00000330: e2b5 023e 370b 6ebd 5498 2bbd 4026 803d
00000340: 6850 4b3d 46b9 043e e70c 013c 7807 4a3d
00000350: 97c9 323d a084 de3c f1ae bb3c 9f42 b23c
00000360: 0ce9 09be 1698 433d 2fdf a8bc c58d f93c
00000370: 6b5d aebc d36a 993c de59 e3bd 0d36 ba3c
00000380: 504e b43b 71c0 fabd 6ed7 9cbb 5f46 97bd
00000390: a95a 22bb b25d 343d 4166 3b3d 7e04 8f3d
000003a0: a670 8e3d 5b81 dd3b 6b67 d0bb 2b3c 69bd
000003b0: b54d 27bd d3b2 d93d 9aa7 e4bc 6b0d 77bd
000003c0: f263 d33c 9a49 ecbd 1f53 b2ba bafe 1f3b
000003d0: 1b70 a4bd 89b6 71bd 9d15 87b9 0663 8e3c
000003e0: b3f0 76bc 1bf7 b73d 769e 70bd 9871 06be
000003f0: 03b5 5e3d 40f7 60bd ffe6 9bbd 74b0 9ebc

rnn.weight_ih_l0 f4 [32, 64]
0.01598273 -0.10300416 -0.09522063 0.07185011 0.21894263 0.33723465 0.057023086 -0.17229314
-0.3836608 -0.056059282 0.089918874 -0.027550433 -0.27095285 0.2692422 0.27001235 -0.23572421
0.08918083 -0.03727813 0.20708811 -0.012051579 -0.11885898 0.11511827 0.20846552 0.16844526
-0.046566784 -0.25385514 -0.09164383 -0.036133487 0.36111775 0.1237339 -0.2464958 -0.36138952
-0.2326109 -0.041122355 -0.14109704 -0.40076175 -0.21315569 -0.14301442 0.0030709212 -0.28316543
-0.0996149 0.30485752 -0.012332116 0.13729787 0.37185177 0.07977162 -0.02252714 -0.23111773
0.2770878 -0.05354252 0.07191807 0.07329699 0.2776723 -0.011500512 -0.23757556 -0.117898345
-0.0014617952 0.015358122 -0.08412522 0.028425401 -0.006372304 0.035261776 0.046190605 -0.29213914
0.20262437 0.24870078 0.22720699 0.057858326 -0.046760835 -0.1629211 -0.054632973 0.3506598
-0.08323373 -0.14227049 -0.2077939 -0.04044403 0.12080976 0.27083415 0.22933733 -0.17831278
0.2367403 -0.08550965 -0.35007453 -0.22279195 -0.1200569 -0.35551503 0.04352678 0.2991422
-0.18088932 0.34534308 -0.12937985 -0.20756297 -0.24396248 -0.0017771907 0.29630038 0.017286114
0.06359044 0.17654541 0.068635836 -0.19216776 0.14824934 -0.21332675 -0.27990833 -0.23042655
-0.12974754 0.32940623 -0.075352244 -0.04737876 -0.01718105 0.3601968 -0.22082143 0.2174442
-0.05380247 -0.12388544 -0.072339006 0.23151349 0.27642894 0.23524544 -0.0917337 0.19402167
-0.26388112 -0.18387818 0.28234312 -0.3125362 0.12444771 0.31416938 0.31781578 -0.13628177
0.2072222 0.22674729 0.12605052 -0.048295293 0.09062016 -0.26784512 -0.027812049 -0.08879059
0.02144728 0.31915817 -0.38222033 -0.1313319 -0.045882728 0.19718666 0.18455262 0.08087014
-0.2515017 -0.18602864 0.13045242 -0.25103882 0.29890016 -0.3577222 -0.137492 -0.15012518
0.16142839 0.015769476 -0.2525221 0.123611614 0.04330308 -0.072125174 0.049609937 -0.28410017
-0.16829862 0.2935537 0.26917812 -0.08052796 0.20374061 0.3317952 0.20756096 -0.0026784148
0.21774688 -0.1564997 -0.13851067 0.3516573 0.16091314 -0.1592871 0.028257627 0.24018978
0.20302586 0.12953167 0.11451974 -0.1418268 0.09228835 0.07530781 -0.13116463 0.13310635
0.32120106 -0.38552693 -0.09761183 0.07660747 0.1192551 0.2115051 -0.10387891 0.18037228
0.0982393 -0.12968583 -0.23574305 0.3402679 -0.2578831 0.2842724 0.16487202 -0.10882873
0.16308683 -0.16925427 0.28221595 -0.004998141 -0.043206815 -0.035008505 0.16151989 -0.05751011
-0.006903656 -0.294011 0.1783837 -0.3760505 -0.09770666 0.2733438 -0.32516047 0.066238694
-0.20013085 0.018085573 0.08984356 0.29059297 0.016126564 -0.045418832 -0.18085548 -0.36383274
0.18993318 -0.32066923 0.12983808 -0.016140988 -0.061056018 0.22278357 0.017410275 -0.0026444313
0.31602383 -0.1796974 -0.36970985 -0.07546535 -0.28997496 -0.18013518 0.16057664 0.24441583
-0.20382053 0.3555328 -0.32076764 0.32673115 0.35666183 -0.028861556 0.11086731 0.35743007
-0.10802466 0.170989 0.028086126 -0.18936504 -0.10430587 0.32408673 -0.10453794 -0.20601535
00000000: 37ee 823c d8f3 d2bd 0903 c3bd 2726 933d
00000010: 7f32 603e 05aa ac3e 0a91 693d 9d6d 30be
00000020: 306f c4be 6b9e 65bd 6327 b83d 72b1 e1bc
00000030: 55ba 8abe 1dda 893e 0f3f 8a3e b061 71be
00000040: 70a4 b63d f4b0 18bd e80e 543e fc73 45bc
00000050: 566c f3bd 21c3 eb3d fc77 553e ea7c 2c3e
00000060: d0bc 3ebd 4df9 81be c3af bbbd b500 14bd
00000070: 6de4 b83e 3368 fd3d 6569 7cbe 0c08 b9be
00000080: 8d31 6ebe ea6f 28bd be7b 10be a530 cdbe
00000090: 7c45 5abe 5f72 12be 8241 493b 0ffb 90be
000000a0: e602 ccbd 4916 9c3e a50c 4abc d097 0c3e
000000b0: 5b63 be3e 4e5f a33d d68a b8bc 20aa 6cbe
000000c0: 74de 8d3e 674f 5bbd c849 933d bb1c 963d
000000d0: 102b 8e3e a56c 3cbc 0247 73be b074 f1bd
000000e0: b599 bfba a2a0 7b3c d849 acbd 63dc e83c
000000f0: c3ce d0bb a76e 103d 5c32 3d3d 4393 95be
00000100: c37c 4f3e 6bab 7e3e f3a8 683e dafc 6c3d
00000110: 4a88 3fbd cad4 26be d3c6 5fbd ae89 b33e
00000120: 7276 aabd 5baf 11be edc7 54be a4a8 25bd
00000130: 1c6b f73d c6aa 8a3e 68d7 6a3e a097 36be
00000140: 0d6c 723e af1f afbd f83c b3be 9323 64be
00000150: 64e0 f5bd 1106 b6be 2349 323d 2b29 993e
00000160: 0d3b 39be cfd0 b03e 277c 04be 638b 54be
00000170: 4dd1 79be a0f0 e8ba afb4 973e 9c9b 8d3c
00000180: b43b 823d 52c8 343e f290 8c3d a0c7 44be
00000190: adce 173e 5472 5abe 2550 8fbe f0f4 6bbe
000001a0: 8adc 04be efa7 a83e 4752 9abd 3b10 42bd
000001b0: 46bf 8cbc b76b b83e 031f 62be b1a9 5e3e
000001c0: fb5f 5cbd a6b7 fdbd 7926 94bd df11 6d3e
000001d0: 1888 8d3e 2ee4 703e e1de bbbd 9ead 463e
000001e0: 6d1b 87be 904a 3cbe 478f 903e bf04 a0be
000001f0: 71de fe3d cfda a03e c0b8 a23e 738d 0bbe
00000200: 0e32 543e 7130 683e 6313 013e 49d1 45bd
00000210: 1097 b93d ff22 89be 18d6 e3bc d7d7 b5bd
00000220: 35b2 af3c b368 a33e 62b2 c3be df7b 06be
00000230: 87ef 3bbd 4deb 493e 5dfb 3c3e 3e9f a53d
00000240: d5c4 80be 4b7e 3ebe 5295 053e 2988 80be
00000250: 7109 993e 5d27 b7be b4ca 0cbe 6aba 19be
00000260: 7c4d 253e fd2e 813c 944a 81be 1628 fd3d
00000270: 925e 313d 5db6 93bd ca33 4b3d 9475 91be
00000280: 7956 2cbe ac4c 963e b7d1 893e d8eb a4bd
00000290: 61a1 503e 0fe1 a93e dc8a 543e 5888 2fbb
000002a0: 0af9 5e3e 7541 20be bed5 0dbe 6d0c b43e
000002b0: 6ac6 243e 281c 23be 8a7c e73c 4ff4 753e
000002c0: 03e6 4f3e f3a3 043e 5389 ea3d 0b3b 11be
000002d0: ad01 bd3d fb3a 9a3d 0550 06be 084d 083e
000002e0: 7774 a43e c963 c5be b6e8 c7bd 61e4 9c3d
000002f0: 053c f43d cb94 583e 77be d4bd 83b3 383e
00000300: b031 c93d 5dcc 04be a066 71be 9837 ae3e
00000310: 4109 84be 278c 913e 36d4 283e 99e1 debd
00000320: 3c00 273e fe50 2dbe 9c7e 903e 72c7 a3bb
00000330: a1f9 30bd 1465 0fbd 7865 253e b98f 6bbd
00000340: 1038 e2bb 9c88 96be 37aa 363e b189 c0be
00000350: 6e1a c8bd b8f3 8b3e 6f7b a6be 27a8 873d
00000360: 1aef 4cbe 3228 943c e6ff b73d 9ac8 943e
00000370: db1b 843c 1909 3abd 2e32 39be 4948 babe
00000380: d87d 423e c22e a4be 46f4 043e 1b3a 84bc
00000390: e015 7abd 6021 643e fe9f 8e3c 324e 2dbb
000003a0: e0cd a13e 9802 38be 9c4a bdbe 948d 9abd
000003b0: 9977 94be 5b75 38be 346e 243e 2548 7a3e
000003c0: 54b6 50be 6508 b63e a83b a4be 4e49 a73e
000003d0: 619c b63e 126f ecbc 660e e33d 1301 b73e
000003e0: 083c ddbd be17 2f3e e014 e63c e9e8 41be
000003f0: 519e d5bd b2ee a53e fd17 d6bd b0f5 52be

rnn.weight_hh_l0 f4 [32, 8]
-0.018393178 0.2511386 -0.24715936 0.34592634 0.06896463 -0.27309468 -0.25141764 0.3171639
0.03922263 0.21923314 -0.016998451 0.32317016 -0.11304189 -0.1098618 0.0053667626 -0.32987392
-0.27223465 -0.23003805 0.34620497 0.20806895 0.24820615 0.04689196 0.18756685 0.13077196
0.36497167 0.2849225 0.028026095 0.06847145 0.1173574 0.23220257 0.40434572 0.20335738
0.038206276 0.20065701 -0.24502648 0.2880965 0.29871097 0.018679185 -0.08839727 -0.24851407
0.37686417 0.06586656 0.3633422 0.30345696 -0.025977155 -0.32434195 0.10192807 -0.13478298
0.086091496 -0.19250038 0.34969953 0.0048947413 0.3382632 -0.28193986 0.020802135 0.045836274
-0.107213885 0.13927108 0.15924117 -0.3287784 -0.20097445 0.0010228507 -0.093484685 0.17828251
0.10867051 0.23202778 -0.09409536 -0.17232631 -0.24490885 -0.19718374 -0.06769552 0.19267766
0.2636029 -0.29140216 -0.04061881 0.15805934 0.1292599 -0.32367718 0.3718623 -0.26621044
-0.26932323 0.3380276 -0.3216462 0.20999704 0.02051808 -0.072533086 -0.056353115 -0.14610124
0.21470363 -0.2831784 0.15005839 -0.14796472 0.2558704 -0.08653279 0.3182394 0.2828252
0.1426566 0.006209378 -0.31448334 -0.03283127 -0.0310073 -0.33552483 0.11466772 0.20813663
-0.23259278 0.19995221 0.22653595 0.14564493 -0.3934317 0.15546754 -0.19900723 0.1805473
-0.17886256 0.13192938 -0.06706873 0.032967214 -0.23419568 -0.09303248 0.31862628 -0.1317618
0.20018235 -0.019311218 -0.117804214 -0.1303338 0.09179688 -0.16606775 0.043354847 0.122303724
0.3302181 -0.13626033 0.13412023 0.23134622 -0.040170822 0.13810064 -0.10867943 0.012071101
0.17638658 0.30413696 -0.28532696 0.30782995 0.062501766 -0.23801108 -0.034927696 -0.34457973
-0.15904388 0.15148282 -0.018805763 0.08113765 0.30883914 -0.07756866 -0.00028855397 0.12138671
0.083042815 0.344326 0.13418639 0.07032477 0.033270113 0.16096365 0.26347587 -0.05354702
0.09439307 -0.28355306 -0.18318012 0.2607126 -0.2595044 0.119316556 -0.36898023 0.09226888
-0.11707987 -0.32334143 0.27874765 0.12934425 -0.32773134 0.36035016 -0.24596472 -0.0064990986
0.18141766 -0.07599175 -0.1667829 -0.17122403 -0.17303863 -0.01713397 0.19836532 -0.059847716
-0.12020569 -0.19858585 0.08421204 0.26645368 0.2996708 0.16362251 -0.1800371 -0.11736502
0.31436795 0.3132954 0.12864275 0.21894164 -0.2459123 0.3141307 0.05010028 0.26128286
0.14255728 -0.34129894 -0.035155643 0.21499345 0.2964865 0.18236789 -0.24094631 -0.1736519
-0.0625748 0.3561216 0.15942855 -0.05894361 0.1666578 0.06349505 0.049295686 -0.18310033
-0.051099125 8.05497e-05 -0.059298698 -0.25142348 0.18468094 -0.20938382 -0.078772746 -0.1015977
0.016574856 0.12841305 0.20575257 -0.095769875 0.011555117 -0.25194 0.1574141 -0.33145523
0.16794473 -0.099491134 -0.050865967 0.18343711 0.19614586 0.22349505 -0.16079475 0.17265116
-0.29909664 0.016145399 0.23829241 -0.069234416 0.051321127 -0.18425784 -0.17749676 0.23339398
0.24419378 0.27866927 -0.23924538 -0.2721823 0.2110109 -0.13551277 -0.1641704 -0.29981828
00000000: 4aad 96bc 3d95 803e 5817 7dbe 421d b13e
00000010: 543d 8d3d 11d3 8bbe d0b9 80be 4f63 a23e
00000020: e9a7 203d a77e 603e 5640 8bbc 8f76 a53e
00000030: 8282 e7bd 39ff e0bd abdb af3b 3ce5 a8be
00000040: 5762 8bbe 188f 6bbe c741 b13e 0710 553e
00000050: c129 7e3e c911 403d 8611 403e 16e9 053e
00000060: 91dd ba3e 5de1 913e fb96 e53c c23a 8c3d
00000070: 1459 f03d 83c6 6d3e 6706 cf3e eb3c 503e
00000080: 2f7e 1c3d 0879 4d3e 39e8 7abe 6281 933e
00000090: a5f0 983e 1705 993c a109 b5bd 797a 7ebe
000000a0: 57f4 c03e 0ce5 863d fd07 ba3e b65e 9b3e
000000b0: 0bce d4bc 2610 a6be aabf d03d 8d04 0abe
000000c0: bd50 b03d d21e 45be d10b b33e 1164 a03b
000000d0: d630 ad3e 6c5a 90be 3d69 aa3c d1be 3b3d
000000e0: f492 dbbd 149d 0e3e 1e10 233e a455 a8be
000000f0: 3fcc 4dbe 2d11 863a e674 bfbd b18f 363e
00000100: a58e de3d b198 6d3e 11b5 c0bd 4f76 30be
00000110: 63c9 7abe 89ea 49be f3a3 8abd 4b4d 453e
00000120: f6f6 863e aa32 95be e95f 26bd 4fda 213e
00000130: b55c 043e 04b9 a5be bc64 be3e bc4c 88be
00000140: bce4 89be f411 ad3e d0ae a4be 7709 573e
00000150: 8815 a83c 3a8c 94bd 86d2 66bd 909b 15be
00000160: 45db 5b3e c2fc 90be e8a8 193e 1084 17be
00000170: 7201 833e 1a38 b1bd 46f0 a23e 77ce 903e
00000180: 9214 123e 0a78 cb3b f603 a1be 157a 06bd
00000190: 0503 febc e9c9 abbe e9d6 ea3d c521 553e
000001a0: cd2c 6ebe 46c0 4c3e 0af9 673e f223 153e
000001b0: e16f c9be e232 1f3e 8dc8 4bbe 64e1 383e
000001c0: bf27 37be 7f18 073e 555b 89bd a108 073d
000001d0: fed0 6fbe d087 bebd fc22 a33e 91ec 06be
000001e0: 9afc 4c3e 8f32 9ebc 5643 f1bd 3976 05be
000001f0: 0100 bc3d aa0d 2abe da94 313d 607a fa3d
00000200: 5912 a93e d487 0bbe d056 093e 06e6 6c3e
00000210: 298a 24bd 416a 0d3e 5293 debd dec5 453c
00000220: af9e 343e d7b7 9b3e 6016 92be e39b 9d3e
00000230: ed00 803d 2db9 73be 5810 0fbd c16c b0be
00000240: 66dc 22be 501e 1b3e 8b0e 9abc 7f2b a63d
00000250: 2a20 9e3e 51dc 9ebd 0f49 97b9 9899 f83d
00000260: 5a12 aa3d 7f4b b03e 2868 093e 6f06 903d
00000270: 3e46 083d a8d3 243e 4fe6 863e 1f54 5bbd
00000280: 2751 c13d de2d 91be 9293 3bbe 1f7c 853e
00000290: c3dd 84be 3d5c f43d faea bcbe 77f7 bc3d
000002a0: 92c7 efbd 028d a5be 03b8 8e3e d272 043e
000002b0: 67cc a7be d17f b83e 2dde 7bbe 64f6 d4bb
000002c0: 8dc5 393e 90a1 9bbd 23c9 2abe 5a55 2fbe
000002d0: 0a31 31be 8a5c 8cbc 4720 4b3e e122 75bd
000002e0: 672e f6bd 175a 4bbe 5d77 ac3d 9e6c 883e
000002f0: 736e 993e a98c 273e a55b 38be 125d f0bd
00000300: d6f4 a03e 4168 a03e edba 033e 3d32 603e
00000310: 6fd0 7bbe bdd5 a03e f435 4d3d dec6 853e
00000320: 89fa 113e bcbe aebe 5dff 0fbd 3e27 5c3e
00000330: 14cd 973e a6be 3a3e a1ba 76be ced1 31be
00000340: 3727 80bd 9255 b63e 3d41 233e db6e 71bd
00000350: 58a8 2a3e b109 823d 46ea 493d a77e 3bbe
00000360: 514d 51bd caec a838 31e3 72bd 94ba 80be
00000370: 001d 3d3e b668 56be 9b53 a1bd 7412 d0bd
00000380: fec7 873c b67e 033e cdb0 523e ff22 c4bd
00000390: ac51 3d3c 48fe 80be 2931 213e 80b4 a9be
000003a0: b4f9 2b3e 02c2 cbbd d558 50bd f0d6 3b3e
000003b0: 76da 483e e3db 643e 61a7 24be 77cb 303e
000003c0: 3223 99be 5b43 843c ed02 743e c6ca 8dbd
000003d0: 1a36 523d 16ae 3cbe b6c1 35be d5fe 6e3e
000003e0: ef0d 7a3e bdad 8e3e befc 74be 7a5b 8bbe
000003f0: 3e13 583e dcc3 0abe 491c 28be c881 99be

rnn.bias_ih_l0 f4 [32]
0.3137948 0.07302957 0.31090087 -0.28352177 0.30753782 0.32992506 0.34183052 0.29149273
-0.30647576 0.1849263 0.17280379 -0.1791263 0.00514321 0.061751757 -0.29426304 -0.1067176
0.24248964 0.20194341 0.010042458 0.16416915 -0.2053242 -0.07621378 0.11450848 -0.3180779
-0.34416825 0.14640424 -0.32852718 0.3359337 0.2597227 -0.012344414 -0.17186001 -0.18995766
00000000: b6a9 a03e 8790 953d 662e 9f3e c429 91be
00000010: 9975 9d3e f0eb a83e 6904 af3e 893e 953e
00000020: 64ea 9cbe 525d 3d3e 7af3 303e e36c 37be
00000030: 5f88 a83b 69ef 7c3d a5a9 96be c28e dabd
00000040: 344f 783e 41ca 4e3e 1f89 243c f51b 283e
00000050: 8240 52be f815 9cbd 6c83 ea3d 1bdb a2be
00000060: d236 b0be feea 153e b734 a8be 80ff ab3e
00000070: 60fa 843e 3a40 4abc 12fc 2fbe 4384 42be

rnn.bias_hh_l0 f4 [32]
-0.11497189 0.15654863 0.15695871 0.25480038 -0.033888455 0.0053446135 -0.17865607 -0.31134248
-0.06536109 0.12925227 -0.0703657 0.18029685 -0.2697059 0.09972054 0.2759589 -0.012460432
0.14094816 -0.068030074 0.27417824 -0.10719922 0.1583751 0.038838003 -0.115631 0.030598506
-0.30828148 -0.2791918 0.30800956 -0.100909695 0.24793774 0.119717464 0.12316046 0.18840137
00000000: 6276 ebbd 494e 203e c9b9 203e 3275 823e
00000010: 9fce 0abd de21 af3b 9ef1 36be 4868 9fbe
00000020: 09dc 85bd b55a 043e e41b 90bd bd9f 383e
00000030: e416 8abe 483a cc3d 7c4a 8d3e d726 4cbc
00000040: b754 103e 5a53 8bbd 1761 8c3e 448b dbbd
00000050: 152d 223e 9914 1f3d f2cf ecbd b8a9 fa3c
00000060: 12d7 9dbe 3af2 8ebe 6eb3 9d3e bea9 cebd
00000070: 64e3 7d3e 6e2e f53d 8d3b fc3d 4aec 403e
