models/VANE_node_pred_n2v_model/Extractor_epoch_14.pth (torch, 229143 bytes, 5 tensors)

encoder.weight f4 [850, 64]
0	0xbd68215a	-0.05667243
1	0x3d5e3cd4	0.05425723
2	0xbc40e2af	-0.011772796
3	0x3cdcd8b2	0.026958797
4	0x3db59703	0.08866694
5	0xbdc6af20	-0.09701371
6	0xbdc469c0	-0.09590483
7	0xbd4ef717	-0.050528612
8	0x3cc0f574	0.023554541
9	0x3c57e3da	0.013176883
10	0xbb18b362	-0.002330028
11	0xbd728790	-0.059211314
12	0x3a3682fc	0.0006962267
13	0xbd73d5cf	-0.059530076
14	0xbc654c46	-0.013995236
15	0x3d9c9e8d	0.07647429
16	0x3d9b5a35	0.07585565
17	0xbd9b749c	-0.07590601
18	0x3cc1e88b	0.023670455
19	0x3d5096ea	0.050925173
20	0x3c4c7677	0.012479416
21	0x3dbbc3d0	0.09168208
22	0x3d37b8fd	0.044854153
23	0xbd425f73	-0.04745431
24	0x3c678677	0.01413118
25	0xbdae1fc7	-0.08502155
26	0xbcef1e9e	-0.029189404
27	0xbd62fa82	-0.055414684
28	0xbdc0a000	-0.094055176
29	0xbd29d031	-0.041458312
30	0xbd922120	-0.07135224
31	0xbb991ef3	-0.004672879
32	0xbd7eb3d2	-0.06218321
33	0xbca4232f	-0.020036308
34	0x3de940d4	0.11389318
35	0x3b4aed07	0.0030964033
36	0xbc55c79d	-0.01304808
37	0xbdfce388	-0.12348086
38	0x3d456809	0.04819492
39	0xbc96180f	-0.018322019
40	0xbcf7627c	-0.030198328
41	0x3d9561e3	0.07294061
42	0xbd5fdef1	-0.054655973
43	0xbd53b573	-0.051686715
44	0x3d830faf	0.06399476
45	0x3d28626f	0.0411095
46	0x3d44c31a	0.048037626
47	0xbd924a99	-0.071431346
48	0x3d8605c5	0.06544069
49	0xbda63169	-0.08114893
50	0xbcedae90	-0.029013902
51	0xba206dcc	-0.00061198766
52	0xbd4a6db6	-0.049421035
53	0xbd905555	-0.07047526
54	0xbda6a0d5	-0.08136145
55	0x3bfc584e	0.0077009564
56	0x3db68e55	0.089138664
57	0x3d9cd920	0.07658601
58	0xbd6064cb	-0.054783624
59	0xbd80372e	-0.06260525
60	0xbc4652c0	-0.01210469
61	0x3d9b2165	0.07574729
62	0x3d470e1d	0.048597444
63	0xbb64836a	-0.0034868368
64	0xbd5cd22b	-0.05391137
65	0x3d8a2f3f	0.06747293
66	0xbc334909	-0.010942706
67	0x3ca2b116	0.019859832
68	0x3d9a42d6	0.07532279
69	0xbd97fe9b	-0.07421609
70	0xbdb68ae4	-0.0891321
71	0xbd17d266	-0.037065886
72	0x3c51e852	0.012811737
73	0x3a9efe20	0.0012130179
74	0x3b8bf725	0.0042714053
75	0xbd9cfded	-0.0766562
76	0xbc04d342	-0.008107008
77	0xbd77c6bd	-0.060492266
78	0xbcf03642	-0.029322747
79	0x3da23fc1	0.07922316
80	0x3dc90c39	0.098167844
81	0xbd84c0bd	-0.064820744
82	0x3c96bf32	0.018401716
83	0xbb625844	-0.0034537474
84	0xbbb9dd49	-0.005672131
85	0x3ddc5853	0.10759034
86	0x3d6c7054	0.057724312
87	0xbcc3db95	-0.023908416
88	0x3c851f45	0.016250262
89	0xbdc764c8	-0.097360194
90	0xbd0c068b	-0.034185927
91	0xbd9d5536	-0.07682268
92	0xbdb3ae29	-0.08773453
93	0xbcc00935	-0.02344189
94	0xbd923104	-0.07138255
95	0xbc83a0e8	-0.016067937
96	0xbce62fce	-0.028098967
97	0xbb9834e0	-0.004644975
98	0x3df93d48	0.121698916
99	0x3cf624ee	0.030046906
100	0xbce3eae1	-0.02782196
101	0xbde50373	-0.111822985
102	0x3d8627af	0.06550538
103	0xbd8afe48	-0.067867815
104	0xbd0e5cc7	-0.034756448
105	0x3d496696	0.0491701
106	0xbd160929	-0.03662983
107	0xbc555ee1	-0.013023109
108	0x3d9ff6c0	0.07810736
109	0x3cb75f2a	0.022384245
110	0x3d3c7b48	0.046016008
111	0xbd59fc4e	-0.053219132
112	0x3d989b5e	0.07451509
113	0xbd331d1b	-0.04372893
114	0xbd67c350	-0.05658275
115	0x3c73f189	0.014889129
116	0xbd88bee7	-0.06677037
117	0xbdb1ca7f	-0.08681201
118	0xbd97c953	-0.074114464
119	0xbaed388a	-0.0018098515
120	0x3dd968ab	0.10615667
121	0x3db869fd	0.09004591
122	0xbd8ca638	-0.06867641
123	0xbd4150dc	-0.047196254
124	0xbd1045e4	-0.035222903
125	0x3d8c63d3	0.068549775
126	0x3c9f875c	0.019473724
127	0x3c52c832	0.012865113
128	0xbcb6c661	-0.022311391
129	0xbd3ee2f1	-0.046603147
130	0xbc4a7a2f	-0.012358232
131	0xbadf5b16	-0.0017040696
132	0x3db990e6	0.0906084
133	0xbd91134f	-0.07083761
134	0xbdd31171	-0.10306061
135	0xbc8faf72	-0.017539714
136	0x3c01b938	0.007917695
137	0xbdd1d4e7	-0.10245686
138	0x3c3260f0	0.0108873695
139	0xbdcd4c2e	-0.10024296
140	0x3874fccf	5.840958e-05
141	0xbdab4400	-0.08362579
142	0x3d7d7a21	0.06188405
143	0x3dd02155	0.101626076
144	0x3da1feba	0.07909913
145	0xbd157e01	-0.03649712
146	0x3c5c571c	0.013448503
147	0x3cc14595	0.02359275
148	0x3c2a101f	0.01037982
149	0x3d38f138	0.04515192
150	0x3d0fd8fa	0.035119034
151	0xbda75855	-0.08171145
152	0xbd53c26e	-0.051699094
153	0x3c3ebdb9	0.011641913
154	0xbc91b0dd	-0.01778453
155	0xbce0b394	-0.02742938
156	0xbd89b732	-0.06724395
157	0xbd1081f6	-0.03528019
158	0x3d02655b	0.03183494
159	0x3d158acd	0.036509324
160	0xbe00176f	-0.12508939
161	0xbdaa0a2c	-0.083027214
162	0x3cddd905	0.027081022
163	0xbd1a260e	-0.037633948
164	0x3da56524	0.08075932
165	0xbdb66616	-0.0890619
166	0x3d3b85ae	0.045781784
167	0x3d4598bf	0.048241373
168	0x3d8fc93f	0.070208065
169	0x3d849933	0.06474533
170	0xbd49a757	-0.049231853
171	0xbdd0f73e	-0.10203408
172	0x3d5a757e	0.053334706
173	0xbd44cf76	-0.048049413
174	0x3d16217c	0.036653027
175	0x3c657415	0.014004727
176	0x3cd09871	0.025463315
177	0xbd2b2b1e	-0.041789167
178	0x3cb5214e	0.022110607
179	0x3d3093f9	0.043109868
180	0xbd6c6c13	-0.057720255
181	0xbdc144c0	-0.09436941
182	0xbda83f20	-0.08215165
183	0xbcd700e2	-0.026245538
184	0xbcd29754	-0.025706924
185	0x3ce095f5	0.027415255
186	0xbd11dccc	-0.03561096
187	0x3b92b71f	0.004477396
188	0x3d73e3f4	0.059543565
189	0x3d00d405	0.031452198
190	0xbd4b6752	-0.04965908
191	0xbc5cc538	-0.013474755
192	0xbc22ffb1	-0.009948657
193	0xbd6876f3	-0.056754064
194	0x3d934e4a	0.07192667
195	0xbd53b454	-0.051685646
196	0x3e006a73	0.12540607
197	0xbca3f65f	-0.02001494
198	0xbd4455a7	-0.047933247
199	0x3d6f08c3	0.058357965
200	0x3db9d434	0.09073678
201	0x3d061c5b	0.032741886
202	0xbdd7d0ef	-0.10537898
203	0xbca46bea	-0.020070989
204	0x3dc0a8c1	0.09407187
205	0xbde699f0	-0.1125983
206	0x3b4bc1d5	0.0031090875
207	0x3dcbc31a	0.09949322
208	0x3d9bbc13	0.07604232
209	0x3d9f0f34	0.07766572
210	0xbc8318c8	-0.016003028
211	0x3d9feb3f	0.078085415
212	0x3d7e4828	0.062080532
213	0x3ca5d921	0.020245137
214	0x3d0e75ad	0.034780193
215	0x3b4fffba	0.0031738118
216	0xbdf8a156	-0.121401474
217	0x3cc8d02b	0.024513325
218	0xbacefa04	-0.0015791063
219	0xbb8208e3	-0.0039683445
220	0xbd404f53	-0.04695065
221	0xbd02001f	-0.031738397
222	0xbdd2b585	-0.10288528
223	0x3d407f8f	0.04699665
224	0xbd549b58	-0.05190596
225	0xbdc1df6e	-0.09466444
226	0x3c913bf0	0.017728776
227	0xbd8ef12e	-0.06979595
228	0x3d085362	0.033282645
229	0x3b80781d	0.0039205686
230	0x3dc98587	0.098399214
231	0x3d64567a	0.055746533
232	0x3d8d037b	0.068854295
233	0x3d3e42d9	0.04645047
234	0xbc5e2a34	-0.013559867
235	0xbda92276	-0.08258526
236	0xbc794a0a	-0.015215406
237	0x3db1986b	0.086716495
238	0xbd35bf61	-0.044371966
239	0xbdbca402	-0.092109695
240	0x3cb9b8c5	0.022671113
241	0xbdd41413	-0.10355391
242	0x3cce81d4	0.025208391
243	0x39e3d02f	0.00043451923
244	0xbd808ab4	-0.062764555
245	0xbd824f17	-0.063627414
246	0xbd2f1363	-0.042743098
247	0x3d165b19	0.03670797
248	0xbd6573df	-0.056018706
249	0x3dd81821	0.10551477
250	0xbd05c3d9	-0.032657478
251	0xbdd89a5d	-0.105763175
252	0x3da4ce21	0.080471285
253	0xbca583e0	-0.020204484
254	0xbd6f8511	-0.05847651
255	0xbca52684	-0.020159967

rnn.weight_ih_l0 f4 [32, 64]
0	0xbaf03fcd	-0.0018329561
1	0xbe113d3a	-0.14183512
2	0xbdc410e5	-0.09573535
3	0x3d689aac	0.05678813
4	0x3e6d94cc	0.23201293
5	0x3eab22dd	0.33425036
6	0x3d12a1a9	0.035798702
7	0xbe1999d1	-0.15000083
8	0xbebef4c8	-0.37296128
9	0xbd2720e1	-0.04080284
10	0x3d9fa713	0.07795539
11	0xbcb1a67e	-0.021685835
12	0xbe8df215	-0.27723756
13	0x3e80708f	0.25085875
14	0x3e795f06	0.24352655
15	0xbe55f064	-0.20892483
16	0x3de6979e	0.112593874
17	0xbc949266	-0.018136214
18	0x3e52c3eb	0.2058255
19	0x3b812b95	0.003941963
20	0xbdc43b5c	-0.095816344
21	0x3e03ab50	0.1285832
22	0x3e4b889b	0.1987633
23	0x3e1dfe14	0.15428954
24	0xbd710703	-0.058844578
25	0xbe7fca3c	-0.2497949
26	0xbdbfdd3d	-0.0936837
27	0xbd243529	-0.04008976
28	0x3eb4320d	0.35194436
29	0x3dc6c92d	0.0970634
30	0xbe83a964	-0.25715172
31	0xbeb35d54	-0.3503214
32	0xbe73f52f	-0.23823999
33	0xbd6eaa67	-0.058267977
34	0xbe09dfdc	-0.13464302
35	0xbecf584d	-0.40497056
36	0xbe44f3d4	-0.19233638
37	0xbe04ea1b	-0.12979929
38	0x3d17312a	0.03691212
39	0xbe82636c	-0.25466478
40	0xbdc4c28c	-0.09607419
41	0x3ea7bb78	0.32760215
42	0xbcb519d7	-0.022107048
43	0x3defa8e6	0.11702137
44	0x3ec1f210	0.37879992
45	0x3df536b5	0.11973325
46	0xbd145f31	-0.036223594
47	0xbe8277eb	-0.25482115
48	0x3e9c4ac7	0.305258
49	0xbd439f76	-0.047759496
50	0x3db6e67a	0.08930679
51	0x3db772a4	0.08957413
52	0x3e86c28d	0.26320305
53	0xbca1644e	-0.01970115
54	0xbe820585	-0.25394836
55	0xbd75fafc	-0.06005381
56	0xbc82dcde	-0.015974458
57	0x3cc330aa	0.023826916
58	0xbdf442a0	-0.1192677
59	0x3c4cdd98	0.012504004
60	0x3cf6f305	0.030145178
61	0x3d565d79	0.052335236
62	0x3d9cee77	0.07662671
63	0xbea0eb6a	-0.31429607
64	0x3e3a19e8	0.18173945
65	0x3e64a471	0.22328354
66	0x3e61abfc	0.22038263
67	0x3d6a5692	0.057211466
68	0xbcbadeda	-0.022811342
69	0xbe32cc89	-0.17460836
70	0xbd9a6723	-0.07539203
71	0x3eb32fd6	0.34997433
72	0xbdaa9c69	-0.08330614
73	0xbe0fa031	-0.14025952
74	0xbe517555	-0.20454915
75	0xbd437a7e	-0.04772424
76	0x3dd8332c	0.10556635
77	0x3e8242fe	0.25441736
78	0x3e4f045c	0.20216507
79	0xbe12e7e5	-0.14346273
80	0x3e88b90f	0.26703689
81	0xbd9c0b5c	-0.07619354
82	0xbea99fc6	-0.3312971
83	0xbe563f7c	-0.20922655
84	0xbdf94221	-0.12170816
85	0xbea98ef7	-0.33116886
86	0x3d83b2d4	0.06430593
87	0x3e8ed194	0.2789427
88	0xbe413bbf	-0.18870448
89	0x3eb1f662	0.34758288
90	0xbe12e4eb	-0.14345138
91	0xbe4e7b6e	-0.20164272
92	0xbe850c90	-0.25986147
93	0xbcbc287b	-0.022968521
94	0x3e8c93cd	0.27456513
95	0x3cd83b19	0.026395367
96	0x3d2c8e2a	0.042127766
97	0x3e239949	0.15976442
98	0x3da4ae40	0.08041048
99	0xbe48a666	-0.19594726
100	0x3e251eb0	0.16124988
101	0xbe56fd58	-0.2099508
102	0xbe8024f9	-0.25028208
103	0xbe556603	-0.20839696
104	0xbe06e126	-0.13171825
105	0x3eb65286	0.35609835
106	0xbdcccc58	-0.09999913
107	0xbd978747	-0.07398849
108	0x3bd037d6	0.0063543124
109	0x3ec55dbb	0.38548073
110	0xbe558fb0	-0.20855594
111	0x3e49af1e	0.19695708
112	0xbc87131f	-0.01648861
113	0xbe026f87	-0.12737857
114	0xbd6d961f	-0.058004495
115	0x3e7d5d5d	0.24742647
116	0x3e84d6e3	0.25945196
117	0x3e581fb3	0.21105842
118	0xbde590c3	-0.11209252
119	0x3e761bb2	0.24034002
120	0xbe849841	-0.2589741
121	0xbe34feed	-0.17675371
122	0x3e83c464	0.25735772
123	0xbeaac909	-0.33356503
124	0x3e13fb94	0.14451438
125	0x3eb24e21	0.34825233
126	0x3eb5ae4a	0.35484535
127	0xbe1ebc0a	-0.15501419
128	0x3e610026	0.21972713
129	0x3e735a18	0.23764837
130	0x3e139eff	0.14416121
131	0xbd2e0b99	-0.04249153
132	0x3d9e33c1	0.07724715
133	0xbe83eda3	-0.2576724
134	0xbc4b709e	-0.012416987
135	0xbdb11bc1	-0.08647872
136	0x3cd6de8c	0.026229165
137	0x3ea8d4e6	0.3297493
138	0xbec2c8ee	-0.38043922
139	0xbdea207d	-0.11431978
140	0xbd123c5f	-0.035702106
141	0x3e5a8e8a	0.21343437
142	0x3e45e45e	0.19325396
143	0x3d8cd5bc	0.06876704
144	0xbe891fca	-0.26782066
145	0xbe2b8a3a	-0.16751948
146	0x3e0b962d	0.13631506
147	0xbe6b52db	-0.22980826
148	0x3e995b9f	0.29952714
149	0xbeb98244	-0.36232197
150	0xbe18550d	-0.14876194
151	0xbe0ceca0	-0.1376214
152	0x3e246940	0.16055775
153	0xba94fbf9	-0.0011366598
154	0xbe7fe20b	-0.24988572
155	0x3de93783	0.11387541
156	0x3d5586e1	0.052130584
157	0xbd8d31fe	-0.06894301
158	0x3d3f189a	0.04665432
159	0xbe9586ef	-0.2920451
160	0xbe2025f6	-0.15639481
161	0x3e9f1b85	0.31075683
162	0x3e85cc87	0.26132604
163	0xbda64daf	-0.08120286
164	0x3e49b7f4	0.19699079
165	0x3eafdb3c	0.3434695
166	0x3e4470a0	0.19183588
167	0xbc0dc703	-0.008653405
168	0x3e5d6b00	0.21622849
169	0xbe27607d	-0.16345401
170	0xbe0ca29f	-0.1373391
171	0x3ebdb0fa	0.37049085
172	0x3e202697	0.15639721
173	0xbe1ebdec	-0.15502137
174	0x3c4f8be7	0.012667633
175	0x3e70d589	0.23518957
176	0x3e49599e	0.19663092
177	0x3e0de53e	0.1385698
178	0x3e00db6e	0.12583706
179	0xbe1758a2	-0.14779904
180	0x3dd5bf51	0.10436881
181	0x3dae2522	0.08503176
182	0xbdefb0ea	-0.117036656
183	0x3e015fbc	0.12634176
184	0x3ea7a38d	0.32741967
185	0xbec4cb34	-0.38436282
186	0xbdafef00	-0.085905075
187	0x3d975a99	0.07390327
188	0x3dd85e9e	0.10564922
189	0x3e589773	0.21151523
190	0xbddbb384	-0.10727599
191	0x3e404b66	0.18778762
192	0x3dd85f8f	0.10565101
193	0xbdff6dfe	-0.12472151
194	0xbe64a9c3	-0.22330384
195	0x3ea989ad	0.3311285
196	0xbe841b96	-0.25802296
197	0x3e95de69	0.29271248
198	0x3e2f9efc	0.17150491
199	0xbdd9a7ab	-0.10627683
200	0x3e2b5975	0.16733344
201	0xbe1ba19d	-0.1519837
202	0x3e8958e6	0.26825637
203	0x3c55dd32	0.013053225
204	0xbd0d32d4	-0.0344723
205	0xbd0b7de6	-0.034055613
206	0x3e22e915	0.15909226
207	0xbd6c1ba4	-0.057643548
208	0xbbf6aa5b	-0.007527632
209	0xbe8d3e54	-0.27586615
210	0x3e2bd3a5	0.16779955
211	0xbeb7fa18	-0.35932994
212	0xbdae4531	-0.08509291
213	0x3e8ac401	0.27102664
214	0xbeae48e9	-0.3404
215	0x3da60d63	0.08108022
216	0xbe51d020	-0.2048955
217	0x3c06347f	0.008191227
218	0x3dbea404	0.09308627
219	0x3e9237ef	0.285583
220	0x3cc9e40f	0.02464488
221	0xbd438512	-0.047734328
222	0xbe408d20	-0.18803835
223	0xbebdc1de	-0.3706197
224	0x3e47d864	0.1951614
225	0xbea24d0a	-0.316994
226	0x3e048c99	0.12944259
227	0xbc9a606d	-0.018844808
228	0xbd8af6a6	-0.06785326
229	0x3e758a30	0.23978496
230	0x3c8592cd	0.016305352
231	0x3ae77360	0.0017658286
232	0x3ea42ab5	0.32063833
233	0xbe377a6a	-0.17917791
234	0xbebf4891	-0.3736005
235	0xbd8519fe	-0.06499098
236	0xbe966d6c	-0.29380357
237	0xbe25b356	-0.16181692
238	0x3e0fdc2a	0.1404883
239	0x3e71c884	0.23611647
240	0xbe553f91	-0.2082503
241	0x3eb3c3dc	0.35110366
242	0xbea4bf71	-0.32177308
243	0x3ea4c758	0.32183337
244	0x3eb8bdaa	0.36082202
245	0xbcb837ab	-0.022487482
246	0x3df1ac8d	0.118004896
247	0x3eb9c64c	0.362841
248	0xbdc97067	-0.09835892
249	0x3e3217ac	0.17391843
250	0x3d097dc2	0.033567198
251	0xbe47ed7f	-0.19524191
252	0xbdd8f3b6	-0.10593359
253	0x3ea3a75a	0.31963617
254	0xbde7ce38	-0.1131863
255	0xbe561514	-0.20906478

rnn.weight_hh_l0 f4 [32, 8]
0	0xbc0cb8b4	-0.0085889585
1	0x3e889c34	0.26681674
2	0xbe7df480	-0.248003
3	0x3eb64f03	0.35607156
4	0x3d78564a	0.060629167
5	0xbe8141df	-0.25245568
6	0xbe75fb71	-0.24021699
7	0x3e9d1278	0.30678153
8	0x3d530026	0.051513813
9	0x3e6f96ae	0.23397323
10	0xbc825256	-0.015908401
11	0x3ea98e65	0.3311645
12	0xbdf9cc6f	-0.12197196
13	0xbdb67ced	-0.089105465
14	0x3c91fc02	0.017820362
15	0xbeae654a	-0.34061652
16	0xbe8f0455	-0.27932993
17	0xbe75d842	-0.24008277
18	0x3eaea613	0.3411108
19	0x3e4cc396	0.19996485
20	0x3e820631	0.2539535
21	0x3d0e2baf	0.03470963
22	0x3e4215b3	0.1895359
23	0x3e0cae83	0.13738446
24	0x3eb9474c	0.36187208
25	0x3e8f53f0	0.27993727
26	0x3ccad14d	0.024758006
27	0x3d871ad6	0.065969154
28	0x3df60592	0.12012781
29	0x3e5fb167	0.21845017
30	0x3ece6a62	0.4031554
31	0x3e52153d	0.20515914
32	0x3d42f00d	0.04759221
33	0x3e5d3017	0.21600376
34	0xbe74aac6	-0.2389327
35	0x3e9a9b68	0.3019669
36	0x3e99c15b	0.3003033
37	0x3caccac0	0.021092772
38	0xbdb88b00	-0.09010887
39	0xbe84cb5d	-0.25936404
40	0x3eba123a	0.3634203
41	0x3d444e14	0.047926024
42	0x3ebd65b4	0.36991656
43	0x3e9dbc16	0.3080756
44	0xbc89134e	-0.016732838
45	0xbe94a925	-0.29035297
46	0x3dd199d0	0.102344155
47	0xbddce54c	-0.107859224
48	0x3da3dafe	0.08000754
49	0xbe48633d	-0.19569106
50	0x3eb38d46	0.3506872
51	0x3b6096a9	0.0034269488
52	0x3eb1d52a	0.34732944
53	0xbe8a1e0a	-0.26976043
54	0x3d06eb0a	0.032938994
55	0x3d4cd8e8	0.050011545
56	0xbde1ba44	-0.110218555
57	0x3e0f07bf	0.13967799
58	0x3e20e981	0.15714075
59	0xbea54a41	-0.32283214
60	0xbe4afdb7	-0.19823347
61	0x3c6e7f04	0.01455665
62	0xbdb8e0a9	-0.090272255
63	0x3e3c90b7	0.1841458
64	0x3df05194	0.1173431
65	0x3e7c91ca	0.24664989
66	0xbdc20e89	-0.094754286
67	0xbe2660c8	-0.16247857
68	0xbe80b63c	-0.25139034
69	0xbe346e8e	-0.17620298
70	0xbd6e05d9	-0.058111046
71	0x3e3c9233	0.18415146
72	0x3e8c970a	0.27458984
73	0xbe8e5826	-0.27801627
74	0xbd238556	-0.03992208
75	0x3e28b621	0.16475727
76	0x3df42fe3	0.11923196
77	0xbe9b0390	-0.30276155
78	0x3ec3bd7b	0.382305
79	0xbe8d1a8d	-0.2755932
80	0xbe8d23d4	-0.27566397
81	0x3ea7a055	0.3273951
82	0xbea7b15d	-0.32752505
83	0x3e4e9b41	0.20176412
84	0x3cc42b3b	0.023946395
85	0xbdac967d	-0.08427141
86	0xbd6c565c	-0.057699546
87	0xbe0e6657	-0.13906227
88	0x3e560594	0.20900565
89	0xbe95fe82	-0.29295737
90	0x3e151fef	0.14562963
91	0xbe1c4584	-0.15260893
92	0x3e8496a3	0.25896177
93	0xbdc8fd9d	-0.09813998
94	0x3ea318f9	0.3185499
95	0x3e93b210	0.28846788
96	0x3e16397a	0.14670363
97	0x3c736fea	0.014858225
98	0xbea03a99	-0.31294706
99	0xbcd01b38	-0.025403604
100	0xbd00b658	-0.031423897
101	0xbeac8fbc	-0.3370341
102	0x3df48680	0.11939716
103	0x3e50a6bf	0.20376109
104	0xbe74c56e	-0.23903438
105	0x3e42d299	0.19025649
106	0x3e6f5d5c	0.23375458
107	0x3e199983	0.14999966
108	0xbec6977a	-0.38787442
109	0x3e3ca096	0.18420634
110	0xbe53f264	-0.20697933
111	0x3e4d867a	0.2007083
112	0xbe408129	-0.1879927
113	0x3dfb066d	0.12257085
114	0xbd8b4288	-0.06799799
115	0x3cd8b329	0.026452618
116	0xbe65a817	-0.22427402
117	0xbda812d3	-0.082067154
118	0x3ea4fb4f	0.32222983
119	0xbdfb9c65	-0.12285689
120	0x3e4a79f1	0.1977308
121	0xbc9a57c0	-0.01884067
122	0xbdf6302f	-0.12020909
123	0xbdff12b7	-0.124547414
124	0x3dc2f7b6	0.09519903
125	0xbe1aabd4	-0.1510461
126	0x3d44d027	0.048050072
127	0x3e028a02	0.12747958
128	0x3ead610f	0.33863112
129	0xbdfb0cd9	-0.1225831
130	0x3e0b0f31	0.13580014
131	0x3e7d2e0b	0.24724595
132	0xbd2d32b6	-0.04228469
133	0x3e2f20c3	0.17102341
134	0xbdcc57d2	-0.09977688
135	0x3c077507	0.008267648
136	0x3e3b2af0	0.18278098
137	0x3ea25250	0.31703424
138	0xbe906fd7	-0.28210327
139	0x3ea2a562	0.31766802
140	0x3d7fb2a6	0.06242623
141	0xbe53bf53	-0.20678453
142	0xbcc01595	-0.023447791
143	0xbeb25463	-0.34830007
144	0xbe3db44b	-0.18525808
145	0x3defeca4	0.117150575
146	0xbce71142	-0.028206471
147	0x3d80a745	0.06281904
148	0x3eac8ccc	0.3370117
149	0xbdb1c285	-0.0867968
150	0xbb1dbd9c	-0.0024069315
151	0x3e19c100	0.1501503
152	0x3d92d761	0.071699865
153	0x3ea9695b	0.33088192
154	0x3e039679	0.1285037
155	0x3d78eb41	0.06077123
156	0x3d33b6d5	0.043875534
157	0x3e17346d	0.14766093
158	0x3e88073c	0.2656802
159	0xbd30931b	-0.04310904
160	0x3dab9531	0.083780654
161	0xbe99fed9	-0.30077246
162	0xbe3f55ff	-0.18685149
163	0x3e7cd5f7	0.24690996
164	0xbe828a10	-0.25495958
165	0x3de57f93	0.112059735
166	0xbebf9a37	-0.37422344
167	0x3dd2ba6b	0.10289463
168	0xbe00f269	-0.12592472
169	0xbeab8ddd	-0.3350667
170	0x3e8e79f4	0.27827418
171	0x3df33726	0.11875753
172	0xbea40317	-0.32033607
173	0x3eb0d53a	0.3453768
174	0xbe89f931	-0.2694793
175	0x390ccd89	0.00013428008
176	0x3e37b1ad	0.17938872
177	0xbda5a372	-0.08087815
178	0xbe36dc29	-0.17857422
179	0xbe3c3ca2	-0.18382505
180	0xbe2ca896	-0.16861185
181	0xbd9b1db9	-0.075740285
182	0x3e410157	0.18848167
183	0xbd895d05	-0.06707195
184	0xbdea7913	-0.11448874
185	0xbe4837e6	-0.19552574
186	0x3db4a360	0.08820224
187	0x3e86234d	0.26198807
188	0x3e94d1b3	0.29066238
189	0x3e1a9a1b	0.15097849
190	0xbe3c0825	-0.18362482
191	0xbe01b4ae	-0.1266658
192	0x3ea656e3	0.32488164
193	0x3ea896b7	0.32927486
194	0x3e04c0d1	0.12964179
195	0x3e6e8a0a	0.23294845
196	0xbe81145b	-0.25210842
197	0x3eae5a12	0.34053093
198	0x3d80e65a	0.06293936
199	0x3e809573	0.2511402
200	0x3e1f2dab	0.15544765
201	0xbea77b8f	-0.32711455
202	0xbd0b8763	-0.03406466
203	0x3e673f54	0.22582752
204	0x3e91fc67	0.2851288
205	0x3e52e935	0.20596774
206	0xbe666d1a	-0.22502556
207	0xbe3c0d35	-0.18364413
208	0xbd8d5b5e	-0.069021925
209	0x3eb1b710	0.34709978
210	0x3e1ecf53	0.15508775
211	0xbd88d114	-0.066805035
212	0x3e2ef707	0.17086421
213	0x3d51f68c	0.051260516
214	0x3d4fe252	0.050752945
215	0xbe352a0c	-0.17691821
216	0xbd5c6125	-0.05380358
217	0xbba3ca78	-0.0049985014
218	0xbd7e3e9c	-0.062071428
219	0xbe81ba74	-0.25337565
220	0x3e3e39ff	0.18576811
221	0xbe614bf1	-0.22001626
222	0xbda34acf	-0.07973253
223	0xbdcc6ce0	-0.09981704
224	0x3ce625d6	0.028094213
225	0x3e15f7c8	0.14645302
226	0x3e5b51d0	0.21417928
227	0xbd9beb9d	-0.07613299
228	0x3c5e6518	0.013573907
229	0xbe7a4dc1	-0.24443723
230	0x3e1cb5fa	0.15303794
231	0xbeaf8cbf	-0.34287068
232	0x3e1d3d9c	0.15355533
233	0xbdf3e8cd	-0.119096376
234	0xbd3777a4	-0.044791833
235	0x3e3e71c3	0.18598084
236	0x3e4ff871	0.20309617
237	0x3e819f8e	0.25317043
238	0xbe254748	-0.16140473
239	0x3e4ea813	0.20181303
240	0xbe9ba7b8	-0.30401397
241	0x3c6bb54d	0.014386487
242	0x3e74da23	0.23911338
243	0xbd90eabb	-0.07076021
244	0x3d6f552f	0.058430847
245	0xbe2f508b	-0.17120568
246	0xbe31785f	-0.17331074
247	0x3e72478c	0.23660105
248	0x3e7824a0	0.24232721
249	0x3e8f0c8f	0.2793927
250	0xbe75d183	-0.24005704
251	0xbe876921	-0.26447394
252	0x3e5b43eb	0.21412627
253	0xbdf8b653	-0.121441506
254	0xbe24171d	-0.16024442
255	0xbe97232a	-0.29519016

rnn.bias_ih_l0 f4 [32]
0	0x3ea60c48	0.32431245
1	0x3db3247e	0.08747195
2	0x3e9a7aad	0.3017172
3	0xbe932ca6	-0.28745002
4	0x3ea2ccf0	0.3179698
5	0x3e9c20c1	0.3049374
6	0x3eaaf7d5	0.33392206
7	0x3e900b23	0.28133497
8	0xbe9871e5	-0.29774395
9	0x3e4b0d66	0.1982933
10	0x3e28008b	0.16406457
11	0xbe4064db	-0.18788473
12	0x3c05507d	0.008136866
13	0x3d3aa5e0	0.045568347
14	0xbe9c39df	-0.30512902
15	0xbdee8978	-0.11647314
16	0x3e7bc33b	0.24586193
17	0x3e5480e4	0.20752293
18	0xbccde1a7	-0.025132013
19	0x3e18b947	0.14914428
20	0xbe5d4cc8	-0.21611321
21	0xbdaa6d59	-0.08321638
22	0x3df04da8	0.11733562
23	0xbe9bb8ff	-0.30414578
24	0xbeab46d2	-0.3345247
25	0x3e244972	0.16043642
26	0xbeac2c6a	-0.33627635
27	0x3ea9f333	0.3319336
28	0x3e8ab6cc	0.27092588
29	0xbd1e41ed	-0.03863709
30	0xbe35d6c1	-0.17757703
31	0xbe4c39dd	-0.19943948

rnn.bias_hh_l0 f4 [32]
0	0xbdd5ec11	-0.10445417
1	0x3e2f184a	0.1709911
2	0x3e17525f	0.14777516
3	0x3e807256	0.2508723
4	0xbcc02783	-0.02345634
5	0xbca0eb0a	-0.019643325
6	0xbe3f0acd	-0.18656464
7	0xbea49bae	-0.32150024
8	0xbd67f3bb	-0.056628924
9	0x3e120aca	0.14261928
10	0xbda201d8	-0.07910508
11	0x3e2fa7c5	0.17153843
12	0xbe888e89	-0.26671246
13	0x3dab1583	0.083537124
14	0x3e87ba40	0.26509285
15	0xbcb5fe41	-0.022215964
16	0x3e13c8c1	0.1443205
17	0xbd7fcbd1	-0.062450234
18	0x3e74bd6a	0.2390038
19	0xbdfa5093	-0.122223996
20	0x3e1720ce	0.14758608
21	0x3d0265e4	0.03183545
22	0xbde705b9	-0.112803884
23	0x3d3665b3	0.04453058
24	0xbe98e712	-0.29863793
25	0xbe87c307	-0.26515982
26	0x3e99bbbb	0.3002604
27	0xbdd6db3f	-0.104910366
28	0x3e84ae1f	0.25914094
29	0x3dbf5571	0.093424685
30	0x3df0863a	0.11744352
31	0x3e3736b2	0.17891958
