models/VANE_node_pred_n2v_model/Generator_epoch_4.pth (torch, 55791 bytes, 8 tensors)

main.0.weight f4 [64, 10]
0	0x3e6821dd	0.22669168
1	0x3e5dd4a2	0.21663144
2	0x3e1c6824	0.15274101
3	0xbd995090	-0.07486069
4	0xbd7d94b2	-0.061909385
5	0x3e8019a8	0.25019574
6	0x3e3f78d5	0.18698438
7	0x3de14121	0.109987505
8	0xbdcb0046	-0.099121615
9	0x3e6ad9e4	0.22934681
10	0x3e8fe362	0.28103167
11	0xbe81377c	-0.25237644
12	0x3daca201	0.08429337
13	0xbe66d724	-0.22543007
14	0x3b3c640c	0.0028746156
15	0xbe2f5312	-0.17121533
16	0xbe6a3a33	-0.22873764
17	0xbdec3923	-0.115343355
18	0xbe4750ea	-0.1946446
19	0x3e76d6a1	0.24105312
20	0xbe25526f	-0.16144727
21	0x3d42d2bf	0.047564264
22	0xbe5162aa	-0.20447794
23	0xbe4486ee	-0.19192097
24	0xbe7f25a6	-0.24916705
25	0x3d3a5e9c	0.045500383
26	0x3a82d3d0	0.0009981338
27	0x3e49eec4	0.19719988
28	0x3dd42ac3	0.10359719
29	0x3dfb807f	0.12280368
30	0x3e660378	0.2246226
31	0xbe5376d7	-0.20650803
32	0xbe82a5a7	-0.25517008
33	0xbe0243b0	-0.12721133
34	0xbe672a9e	-0.22574851
35	0x3c0e9e41	0.008704723
36	0xbe1de139	-0.15417947
37	0xbde7e058	-0.11322087
38	0xbe402257	-0.187631
39	0xbe2421ef	-0.1602857
40	0x3e3d6363	0.18494944
41	0xbd1f5efe	-0.03890895
42	0x3d807ebb	0.06274172
43	0xbc9121db	-0.017716339
44	0x3e5f0520	0.21779299
45	0x3c9cdcac	0.019148193
46	0x3dc5155b	0.09623214
47	0xbe118b97	-0.14213406
48	0xbd82ab92	-0.06380381
49	0xbdb244aa	-0.08704503
50	0x3e6695cf	0.22518085
51	0xbd66b78f	-0.0563274
52	0x3d2d3c91	0.04229409
53	0x3cb871e5	0.022515247
54	0x3d8e202b	0.06939729
55	0x3e359866	0.17733917
56	0xbd560c19	-0.05225763
57	0xbe4fc620	-0.20290422
58	0x3dcf0e28	0.10110122
59	0x3d8c9a98	0.06865424
60	0xbe81def4	-0.25365412
61	0xbe19608c	-0.14978236
62	0x3d6ba0a8	0.05752626
63	0xbe6dd1b9	-0.23224534
64	0x3d845c66	0.06462936
65	0xbe01134f	-0.12605022
66	0x3e25fdb6	0.16210064
67	0x3e1fbf8d	0.15600415
68	0xbe5421a8	-0.20715964
69	0x3e4a79a7	0.19772969
70	0x3dfe3428	0.12412292
71	0xbe7a9787	-0.24471866
72	0x3dbbd9c3	0.09172394
73	0x3dfcfead	0.12353263
74	0x3cdb8052	0.026794586
75	0x3e24bb71	0.16087128
76	0x3e4bcb8f	0.1990187
77	0xbe0ddc8d	-0.13853665
78	0x3e11d1c4	0.14240175
79	0x3e035bf5	0.12828048
80	0xbd816bdd	-0.063194014
81	0xbe285e97	-0.16442333
82	0x3da84695	0.082165875
83	0xbdbd5b63	-0.09245946
84	0x3cb2d7e7	0.021831466
85	0x3e5fcbc8	0.2185508
86	0xbc773c9a	-0.015090132
87	0xbe65be11	-0.22435786
88	0xbe6b02ce	-0.22950289
89	0xbe4f8467	-0.20265351
90	0x3df64469	0.12024767
91	0xbe2132ad	-0.15741988
92	0xbe0cb50a	-0.13740936
93	0x3e3d8dd9	0.18511142
94	0xbdc8da01	-0.09807206
95	0xbe3a8057	-0.1821302
96	0xbcedfd07	-0.029051317
97	0xbe830f0c	-0.25597417
98	0x3e13a3aa	0.14417902
99	0x3e2334d1	0.15938117
100	0xbd901b95	-0.07036511
101	0xbd9725bd	-0.07380245
102	0xbe822392	-0.25417763
103	0x3e66cb2c	0.22538441
104	0xbcb732aa	-0.022363026
105	0xbe573b35	-0.2101868
106	0x3dd5e4cb	0.104440294
107	0xbe32b55e	-0.17451999
108	0xbe6755e0	-0.22591352
109	0x3b30ede4	0.0026997263
110	0x3e5659d9	0.20932712
111	0xbdc7b9f9	-0.09752268
112	0xbdab7c87	-0.08373361
113	0x3e844d4f	0.25840232
114	0xbe3bc9dc	-0.18338722
115	0x3d97e6e9	0.074170895
116	0x3e04a705	0.12954338
117	0x3e3dde3b	0.18541805
118	0xbe826165	-0.2546493
119	0xbdf69fc9	-0.12042195
120	0x3e219432	0.15779188
121	0xbd54a411	-0.05191428
122	0xbe2f5806	-0.17123422
123	0x3e3a5df2	0.181999
124	0x3e21682a	0.15762392
125	0x3dce0242	0.100590244
126	0xbd835695	-0.064129986
127	0xbe8465ea	-0.25859004
128	0xbe049490	-0.12947297
129	0xbe7a6782	-0.24453548
130	0x3d930e3a	0.07180448
131	0x3d4b39a3	0.049615514
132	0x3e1bd987	0.15219699
133	0x3e7d9388	0.2476331
134	0xbcea029f	-0.028565703
135	0x3dccf5d5	0.10007826
136	0x3e61cf47	0.22051726
137	0xbd2b89a7	-0.041879322
138	0x3d9cb55d	0.0765178
139	0xbd52e59e	-0.05148851
140	0xbe7d343d	-0.24726959
141	0x3e482299	0.19544448
142	0x3c8a7437	0.016901119
143	0xbd0b536a	-0.034015097
144	0xbd887416	-0.06662767
145	0x3e40ff30	0.18847346
146	0xbda1dc9e	-0.079034075
147	0x3e0bcbb2	0.13651922
148	0xbd728439	-0.05920813
149	0x3e11c1be	0.14234063
150	0xbc4250eb	-0.011860113
151	0x3e23fbad	0.16013975
152	0x3e276652	0.16347626
153	0x3e63ba5b	0.22239058
154	0xbdd3c5ef	-0.10340487
155	0xbd349ad7	-0.04409298
156	0xbdc3db17	-0.095632724
157	0xbd311a97	-0.04323825
158	0x3e2a109f	0.16607903
159	0xbe5a2589	-0.21303381
160	0xbd8edad3	-0.06975331
161	0xbdb68dfa	-0.08913799
162	0x3e4c7ba3	0.19969039
163	0x3e77705f	0.2416396
164	0xbe268d17	-0.16264759
165	0x3db3040f	0.087410085
166	0xbe39aed9	-0.18133105
167	0x3dcd1705	0.10014156
168	0xbe1bc152	-0.15210465
169	0xbe3011df	-0.17194317
170	0xbd90e303	-0.07074549
171	0xbd51f738	-0.051261157
172	0xbd4fe882	-0.050758846
173	0xbe7b06ea	-0.24514356
174	0xbdaa8a98	-0.08327216
175	0xbe1a1bec	-0.15049714
176	0xbe7851c8	-0.24249947
177	0x3d3fb6ad	0.046805073
178	0x3e691d1b	0.22765009
179	0x3e71ffe6	0.23632774
180	0xbe84fb11	-0.25972798
181	0x3cda9d58	0.026686355
182	0xbdeeeadb	-0.11665889
183	0x3d421487	0.047382858
184	0xbcdd70a4	-0.02703125
185	0xbe0bd2b0	-0.1365459
186	0x3e13447f	0.14381598
187	0xbe151f62	-0.14562753
188	0x3e344f34	0.17608339
189	0x3c706169	0.014671662
190	0xbe41ab10	-0.18912911
191	0xbb07abe4	-0.002070182
192	0x3e18613b	0.1488084
193	0xbe53de72	-0.20690325
194	0xbd0078cf	-0.031365212
195	0xbdd0a4ee	-0.10187708
196	0xbdbc842f	-0.092048995
197	0x3e6ba4b4	0.23012048
198	0xbda5c06e	-0.08093344
199	0x3e4767f2	0.19473246
200	0xbe49e2cb	-0.19715421
201	0xbe8522ab	-0.26003012
202	0x3e81171f	0.25212952
203	0x3e763e72	0.24047258
204	0xbe841ede	-0.258048
205	0x3d2884d6	0.041142307
206	0xbb914a1a	-0.0044338824
207	0xbe29a6af	-0.16567491
208	0x3e60786a	0.21920934
209	0xbd13e37e	-0.036105625
210	0x3dc91a19	0.09819431
211	0xbd8ca7dd	-0.06867955
212	0xbe7a8ded	-0.24468203
213	0xbe5c378c	-0.21505564
214	0x3e265330	0.16242671
215	0x3e2f6d7d	0.1713161
216	0x3e8752bf	0.26430318
217	0x3ce144cb	0.027498623
218	0xbe030740	-0.12795734
219	0x3e024b2b	0.12723987
220	0xbe0e120a	-0.13874069
221	0xbe4ba2a3	-0.1988626
222	0x3df78682	0.12086202
223	0x3d539b67	0.051661875
224	0xbb42698f	-0.0029664969
225	0x3d352d89	0.04423288
226	0x3d20daee	0.039271288
227	0x3dc8336a	0.097754315
228	0xbdf695e5	-0.12040309
229	0xbdc649d6	-0.09682052
230	0x3e62df6a	0.22155538
231	0xbe58cfe5	-0.21173055
232	0xbe89630a	-0.26833373
233	0xbe2a9cd0	-0.16661382
234	0xbe558af2	-0.20853785
235	0x3c06961c	0.0082145
236	0x3e714354	0.2356084
237	0x3d376bb9	0.044780467
238	0xbdf315a8	-0.11869365
239	0x3e3f92f5	0.18708403
240	0x3e5530c8	0.2081939
241	0xbe0ab1cd	-0.13544388
242	0xbd4231e7	-0.04741087
243	0x3e6ae269	0.22937931
244	0xbe5d3493	-0.21602087
245	0x3d73551a	0.05940733
246	0xbe055d47	-0.13023864
247	0x3da493b1	0.080359824
248	0xbe333d1c	-0.1750378
249	0x3df95a07	0.121753745
250	0xbd100d0f	-0.035168704
251	0xbd8a32d4	-0.06747976
252	0xbdc4f678	-0.09617323
253	0xbe389b6d	-0.1802804
254	0xbd0a5e8c	-0.033781573
255	0x3e28e9a9	0.16495384

main.0.bias f4 [64]
0	0xbe399b5d	-0.18125673
1	0xbcf5a132	-0.02998409
2	0x3b5a8608	0.003334405
3	0xbe4e78e3	-0.20163302
4	0x3db8a48f	0.09015762
5	0x3d3b371e	0.04570686
6	0xbe379f2e	-0.17931816
7	0xbce11db1	-0.027479978
8	0x3e4c8a68	0.19974673
9	0x3e6fa094	0.234011
10	0xbe8538c5	-0.26019874
11	0x3dcbc983	0.09950545
12	0x3cb7ed11	0.02245191
13	0xbe2dfd98	-0.1699127
14	0xbe77d0af	-0.242007
15	0x3e8ff45a	0.28116113
16	0x3d853a48	0.06505257
17	0xba8c7dbc	-0.0010718624
18	0x3dc9259f	0.09821629
19	0x3e7e963e	0.24862
20	0x3e747ba0	0.23875284
21	0x3d7d6f84	0.061873928
22	0x3e425a1a	0.18979684
23	0xbe125c89	-0.14293112
24	0x3d283d29	0.041073952
25	0x3e318c5d	0.173387
26	0x3e09e410	0.13465905
27	0xbe6f48cd	-0.23367615
28	0x3e8c7685	0.27434173
29	0x3e7223b3	0.2364643
30	0x3e6f34c9	0.2335998
31	0xbd1de12e	-0.038544826
32	0xbdc05769	-0.09391672
33	0xbddb1360	-0.10697055
34	0x3e20bb15	0.15696366
35	0xbe22ac83	-0.1588612
36	0x3cac39d5	0.02102367
37	0x3dc77ab4	0.09740201
38	0xbc6bab23	-0.014384064
39	0xbe4dc34a	-0.20094028
40	0x3a3d8dc4	0.00072309026
41	0x3e7b72eb	0.24555556
42	0x3e6e8cbc	0.23295873
43	0xbcc1e765	-0.023669908
44	0xbe10f4df	-0.14155911
45	0xbe2f54c1	-0.17122175
46	0x3e39436a	0.18092123
47	0xbcf7d268	-0.030251697
48	0xbc181838	-0.009283118
49	0xbdb44e66	-0.08804016
50	0x3d263da8	0.040586144
51	0xbe8ee8c4	-0.2791196
52	0xbcb34b7b	-0.021886578
53	0xbdbcfa53	-0.09227433
54	0xbe1fd99d	-0.15610357
55	0xbde10286	-0.109868094
56	0xbe2ea808	-0.17056286
57	0xbd3a3b87	-0.045466926
58	0x3d770631	0.06030864
59	0xbd42f743	-0.04759909
60	0xbdea231d	-0.114324786
61	0x3d7bf796	0.061515413
62	0xbd65eb2d	-0.056132484
63	0xbd9e01fd	-0.07715223

main.3.weight f4 [64, 64]
0	0x3d105a5f	0.035242435
1	0xbd106b9c	-0.035258874
2	0x3d5827a6	0.052772187
3	0xbdc2d80d	-0.09513865
4	0xbd710297	-0.05884036
5	0xbc98cf6c	-0.018653594
6	0xbc1200f2	-0.008911358
7	0xbc3a5a57	-0.011374078
8	0x3d90d8ff	0.07072639
9	0x3da3cf93	0.07998576
10	0x3d8a17a4	0.0674279
11	0x3dc7588a	0.09733684
12	0x3ceb9d4f	0.028761534
13	0x3d754e3c	0.059889063
14	0xbc86dc2c	-0.016462408
15	0xbcf5e9ef	-0.030018775
16	0x3df18bf5	0.11794273
17	0x3d7ac527	0.061223175
18	0xbdacaea7	-0.0843175
19	0x3d5c7ce6	0.05383005
20	0xbd493b10	-0.049128592
21	0x3dc0d626	0.094158456
22	0xbca3ef6b	-0.020011624
23	0x3c65ddb3	0.014029908
24	0x3c5b7ea5	0.013396894
25	0x3d12fab1	0.03588361
26	0xbc892518	-0.01674132
27	0x3d9923a4	0.07477501
28	0xbd77f4a9	-0.06053606
29	0x3c0f664d	0.008752418
30	0xbd42e68a	-0.04758314
31	0x3d549382	0.051898487
32	0x3d715032	0.05891437
33	0x3d7ef92b	0.062249344
34	0xbd917d0e	-0.071039304
35	0xbdfb88f5	-0.12281982
36	0xbd7ba65d	-0.061437953
37	0xbda83b75	-0.082144655
38	0x3d3c800a	0.046020545
39	0x3d50f92d	0.051018883
40	0x3da8e48c	0.08246717
41	0x3c7ca17a	0.015419358
42	0xbd43326e	-0.047655515
43	0xbcd89cb3	-0.026441908
44	0x3a813a13	0.0009859226
45	0xbc77cd86	-0.015124684
46	0x3ddea0d4	0.10870519
47	0x3d8fc06c	0.070191234
48	0xbdababea	-0.083823994
49	0xbd8d37ef	-0.06895434
50	0x3d1673e4	0.036731616
51	0x3a1d052c	0.00059898454
52	0xbdb6333b	-0.0889649
53	0xbc88ca25	-0.016697953
54	0x3c5e486c	0.013567071
55	0x3b92f9fe	0.004485368
56	0x3d5adb04	0.053431526
57	0xbbb8525e	-0.0056250533
58	0x3d1cfa24	0.03832449
59	0xbd897708	-0.067121565
60	0xbdbd8c02	-0.0925522
61	0x3d693793	0.056937765
62	0xbd842c2a	-0.06453736
63	0xbc8ebaf9	-0.01742314
64	0x3d9e1c8f	0.07720291
65	0x3bd0a5c1	0.0063674157
66	0xbd42ce12	-0.047559805
67	0xbce02772	-0.027362559
68	0x3d13d748	0.03609398
69	0x3a5c203c	0.0008397137
70	0x3d080a6b	0.03321306
71	0x3bb604ed	0.0055547864
72	0xbd7133e6	-0.058887385
73	0xbc8c124c	-0.017098568
74	0xbc8b7359	-0.017022775
75	0x3e036a10	0.12833428
76	0xbd3e8f37	-0.0465233
77	0xbd5b2133	-0.053498458
78	0xbd2d746a	-0.04234735
79	0xbd0bdadb	-0.034144264
80	0x3ddd8a20	0.10817361
81	0x3da639c8	0.0811649
82	0x3c23dab1	0.010000871
83	0xbd2b3cbc	-0.041805968
84	0x3d9ad46a	0.07560046
85	0x3dc3f45b	0.095680915
86	0x3dc0abcd	0.094077684
87	0xbd56526f	-0.05232471
88	0xbc4878c0	-0.01223582
89	0xbd6e738c	-0.058215663
90	0xbd9c4091	-0.076295026
91	0x3cc897ae	0.024486389
92	0x3d71d427	0.059040215
93	0xbd4c0dff	-0.049818035
94	0x3db78cf2	0.0896243
95	0xbd9f33fe	-0.077735886
96	0xbdd55b3f	-0.104177944
97	0xbc4f9f62	-0.012672277
98	0x3900104a	0.000122131
99	0xbcfec0f0	-0.03109786
100	0x3c6517a9	0.013982692
101	0xbd89650d	-0.06708727
102	0xbd2ac203	-0.04168893
103	0x3d00cc33	0.03144474
104	0x3cc8b3b7	0.024499757
105	0x3dc36dbd	0.09542415
106	0x3d5a3638	0.053274363
107	0x3dba05d8	0.09083146
108	0x3d3735e2	0.04472912
109	0xbd3edcfb	-0.046597462
110	0x3d443bff	0.04790878
111	0x3d511089	0.05104116
112	0xbd7054b9	-0.058674548
113	0xbd98ce82	-0.07461263
114	0x3de2e6c9	0.11079175
115	0x3b9ecf3d	0.004846482
116	0x3d94c875	0.07264797
117	0x3d3ef507	0.046620395
118	0x3d7c0efa	0.06153772
119	0xbd6680c8	-0.05627516
120	0x3dbc397a	0.0919065
121	0x3dba5404	0.09098056
122	0x3dcd17d3	0.1001431
123	0xbd33eddb	-0.04392801
124	0xbbc2433b	-0.0059284247
125	0x3c8b5ead	0.017012918
126	0x3da8ec05	0.08248142
127	0x3d2c55e0	0.042074084
128	0xbd168ddb	-0.036756378
129	0xbc7f3671	-0.015576945
130	0xbd90f95c	-0.070788115
131	0xbd86c1ef	-0.06579959
132	0x3cc8ee2d	0.024527634
133	0xbd22dffb	-0.039764386
134	0xbd249e59	-0.040190075
135	0xbc0b1b3e	-0.008490382
136	0x3d9ffcbe	0.078118786
137	0x3cc142c1	0.023591401
138	0x3d94564e	0.07243024
139	0x3d92cb1e	0.07167648
140	0x3d08817f	0.033326622
141	0x3dd62610	0.104564786
142	0x3d16c885	0.036812324
143	0x3c626245	0.013817375
144	0x3db48a10	0.08815396
145	0x3dd960fd	0.10614202
146	0xbd69fb6a	-0.057124533
147	0xbab8f91e	-0.0014112329
148	0xbbaceef8	-0.0052775107
149	0x3d2d4726	0.04230418
150	0x3dd9de2b	0.10638078
151	0xbd43b196	-0.04777678
152	0xbc431f23	-0.011909279
153	0x3dad28f1	0.084550746
154	0xbd080640	-0.033209085
155	0xbdbbaa2e	-0.091633186
156	0x3c7ef942	0.015562357
157	0x3d365d10	0.044522345
158	0x3d4cac84	0.04996921
159	0x3a636485	0.00086743414
160	0xbd0da25d	-0.03457867
161	0x3cd9a68a	0.02656867
162	0xb8d450d3	-0.000101240024
163	0xbdabf02a	-0.08395417
164	0xbd826da4	-0.063685685
165	0xbd3c00e5	-0.04589929
166	0xbc95f65e	-0.018305954
167	0x3d44d8fb	0.04805849
168	0x3d71d1c9	0.059037957
169	0x3c25e9a7	0.010126508
170	0xbd93b932	-0.072130576
171	0xbcf5407a	-0.029937971
172	0xbc9804e6	-0.018557023
173	0x3cc60427	0.024171902
174	0x3db14b5d	0.086569525
175	0xbd4035f5	-0.046926457
176	0x3d62689a	0.055275537
177	0x3be4cfe9	0.0069827926
178	0x3cf01d9c	0.029310994
179	0xbc877974	-0.016537406
180	0x3dd76230	0.10516775
181	0xbc8a2d65	-0.016867349
182	0xbd6ce7bf	-0.057838198
183	0xbdac2821	-0.084060915
184	0xbb916a90	-0.004437752
185	0x3d5de14f	0.05416995
186	0x3d9c363c	0.07627532
187	0xbd85d6a7	-0.06535082
188	0xbdadb741	-0.084822185
189	0x3d07187b	0.03298233
190	0x3d135af3	0.035975408
191	0x3d46f414	0.048572615
192	0x3d9e0d23	0.077173494
193	0x3dcb713d	0.09933708
194	0xbc736e3d	-0.014857826
195	0x3d182ac9	0.037150178
196	0xbd5029e6	-0.050821207
197	0x3cf0c8b2	0.029392574
198	0xbd1a675a	-0.03769622
199	0xbd679530	-0.05653876
200	0x3d8e4c94	0.069482
201	0x3d385e1d	0.04501163
202	0xbbd8281d	-0.0065965788
203	0x3d8397bb	0.06425425
204	0xbceb37f0	-0.028713197
205	0x3d91ed95	0.07125393
206	0xbb88eed4	-0.004178861
207	0xb9d0344c	-0.00039711816
208	0x3d751b4c	0.059840485
209	0x3d8c813d	0.06860588
210	0x3d3084d4	0.043095425
211	0xbdbc37d3	-0.09190335
212	0xbd88d28e	-0.06680785
213	0xbd2c9188	-0.042130977
214	0xbb9a184a	-0.0047026025
215	0xbd429b83	-0.04751159
216	0xbd0e3455	-0.034717876
217	0x3c47aa08	0.012186535
218	0xbdb7ac86	-0.08968453
219	0xbc833126	-0.016014647
220	0x3d4ceba7	0.050029423
221	0x3d8afd50	0.06786597
222	0x3d597f70	0.05310005
223	0x3de9c807	0.11415105
224	0x3d98807e	0.07446383
225	0x3d8d4036	0.06897013
226	0x3caac3fe	0.02084541
227	0xbd4f12a2	-0.05055488
228	0xbc8a7f17	-0.016906304
229	0x3c3a10c4	0.011356536
230	0xbd8050a1	-0.06265379
231	0x3e0111f8	0.12604511
232	0xbd948890	-0.0725261
233	0xbe147b01	-0.14500047
234	0xbd04ca2d	-0.032419372
235	0xbd1ec0e5	-0.038758177
236	0xbb61fb22	-0.0034481962
237	0xbd3d2624	-0.04617895
238	0xbd695cd1	-0.056973282
239	0x3d3575dc	0.044301853
240	0x3cb6c2f8	0.022309765
241	0xbdc066da	-0.093946174
242	0x3d7fd6e8	0.06246081
243	0x3d47383c	0.048637614
244	0xbd9cd1d9	-0.07657213
245	0xba5442d7	-0.0008097118
246	0x3ca8f3bc	0.020624034
247	0xbda16c34	-0.07881966
248	0x3c1f12d0	0.009709075
249	0x3df489ab	0.119403206
250	0x3cba1240	0.02271378
251	0xbd71a439	-0.058994506
252	0x3d66541b	0.056232553
253	0xbd654668	-0.055975348
254	0x3dc658a8	0.096848786
255	0x3d026f33	0.03184433

main.3.bias f4 [64]
0	0x3db41ea6	0.08794908
1	0xbddd9492	-0.10819353
2	0xbd32fb32	-0.04369659
3	0x3d9ecfe7	0.07754498
4	0x3dd003ba	0.10156961
5	0xbd6f6ee7	-0.058455374
6	0x3d1e26ca	0.03861121
7	0xbdb37ed0	-0.08764422
8	0x3d3a60d2	0.04550249
9	0x3c12787e	0.00893986
10	0xbde86d1b	-0.11348935
11	0xbd2c3c3a	-0.042049624
12	0x3cc7eded	0.024405444
13	0xbd46b2d0	-0.048510373
14	0xbc5d7e50	-0.013518885
15	0xbd337eef	-0.043822225
16	0x3d9ba19a	0.075991824
17	0xbdd17e05	-0.102291144
18	0xbd91c7bb	-0.07118174
19	0x3bf738e7	0.007544625
20	0xbd17af1f	-0.037032243
21	0xbd7d07af	-0.061774906
22	0x3b4444d6	0.0029948256
23	0x3d72c4a0	0.059269547
24	0x3d4bff83	0.04980422
25	0xbd9ae587	-0.0756331
26	0x3cfffb1f	0.031247674
27	0xbd8203b7	-0.06348365
28	0xbdad5a6a	-0.08464511
29	0x3d8abb9a	0.067740634
30	0x3dc4f7ea	0.09617598
31	0xbd22947a	-0.03969238
32	0x3ca8d0c2	0.020607356
33	0x3d4e31db	0.050340515
34	0x3d054a75	0.03254171
35	0xbdc588b6	-0.09645216
36	0x3dbdba11	0.09264005
37	0x3de1764c	0.110088915
38	0xbcd9e8e3	-0.026600307
39	0xbdce9537	-0.10087054
40	0xbd087044	-0.03331019
41	0x3c96b9e9	0.018399196
42	0xbca8093e	-0.02051222
43	0x3db7f6b1	0.089825995
44	0x3d9aa2be	0.07550572
45	0x3d0f1bf9	0.034938786
46	0xbcaba0ac	-0.020950638
47	0xbdd3b1dc	-0.10336658
48	0x3da19e4c	0.07891521
49	0xbd29854e	-0.041386895
50	0x3c9b7980	0.018978834
51	0xbd4c4637	-0.04987165
52	0xbd839c30	-0.06426275
53	0xbcf79b07	-0.03022529
54	0xbd58782a	-0.052848972
55	0x3da86d1c	0.08223936
56	0x3baaa117	0.0052071917
57	0x3d963e5e	0.07336114
58	0xbde13d21	-0.109979875
59	0xbcc2efcf	-0.02379599
60	0xbdc54cc4	-0.096337825
61	0x3d83fe3b	0.06444975
62	0xbd4634fb	-0.04839037
63	0xbde08234	-0.10962334

main.6.weight f4 [64, 64]
0	0x3d4738bd	0.048638094
1	0x3c16c3a3	0.009201917
2	0x3b1fc91a	0.002438134
3	0xbd81efcd	-0.063445665
4	0xbaafd0b4	-0.0013413639
5	0x3df2392e	0.118273124
6	0xbde41313	-0.111364506
7	0x3d6a6909	0.057229076
8	0xbcd4ceaf	-0.02597746
9	0x3c1a0113	0.00939967
10	0xbdc0bfe5	-0.09411601
11	0xbd19c68a	-0.037542857
12	0xbde16eb8	-0.11007446
13	0x3d4c31b9	0.049852107
14	0xbd038bd5	-0.032115776
15	0x3cedff95	0.029052535
16	0xbde55bc3	-0.11199143
17	0x3c3d918f	0.011570348
18	0x3c6edb28	0.014578618
19	0xbdd7a78e	-0.105300054
20	0x3b71a58d	0.0036872358
21	0x3cce0039	0.02514659
22	0xbe0840ac	-0.1330592
23	0x3d2b5a00	0.041833878
24	0xbd3d0de9	-0.046155844
25	0xbdc7842a	-0.09742005
26	0xbd827e1f	-0.06371712
27	0x3dc5ced7	0.09658592
28	0x3dd334cb	0.10312804
29	0x3df77909	0.120836325
30	0x3d849a5e	0.06474756
31	0x3c8fd9ea	0.017559964
32	0xbd9496d4	-0.07255331
33	0xbc08ab1e	-0.008341579
34	0x3d95eb05	0.07320217
35	0x3d88c7e9	0.06678755
36	0x3c2beb18	0.010493062
37	0x3de12869	0.10994036
38	0xbd393452	-0.045215912
39	0x3dc20bcd	0.09474907
40	0xbce4d914	-0.027935542
41	0xbddcc83c	-0.10780379
42	0xbd862f9e	-0.06552051
43	0xbd5c7131	-0.053818885
44	0xbd00aa92	-0.03141267
45	0xbdb6c7c3	-0.0892482
46	0xbc9b1b70	-0.018933982
47	0x3de0a37d	0.10968683
48	0x3de5b3dc	0.11215946
49	0x3c414384	0.011795882
50	0x3c6b2441	0.014351905
51	0xbd9d81cd	-0.07690773
52	0xbc785338	-0.01515656
53	0xbd33c6f1	-0.043890897
54	0xbd9f25fc	-0.07770917
55	0xbd5b63be	-0.05356192
56	0x3d5743c4	0.05255486
57	0xbd280a2a	-0.04102532
58	0x3d5edc37	0.054409232
59	0xbdcb10e3	-0.0991533
60	0xbdae8264	-0.08520964
61	0x3d937d67	0.07201653
62	0x3db4f2a5	0.08835343
63	0x3dd361cb	0.10321387
64	0xbd36d1a6	-0.04463353
65	0x3dc7d0d0	0.09756625
66	0x3cb3b68b	0.02193763
67	0x3de40ed2	0.11135639
68	0x3dd41526	0.10355596
69	0xbd2cab85	-0.04215576
70	0xbc12e963	-0.008966777
71	0xbc1f9097	-0.009739063
72	0xbc83e2a2	-0.016099278
73	0x3b86a210	0.004108675
74	0xbdd3fdcf	-0.103511445
75	0x3d08ecba	0.033428885
76	0xbe07d6d2	-0.13265541
77	0x3d616963	0.055032145
78	0xbdf031ff	-0.11728286
79	0xbd42d273	-0.04756398
80	0xbd8aa4af	-0.06769692
81	0xbdc7e314	-0.097601086
82	0x3d8cc469	0.068734
83	0x3ce5377b	0.027980557
84	0x3cca5c34	0.024702169
85	0x3db334a6	0.08750276
86	0x3d1ef8a2	0.038811333
87	0x3ccfba6f	0.025357453
88	0xbd5f678c	-0.05454211
89	0x3da9165d	0.082562186
90	0xbdaeaad7	-0.08528679
91	0xbc52eee6	-0.012874341
92	0xbd8678b4	-0.06565991
93	0xbb879d3a	-0.004138616
94	0xbd83b69b	-0.064313136
95	0xbadce8e2	-0.0016854072
96	0x3db3c306	0.08777432
97	0xbc887a2a	-0.016659815
98	0x3d991080	0.0747385
99	0xbdb2c815	-0.08729569
100	0xbdb006ca	-0.08595045
101	0xbdcdd11c	-0.1004965
102	0xbc85d527	-0.01633699
103	0x3d8d4f33	0.06899872
104	0x3daa6b23	0.08321216
105	0x3afee14c	0.0019445806
106	0x3c34cc60	0.011035055
107	0xbcd3343b	-0.025781741
108	0x3d8a9ae1	0.06767822
109	0x3c9ff5e6	0.019526433
110	0xbd50691c	-0.05088149
111	0xbcd5d402	-0.02610207
112	0xbb16ef52	-0.002303083
113	0x3d1aabc8	0.03776148
114	0x3c354686	0.011064177
115	0xbcdcfa74	-0.026974894
116	0x3db54e3d	0.088528134
117	0x3c4e44d2	0.01258965
118	0x3d5626aa	0.052282967
119	0x3dade510	0.08490956
120	0x3d2abd77	0.041684594
121	0xbd6c635d	-0.057711948
122	0xbd0da20f	-0.03457838
123	0xbcf2b3bd	-0.029626722
124	0x3d3d6b8a	0.046245135
125	0x3dd7d329	0.105383225
126	0x3deaa9b7	0.11458152
127	0x3d902530	0.07038343
128	0xbd395158	-0.04524359
129	0xbd44fabf	-0.048090693
130	0xbcf05a11	-0.029339822
131	0x3dcffba2	0.10155417
132	0xbd7e73e5	-0.062122244
133	0x3be776fb	0.007063744
134	0xbd732296	-0.059359156
135	0x3d4765dd	0.04868113
136	0xbca6adcc	-0.020346545
137	0xbcf6c208	-0.030121818
138	0x3d840584	0.064463645
139	0x3d72dd90	0.05929333
140	0x3c163854	0.009168703
141	0x3dd3c403	0.10340121
142	0x3db13a84	0.08653739
143	0xbc222ac5	-0.009897892
144	0x3d101af2	0.035181947
145	0x3bff0751	0.0077828546
146	0x3cc27acd	0.023740197
147	0xbe12e58e	-0.1434538
148	0xbd9149a1	-0.07094122
149	0xbdeb474b	-0.114882074
150	0x3d9c4341	0.07630015
151	0x3d146b60	0.036235213
152	0x3d81bceb	0.06334861
153	0xbd185723	-0.037192475
154	0xbd8abd55	-0.067743935
155	0x3d25c83c	0.04047416
156	0x3bf135e6	0.0073611615
157	0x3e0428f0	0.12906241
158	0x3dff1851	0.1245581
159	0xbdd01c85	-0.1016169
160	0xbbc1b31c	-0.005911244
161	0x3dd93768	0.10606271
162	0xbcc44580	-0.023958921
163	0x3daf43dc	0.08557865
164	0xbd60a7be	-0.05484747
165	0xbd1f72e9	-0.038927946
166	0x3d3d3d3a	0.04620097
167	0xbcc4707d	-0.02397942
168	0x3ddba4c0	0.10724783
169	0xbd451573	-0.04811616
170	0x3d22782b	0.039665382
171	0xbd8eb858	-0.069687545
172	0x3ac51d98	0.0015038727
173	0x3dbf9190	0.09353936
174	0xbda83581	-0.0821333
175	0xbd298712	-0.04138858
176	0xbd673c2b	-0.056453865
177	0x3db6759b	0.0890915
178	0x3d12c0f2	0.03582854
179	0xbd97242f	-0.07379948
180	0xbd70a8df	-0.058754798
181	0xbd1689d5	-0.03675254
182	0x3c47fbd1	0.012206034
183	0xbc7068aa	-0.014673391
184	0x3ca83a61	0.02053565
185	0x3dd3f100	0.103487015
186	0x3d71d724	0.059043065
187	0x3d269023	0.040664803
188	0x3d99c7d0	0.07508814
189	0x3c7248a7	0.0147878295
190	0x3df2ac14	0.118492275
191	0xbbf13ac7	-0.007361743
192	0x3bf86f2f	0.0075816135
193	0x3d7d96f3	0.061911535
194	0xbdc2a1c8	-0.095035136
195	0xbdf610f2	-0.12014951
196	0xbd878f79	-0.06619162
197	0xbd9df912	-0.07713522
198	0xbd9e11dd	-0.07718251
199	0xbba50346	-0.0050357906
200	0xbbccf5f5	-0.0062549063
201	0xbda6d0aa	-0.08145268
202	0x3e095ee5	0.13415106
203	0x3d834fbf	0.06411695
204	0x3d9a0e23	0.075222276
205	0x3a3fb9f6	0.0007313782
206	0xbda01cdc	-0.078180045
207	0x3db9e21c	0.0907633
208	0xbd399f92	-0.045318194
209	0x3d12f2f1	0.03587622
210	0xbde8d1d1	-0.11368144
211	0xbdb83c01	-0.0899582
212	0x3daa3356	0.08310573
213	0x3def7b80	0.11693478
214	0xbd3507fb	-0.044197064
215	0x3dbc19ce	0.09184609
216	0x3d176656	0.03696283
217	0x3cd90aac	0.026494347
218	0x3cee8084	0.029114015
219	0x3b6c7b74	0.0036084326
220	0x3d6ed650	0.058309853
221	0xbbfafdb5	-0.0076596388
222	0x3da4b30a	0.080419615
223	0x3ddf324b	0.108982645
224	0xba6a7e5a	-0.00089452195
225	0x3e014f77	0.1262797
226	0xbda25337	-0.07926028
227	0xbd26bcf7	-0.040707555
228	0x3c79d6d7	0.015248976
229	0xbdc90d90	-0.0981704
230	0x3d5bee5a	0.053694107
231	0x3d9ecfd5	0.077544846
232	0x3d596451	0.053074185
233	0x3dd5a458	0.10431737
234	0xbd95fa6a	-0.07323153
235	0x3d252811	0.040321413
236	0x3b700d84	0.003662915
237	0x3daa4875	0.08314601
238	0x3cec42e1	0.028840484
239	0x3ca1884d	0.019718314
240	0x3b5d8bb9	0.0033805205
241	0xbda29c41	-0.07939959
242	0xbd895d48	-0.06707245
243	0xbdd143e6	-0.10218029
244	0xbcde7f20	-0.027160227
245	0xbd7c4746	-0.06159141
246	0xbb5cead2	-0.00337093
247	0x3d546cb1	0.05186147
248	0x3c6d3794	0.014478583
249	0xbc986bb0	-0.018606037
250	0x3d88ed30	0.06685865
251	0xbd160565	-0.03662624
252	0x3d114e3f	0.035475012
253	0xbd739f8e	-0.059478335
254	0x3d3f326d	0.04667895
255	0xbd967679	-0.073468156

main.6.bias f4 [64]
0	0xbd07d7ac	-0.033164665
1	0xbd0b05d6	-0.033941112
2	0xbd9fbcc6	-0.077996776
3	0xbd21adff	-0.039472576
4	0xbc8f33cd	-0.017480755
5	0xbbe8254f	-0.0070845257
6	0x3dd83c0c	0.10558328
7	0x3d27156c	0.040791914
8	0x3d27c33d	0.040957678
9	0x3d85a58f	0.065257184
10	0xbd498e82	-0.04920817
11	0xbd3f974a	-0.04677514
12	0xbd63be5d	-0.055601466
13	0xbce35c38	-0.027753934
14	0xbd537905	-0.051629085
15	0xbda141d4	-0.07873884
16	0xbdb687ae	-0.089125976
17	0x3d9190e4	0.07107714
18	0xbc915acf	-0.017743496
19	0xbd45e508	-0.048314124
20	0xbc21a8e1	-0.009866924
21	0xbd309453	-0.043110203
22	0xbddfe103	-0.109315895
23	0x3d4aa66f	0.04947513
24	0xbd22379e	-0.039603822
25	0x3b8dc738	0.0043267272
26	0xbd37907a	-0.044815518
27	0xbda7cdf8	-0.08193582
28	0xbdbfd235	-0.09366266
29	0xbddcb47b	-0.107766114
30	0xbda59e7b	-0.080868684
31	0xbda16699	-0.07880897
32	0xbccb0ac7	-0.024785412
33	0xbda1f119	-0.07907314
34	0x3dc8d415	0.098060764
35	0x3d72265b	0.05911861
36	0x3d117dae	0.035520248
37	0xbdd64051	-0.10461486
38	0x3daa3bbb	0.08312174
39	0xbd31d26e	-0.043413572
40	0x3c963873	0.018337464
41	0xbde34752	-0.11097588
42	0xbd9f652d	-0.077829696
43	0x3dbd909e	0.09256099
44	0x3b9f3dc3	0.0048596575
45	0xbdb9a539	-0.09064717
46	0xbda0fa3b	-0.07860228
47	0x3d5ed4c2	0.05440212
48	0x3d3240bf	0.043518778
49	0x3c96036e	0.018312182
50	0xbd857538	-0.06516498
51	0x3d3adefe	0.04562282
52	0xbd7e71de	-0.06212031
53	0xbcfd6809	-0.030933397
54	0xbd3cb2ea	-0.046069063
55	0xbc5c42dc	-0.013443675
56	0xbd3815c4	-0.044942632
57	0xbd0c2d1e	-0.034222715
58	0x3d926b74	0.07149401
59	0xbdbc429c	-0.09192392
60	0x3dfe2d04	0.1241093
61	0x3dc9bdb4	0.09850636
62	0xbd1b27e7	-0.03787985
63	0xbd8fe0cf	-0.07025301

main.9.weight f4 [64, 64]
0	0x3d53ada6	0.051679276
1	0xbb81b5e1	-0.0039584492
2	0xbdcc7a59	-0.099842735
3	0xbca865f4	-0.020556428
4	0xbd05df6b	-0.03268377
5	0xbd2bd001	-0.041946415
6	0xbd3718d4	-0.044701412
7	0x3d91fbce	0.07128106
8	0xbaf32e13	-0.001855316
9	0xbdcaa2c5	-0.09894327
10	0xbbbeb713	-0.005820164
11	0xbd86a3d5	-0.06574217
12	0xbd492be2	-0.049114116
13	0x3d4b8919	0.049691293
14	0xbce5da44	-0.028058179
15	0x3d8d09b0	0.06886613
16	0xbe1bbb74	-0.15208226
17	0x3d9f7f77	0.07787984
18	0xbe090533	-0.1338089
19	0x3dc6ea32	0.09712638
20	0x3d93cfa4	0.07217339
21	0xbd92bdf3	-0.07165136
22	0xbbcbf572	-0.0062243277
23	0x3cbd14c2	0.023081187
24	0xbe04d23f	-0.12970828
25	0xbd90c354	-0.07068506
26	0x3db4902a	0.088165596
27	0xbd6f4c2f	-0.058422264
28	0x3c003cd7	0.007827005
29	0xbd613d28	-0.054989964
30	0xbdc390d7	-0.095491104
31	0x3d0d7053	0.03453095
32	0xbd2fb302	-0.042895325
33	0xbcde9735	-0.02717171
34	0x3dbc600b	0.09198006
35	0xbdbfefc5	-0.09371904
36	0x3d8917cd	0.06693993
37	0x3c8d796a	0.017269809
38	0x3d2d227a	0.042269208
39	0xbd25c257	-0.04046854
40	0xbbeb9ddb	-0.0071904487
41	0x3d7646d5	0.060126144
42	0xbd144371	-0.03619713
43	0xbd9774e2	-0.073953405
44	0xbd538e67	-0.051649477
45	0x3d461746	0.04836204
46	0x3c96b845	0.018398413
47	0x3db1675c	0.08662292
48	0xbc9a601a	-0.018844653
49	0x3d0f50df	0.034989234
50	0x3cb6e73e	0.022327062
51	0xbdc183e4	-0.09448984
52	0xbd1640c5	-0.036682863
53	0x3dd19a09	0.10234458
54	0xbc75f802	-0.015012743
55	0x3c068a6c	0.008211713
56	0xba820e3c	-0.0009922455
57	0x3de56a90	0.11201966
58	0x3df9539a	0.12174149
59	0xbd818aaa	-0.06325276
60	0xbd2c338b	-0.042041343
61	0x3c8b2eea	0.016990144
62	0xbd8e8c87	-0.06960397
63	0xbddf27a6	-0.10896234
64	0xbcc6cede	-0.024268564
65	0xbde3de3e	-0.11126374
66	0xbda4e77d	-0.080519654
67	0x3dada3d0	0.084785104
68	0xbdaa88eb	-0.08326896
69	0xb9ee057b	-0.0004539898
70	0xbd5aaa77	-0.053385224
71	0x3d5f88e7	0.05457392
72	0xbbfb5c70	-0.0076709315
73	0xbdf78397	-0.12085646
74	0x3cd1e7f2	0.025623295
75	0x3d2ffca9	0.042965565
76	0xbd862d29	-0.06551582
77	0x3dc23c1e	0.09484123
78	0xbba77167	-0.005109954
79	0x3c037b09	0.008024939
80	0x3d6a1007	0.05714419
81	0xbd035213	-0.032060694
82	0x3da1b9dc	0.07896778
83	0x3dcdec5a	0.10054846
84	0x3c95a2c4	0.01826609
85	0xbd43cfa7	-0.047805455
86	0x3dd70506	0.10499005
87	0x3d92bc95	0.071648754
88	0x3c915231	0.017739387
89	0xbda3ba6e	-0.07994543
90	0xbda08237	-0.078373365
91	0xbce7553b	-0.028238883
92	0xbc2b60d3	-0.010460096
93	0xbdbcc320	-0.09216905
94	0xbd4e9a97	-0.050440397
95	0xbc283f55	-0.010269006
96	0xbdb93ca7	-0.09044772
97	0x3d90e10d	0.07074175
98	0xbccaff4c	-0.024779938
99	0x3d6a3c89	0.057186637
100	0xbcf15fc3	-0.029464608
101	0xbdb254ae	-0.087075576
102	0x3c3d60d7	0.011558733
103	0xbd6b6bd4	-0.05747588
104	0xbb3aaf8e	-0.0028485986
105	0x3da6a4a0	0.081368685
106	0x3d430745	0.047614355
107	0xbd8f1c56	-0.069878265
108	0x3d965d2c	0.0734199
109	0xbd2a0755	-0.0415109
110	0xbd1eb99a	-0.038751222
111	0xbdfc1216	-0.12308137
112	0xbd83e63d	-0.06440399
113	0x3d68e227	0.0568563
114	0xbd273397	-0.040820684
115	0xbc8cadbb	-0.017172685
116	0x3d9c657a	0.076365426
117	0xbdd830c5	-0.10556177
118	0x3e159af8	0.14609897
119	0xbc74a9b1	-0.014933036
120	0x3d9e07b1	0.07716311
121	0xbdc589b9	-0.09645409
122	0x3bab3803	0.005225183
123	0xbd9aea04	-0.07564166
124	0xbd7efae4	-0.062250987
125	0xbd0b8f1b	-0.034072023
126	0x3dca57a8	0.0988
127	0xbd742059	-0.05960116
128	0x3ca89a9f	0.020581542
129	0x3d9c75dd	0.07639668
130	0x3df1d1cc	0.11807594
131	0xbc0dadbd	-0.008647379
132	0xbdba2e38	-0.09090847
133	0x3df87e67	0.12133484
134	0xbc239a49	-0.009985515
135	0xbdaf0089	-0.08545024
136	0x3d33d560	0.043904662
137	0x3ca65d00	0.020308018
138	0x3d88665d	0.06660149
139	0x3d3dc60b	0.046331447
140	0xbd4173c1	-0.047229532
141	0x3d8d746d	0.06906972
142	0x3dc4bea5	0.09606675
143	0x3d317a2e	0.04332941
144	0xbdc5c17a	-0.09656043
145	0xbcbd024e	-0.023072388
146	0x3d618da5	0.055066723
147	0xbe026967	-0.1273552
148	0x3ba4feb3	0.0050352453
149	0xbbbea57b	-0.0058180667
150	0x3d444e9c	0.04792653
151	0xbd7a9f3e	-0.06118702
152	0xbbaa4af7	-0.005196925
153	0xbd3a39e7	-0.045465376
154	0x3d5cdb3c	0.053920016
155	0xbd13c299	-0.036074255
156	0xbd8f3fd3	-0.069945954
157	0xbd117dd2	-0.035520382
158	0xbd81986d	-0.06327901
159	0x3c8597a6	0.016307663
160	0x3d805e25	0.06267957
161	0x3c299598	0.010350607
162	0x3e01969e	0.12655112
163	0x3d477d2c	0.048703358
164	0xbd775cd6	-0.06039127
165	0x3d9255bd	0.071452595
166	0xbc9b6f0b	-0.018973848
167	0x3d8b0602	0.06788255
168	0x3d64e847	0.05588558
169	0xbd8b48ae	-0.06800972
170	0xbd2d80e1	-0.042359237
171	0x3d83cfea	0.06436141
172	0x3dae6624	0.085155755
173	0xbddeabb0	-0.108725905
174	0xbde9a2a8	-0.11407977
175	0x3d0dcf65	0.034621615
176	0xbd0e06aa	-0.034674324
177	0xbdc61b45	-0.0967317
178	0x3cea6c3e	0.028616067
179	0xbd589ec1	-0.052885775
180	0x3da91a11	0.08256925
181	0xbb5a12b4	-0.0033275308
182	0x3d7c65b2	0.06162042
183	0xbd0842bc	-0.033266768
184	0xbbc8f462	-0.0061326483
185	0xbdadc41a	-0.08484669
186	0x3ba030aa	0.0048886137
187	0xbd8c1f0d	-0.0684186
188	0xbc653e62	-0.013991924
189	0x3c7e3a2d	0.0155168
190	0xbda004c4	-0.07813409
191	0x3d0ed693	0.034872603
192	0x3d8351b3	0.06412067
193	0xbd3f0bc1	-0.04664207
194	0xbdca040b	-0.098640524
195	0xbd9f5b2f	-0.07781064
196	0xbd5de84b	-0.05417661
197	0xbcc1d1f4	-0.023659684
198	0x3ddfd0b3	0.10928478
199	0x3c80b91f	0.015713273
200	0xbd8db5ac	-0.06919417
201	0xbda8c071	-0.0823983
202	0xbd8d6328	-0.06903678
203	0x3cc0ff81	0.023559334
204	0x3d7918fe	0.06081485
205	0xbe02f808	-0.12789929
206	0x3c098a70	0.0083948225
207	0x3d9555e0	0.0729177
208	0xbd235802	-0.039878853
209	0xbd3a4bf4	-0.04548259
210	0x3d52b47e	0.051441662
211	0xbdd2d49d	-0.10294459
212	0xbc45b3c3	-0.012066784
213	0x3d0e4ebc	0.034743056
214	0x3cdc97b7	0.026927812
215	0x3d2d5080	0.0423131
216	0xbd28c21e	-0.04120075
217	0xbc878e03	-0.016547209
218	0x3c4f5f5c	0.012657013
219	0xbd819124	-0.063265115
220	0xbd4cb8b3	-0.04998083
221	0x3d37eb7f	0.04490232
222	0x3d1e7a41	0.03869081
223	0x3ddd5b87	0.10808473
224	0x3d66e65d	0.056372035
225	0x3daba027	0.08380156
226	0xbc80ca66	-0.015721511
227	0xbda69cf6	-0.08135407
228	0x3e15f923	0.1464582
229	0x3d2e5975	0.04256578
230	0xbc585150	-0.01320298
231	0xbd96f295	-0.073704876
232	0x3da5c7b8	0.08094734
233	0x3d352f1d	0.044234384
234	0x3da569c2	0.08076812
235	0xbd95fbea	-0.073234394
236	0x3dfa3b93	0.12218394
237	0xbc3163ab	-0.010826985
238	0xbdc136a4	-0.0943425
239	0x3d93b905	0.07213024
240	0x3d087e49	0.03332356
241	0x3be18b70	0.0068830773
242	0x3d90baf9	0.07066912
243	0xbdac6e95	-0.08419529
244	0xbd472130	-0.048615634
245	0x3b25bfc3	0.00252913
246	0x3d76607d	0.060150612
247	0x3c2d6a00	0.010584354
248	0xbe013084	-0.12616163
249	0x3d9dd4b6	0.07706587
250	0xbd87609c	-0.06610224
251	0x3d04f66e	0.032461576
252	0x3dd786dc	0.10523769
253	0x3da12511	0.07868398
254	0x3cd21e41	0.025649192
255	0x3c982c44	0.018575795

main.9.bias f4 [64]
0	0xbd6150a9	-0.055008564
1	0x3ca59766	0.020213794
2	0xbc310bd1	-0.01080604
3	0xbcd061f5	-0.025437335
4	0xbd7ca17c	-0.06167744
5	0xbd856b1d	-0.06514571
6	0xbd17c171	-0.037049714
7	0xbd2b0169	-0.04174939
8	0x3bfe6358	0.0077633075
9	0x3cfdd408	0.030984893
10	0xbdacc38b	-0.08435734
11	0x3d908040	0.07055712
12	0x3b58cd6f	0.0033081432
13	0x3c407c6e	0.011748416
14	0xbd1575d6	-0.03648933
15	0x3b2768a2	0.0025544544
16	0x3d499b3a	0.0492203
17	0x3d267608	0.040639907
18	0xbccf9d25	-0.025343487
19	0xbd52e000	-0.051483154
20	0x3bffa362	0.007801459
21	0xbd12a842	-0.035804994
22	0xbce48860	-0.02789706
23	0x3d1a732b	0.03770749
24	0xbd76a594	-0.0602165
25	0x3d7956d8	0.060873836
26	0xbcb3f937	-0.02196942
27	0x3db0b4ca	0.08628233
28	0xbd294b84	-0.041331783
29	0xbd304b9f	-0.043040868
30	0x3c2e4fe6	0.010639166
31	0x3c9f4357	0.01944129
32	0xbbebbb8b	-0.0071939877
33	0xbd9a3702	-0.07530023
34	0x3c5c3986	0.013441449
35	0x3d6dce38	0.058057994
36	0x3c42fcf1	0.011901126
37	0x3d7320c4	0.05935742
38	0xbd130cd6	-0.035900913
39	0x3d978b1c	0.0739958
40	0x3d8e67bc	0.069533795
41	0xbc84ba00	-0.016201973
42	0xbd31a033	-0.04336567
43	0x3d3ad325	0.04561152
44	0x3c037528	0.008023538
45	0xbb73e9f4	-0.0037218304
46	0xbc6114b2	-0.013737844
47	0xbcce2a26	-0.025166582
48	0xbd19844a	-0.037479676
49	0x3bea09c7	0.007142279
50	0x3c7b7b7d	0.015349266
51	0xbc93d1e2	-0.018044416
52	0x3d894e89	0.067044325
53	0xbd5c4854	-0.053779915
54	0xbc66eaaa	-0.014094034
55	0x3d03e61c	0.03220187
56	0xbcfc6a2e	-0.03081235
57	0x3da67691	0.081280835
58	0xbcf649ee	-0.03006455
59	0x3d70996d	0.05874007
60	0x3da14a40	0.0787549
61	0xbd0aa667	-0.0338501
62	0xbd83860c	-0.06422052
63	0x3d95e899	0.07319755
