models/VANE_node_pred_n2v_model/Generator_epoch_5.pth (torch, 55791 bytes, 8 tensors)

main.0.weight f4 [64, 10]
00000000: a8dd 643e 7eb3 5c3e 3a51 1a3e 7966 9abd
00000010: cc4c 79bd 5782 7e3e fb92 3c3e d410 db3d
00000020: 7763 c4bd b3fb 693e 55ae 8e3e c3bb 80be
00000030: cadc aa3d 8096 67be 871f 4d3a f50a 2ebe
00000040: 799c 65be 4806 edbd 9d14 46be a039 783e
00000050: 4c9e 23be c549 483d d6d7 4fbe 8c0e 42be
00000060: 9428 7ebe e0db 353d f523 5a3b 97d3 493e
00000070: bae4 cd3d a352 003e 498a 613e 520a 52be
00000080: b078 82be 8b11 01be da8c 65be 569f 223c
00000090: ea6c 17be 4a0e e9bd 9c79 3fbe 35b1 22be
000000a0: 0d1a 3b3e 8843 1bbd 16e2 6c3d 5a36 a7bc
000000b0: bb49 5e3e 39e6 8f3c 6588 c83d a8b3 10be
000000c0: c557 83bd bc03 b0bd f5e1 633e ce1d 5abd
000000d0: d842 313d 6c92 b63c 8da9 8f3d 281e 323e
000000e0: 5498 45bd 8e27 4dbe 65ef cc3d 6959 8f3d
000000f0: 0249 81be d67c 16be 837b 643d c5b0 6cbe
00000100: 9142 833d 9dcc ffbd 468b 233e 7db0 1e3e
00000110: d178 53be ed8f 4a3e b9b1 ff3d dc3d 79be
00000120: 8c0f b83d d809 fa3d f4af d63c 6ff6 213e
00000130: 5901 4a3e 5107 0dbe 4884 133e 1e61 033e
00000140: 5c51 7cbd 8f1b 29be a1a6 aa3d 2190 bcbd
00000150: 07ff aa3c 8cd3 5c3e 7b53 8cbc a74f 63be
00000160: 4b82 6abe 82af 52be 4379 fc3d 7bca 1dbe
00000170: 1d0c 0cbe 91b6 3d3e d029 c8bd 46b3 3cbe
00000180: e0b6 fcbc 8ede 80be c11a 113e 23ac 203e
00000190: 2416 8abd c0ff 94bd 0bdf 81be 52b5 643e
000001a0: 0c98 a6bc 91a3 56be eb5f d73d 49ab 32be
000001b0: 6c92 66be 93e1 5e3b d50c 553e 7b77 c7bd
000001c0: 9f8c abbd 2d7b 833e 05fd 3abe a732 983d
000001d0: 5226 013e f7f2 3d3e 5862 82be 12f0 f3bd
000001e0: 8514 1f3e da46 55bd 4065 2bbe c079 3b3e
000001f0: 6a36 203e 385c cf3d 0594 87bd 7982 83be
00000200: dbc4 01be 26aa 79be f580 8d3d 916a 4d3d
00000210: 8500 1c3e 2eef 793e 6b42 f3bc d0a9 ce3d
00000220: 961c 653e 8ad6 29bd 0230 9a3d b235 42bd
00000230: 58de 7bbe ef4a 453e 8038 8c3c faaa 09bd
00000240: e03a 8abd 1810 3f3e cc4e 9ebd f98c 093e
00000250: 146c 71bd 74d4 103e ba6c 43bc 3ed5 253e
00000260: 7a75 273e 5a13 613e e305 d5bd e6d1 35bd
00000270: 9496 bebd 5a8b 25bd 4519 293e 307b 57be
00000280: f309 8fbd 76d2 b2bd 222d 4b3e b9eb 753e
00000290: 6c4f 25be ffbe b63d aa94 35be 3faf cc3d
000002a0: f988 1bbe 241d 2ebe bb09 94bd 777a 49bd
000002b0: 9b42 4dbd daeb 79be c520 a9bd 3688 1abe
000002c0: 7fcb 77be f5a0 423d 8d01 693e ce1a 6f3e
000002d0: 3e27 84be f418 cf3c 6713 f2bd 0c34 453d
000002e0: 1525 d6bc 3604 0cbe 66df 163e fde7 16be
000002f0: a14d 333e e066 7c3c f506 41be 139a 64bb
00000300: f308 173e 20c9 50be 5ce4 ffbc 449a cdbd
00000310: 2154 bdbd e12b 6d3e 77e5 9fbd 2560 443e
00000320: a3e2 4abe 3c2a 85be 7540 813e 9218 743e
00000330: 1b73 84be 691a 293d 9f81 bebb 2dd2 29be
00000340: 9989 5f3e 09c8 09bd cb07 c73d 00db 8dbd
00000350: 8483 78be 1f17 5ebe b615 243e a3c6 2b3e
00000360: 0208 863e b908 c83c 8808 01be 27dc 013e
00000370: fe16 0bbe 2114 4bbe e5b9 f73d 35e7 4a3d
00000380: 28dc 46bb 2207 303d b27f 253d 62a8 c33d
00000390: bc3d f8bd 5629 c9bd 1370 633e 8ce4 58be
000003a0: 7279 89be dda1 28be f3b7 54be 9f53 0e3c
000003b0: 0047 6f3e f282 2f3d 424c f0bd 5c3b 3e3e
000003c0: f79a 533e 8731 09be 42c2 3cbd ec2e 6a3e
000003d0: a5cb 5abe 2df3 6d3d 051e 02be 0cb0 a43d
000003e0: 482c 31be adb5 fd3d 22c8 13bd fb71 85bd
000003f0: 710a c4bd c571 37be c7ac 07bd 8fe4 263e
0.2235018 0.21552846 0.15070048 -0.07539076 -0.060864255 0.24854408 0.18415444 0.10696569
-0.09589284 0.22849922 0.2786738 -0.2514325 0.083428934 -0.22616005 0.00078248273 -0.16996367
-0.22422971 -0.11573464 -0.19343801 0.24240732 -0.15978354 0.048898477 -0.20297179 -0.18950862
-0.24820167 0.044399142 0.0033285592 0.19709621 0.10053392 0.12531523 0.22025408 -0.2051175
-0.25482702 -0.12604348 -0.22417012 0.009925684 -0.14787641 -0.113796785 -0.18698734 -0.15887912
0.18271656 -0.0379062 0.0578328 -0.020411659 0.21707813 0.017565833 0.0979164 -0.14131033
-0.06413225 -0.08594462 0.22254165 -0.05325108 0.043276638 0.022286616 0.07014761 0.17394316
-0.048240975 -0.2003462 0.100065984 0.069994755 -0.25251013 -0.14696059 0.055781852 -0.23114307
0.06409181 -0.12490199 0.15971097 0.15497012 -0.20651557 0.19781466 0.1248507 -0.24340004
0.0898734 0.12208909 0.026206948 0.15816663 0.19727077 -0.13772322 0.1440593 0.12830016
-0.061601028 -0.16514419 0.08332563 -0.09207178 0.02087356 0.21565074 -0.01712965 -0.22198354
-0.22901265 -0.20574763 0.12327816 -0.15409271 -0.13676496 0.18526675 -0.097736 -0.18427762
-0.03084892 -0.25169796 0.14170362 0.15690665 -0.06742504 -0.07275343 -0.2536548 0.22334793
-0.020336173 -0.20960833 0.10516342 -0.17448153 -0.22516793 0.0034008964 0.20805676 -0.09739586
-0.08376431 0.25679913 -0.18260582 0.07431536 0.12612274 0.18549715 -0.25465655 -0.11911024
0.15535171 -0.052069522 -0.16737843 0.18308163 0.15645757 0.10125011 -0.06620029 -0.2568548
-0.1267275 -0.24381313 0.06909362 0.050150458 0.15234573 0.24407646 -0.029694756 0.10090983
0.22374186 -0.041464366 0.07528688 -0.04741449 -0.24596536 0.19266866 0.017116785 -0.03361032
-0.06749511 0.18658483 -0.07729873 0.13432683 -0.058940962 0.14143544 -0.011927778 0.16194627
0.16353408 0.21980038 -0.104015134 -0.044389628 -0.09306064 -0.0404161 0.16513546 -0.21043086
-0.069843195 -0.087315485 0.19841436 0.24015702 -0.16143578 0.08923148 -0.17732492 0.09994363
-0.1518897 -0.17003304 -0.072284184 -0.049189057 -0.050112348 -0.24406376 -0.082582034 -0.15091023
-0.24198721 0.04751678 0.22754498 0.23350069 -0.2581119 0.025280453 -0.11820107 0.04814534
-0.026140729 -0.13673481 0.14733657 -0.14736934 0.17510082 0.015405387 -0.1885031 -0.0034881874
0.14749508 -0.20389223 -0.03123682 -0.100391895 -0.09244562 0.2316127 -0.07807439 0.19177301
-0.19813018 -0.26008785 0.2524449 0.23837498 -0.25869069 0.041284952 -0.005813792 -0.16584082
0.21829833 -0.033638034 0.09718283 -0.069265366 -0.24268919 -0.21688507 0.16023907 0.16774993
0.26177984 0.024418222 -0.1260091 0.12681638 -0.1358299 -0.19831897 0.120960034 0.049536902
-0.0030343626 0.042975552 0.040404983 0.09553601 -0.1212115 -0.09822337 0.22210722 -0.21180934
-0.26850468 -0.16467996 -0.20773296 0.008686929 0.23366928 0.04284949 -0.11733295 0.18577331
0.20664583 -0.133978 -0.046083696 0.22869462 -0.21366747 0.05809324 -0.12706764 0.08041391
-0.17302048 0.123881675 -0.036079533 -0.06515881 -0.09572304 -0.17914493 -0.033123758 0.16298126

main.0.bias f4 [64]
00000000: e087 30be 3ab4 b1bc cc32 823b fb0c 48be
00000010: cd30 c73d 676e 3f3d f454 31be 844b 02bd
00000020: 1389 403e 1b1e 6f3e e35c 81be 3079 cb3d
00000030: 0b51 753c 11cf 28be 92a7 80be 56ff 8a3e
00000040: 9d29 823d 3e6f 3dbb 1b66 ce3d f0be 763e
00000050: 07c1 753e 2dc9 643d 9ad5 433e 16ab 08be
00000060: 9c62 0c3d 6a8a 2d3e 669a 013e 365d 6bbe
00000070: 5f28 8b3e b75c 783e 00e6 6b3e b3d5 39bd
00000080: 8f0e cbbd 55a1 d9bd 06e9 203e d8fc 1abe
00000090: 6f04 8f3c 0d02 c93d 8aae 8cbc 1409 49be
000000a0: fddc 2839 16fb 713e 9e1c 6e3e acde bbbc
000000b0: b77c 13be 5656 2bbe 5e83 333e 5acc afbc
000000c0: e94b 21bb 89cd b8bd 85e1 143d feb2 92be
000000d0: 4414 ccbc 60a2 c1bd 6e71 28be e5fd ddbd
000000e0: b34d 37be d8b1 e1bc fc42 7b3d 74c3 42bd
000000f0: 4762 debd 7193 893d e05d 59bd fd2e a9bd
-0.17239332 -0.021692384 0.0039733406 -0.19536202 0.09726105 0.046736147 -0.17317563 -0.0318103
0.1880229 0.23351328 -0.2526618 0.09935224 0.014972935 -0.1648524 -0.25127846 0.2714793
0.06355593 -0.0028905417 0.10078069 0.24096274 0.23999415 0.05585592 0.19124451 -0.13346514
0.03427373 0.16947332 0.12656555 -0.22984776 0.27179238 0.24254118 0.23036957 -0.045369815
-0.09914886 -0.10626475 0.15713891 -0.15135515 0.017458169 0.09814844 -0.01717307 -0.1963237
0.00016104053 0.23630938 0.23253104 -0.022933327 -0.14403044 -0.16732153 0.17530581 -0.021459747
-0.0024611896 -0.09023578 0.036347885 -0.28652185 -0.024912007 -0.09454799 -0.1644952 -0.10839442
-0.17900734 -0.027550623 0.06134318 -0.04754968 -0.10858589 0.06717575 -0.05306804 -0.082609154

main.3.weight f4 [64, 64]
00000000: d48d 1b3d 4a27 08bd 49b5 513d db38 bebd
00000010: 3069 73bd 8ca4 9bbc 4d9c d1bb db4d 41bc
00000020: e50c 8a3d aa18 9b3d 2688 8e3d d0aa c33d
00000030: c343 ea3c ccea 813d 98d4 67bc 2d52 05bd
00000040: 25bc ed3d ca69 7a3d 1ff7 b5bd 9263 4e3d
00000050: 4af4 58bd cc22 be3d df51 c3bc 636d 703c
00000060: ead0 483c 71ad 043d 0ffa a2bc e6d7 a03d
00000070: 0ee0 84bd e38a b33b c048 50bd 0608 5e3d
00000080: 8b7d 7d3d 5a29 823d b204 96bd 1ffc f3bd
00000090: 910e 81bd 4cdd b0bd c64e 333d c397 5b3d
000000a0: 6427 a83d 87fb 553c 8de9 51bd f7c9 c1bc
000000b0: 8f0b 6f3b 491d 54bc e2cd da3d 2252 8b3d
000000c0: 10d0 acbd 5c0e 8abd c6dd 083d cc0e 6d3b
000000d0: 9472 b2bd 9a02 80bc fa93 953c 35c9 093c
000000e0: 5ffe 683d 5e5b b9bb 008e 1d3d 426d 88bd
000000f0: fb21 b7bd 100e 5c3d 7bcd 79bd de4f 6bbc
00000100: ddfa 9d3d c2f4 e03b 4d8d 39bd b7d7 ddbc
00000110: e85d 163d 115d 8fb8 b389 113d 0f0f be3b
00000120: c87c 6abd a532 86bc f99c 90bc 0f9a 023e
00000130: 9ca8 3dbd 9bb6 5dbd 81c9 31bd 7f9d 10bd
00000140: a49c dd3d 1519 a73d 2af5 0e3c 4dc9 25bd
00000150: 0da9 9b3d b8ea c73d 4799 c23d b6ec 4dbd
00000160: d1c0 4abc a773 67bd d19a 9abd b92f c23c
00000170: 5b2d 763d d96b 45bd 9e6e b93d 2571 a1bd
00000180: ca67 d5bd 8866 4fbc 3086 dd3a baad f7bc
00000190: b410 823c 2ef4 85bd 1f95 22bd 0caf fb3c
000001a0: e9a2 c73c 64c4 bf3d 11bf 593d 9a35 b33d
000001b0: 9a6c 2f3d b802 3ebd 3d06 423d 3e2a 513d
000001c0: 7b42 6ebd 626f 9abd 3441 e33d b6d9 8d3b
000001d0: b810 8e3d 5e8f 423d 27d7 753d b0db 6cbd
000001e0: 42c1 ba3d 8b99 b83d 9ba4 ca3d f049 34bd
000001f0: 1a9a f3bb 5e1f 993c e9d4 a63d e9af 1f3d
00000200: 79dc 00bd ad43 80bc 4470 8ebd 0316 68bd
00000210: 6dda 753c f3bb 36bd b148 04bd c7f7 fcbb
00000220: e540 8b3d 2d60 6b3c 0d0b a73d ae05 833d
00000230: ca21 f73c 7e2f e73d 2cb9 3a3d 5358 aa3b
00000240: 138b af3d e7c9 e13d 27de 7ebd 5174 41bc
00000250: 6a3e 41bc 9c4d 093d 0063 c63d 4218 31bd
00000260: 6a92 70bc 3966 9a3d d159 25bd 6cce a3bd
00000270: 9606 c03b ad53 143d 64b2 253d 4ec6 223b
00000280: cf22 fbbc 6c44 033d bed8 39bc a595 9fbd
00000290: 39bf 88bd 3ac6 4cbd 06bf 8fbc 1cab 6a3d
000002a0: 6827 723d ed8b c43a ed7e a6bd b9d9 c9bc
000002b0: 17ee 13bc e280 033d aaaf 9e3d 6db9 22bd
000002c0: 9e87 5c3d 65d6 4d3c 49bb cb3c a744 0ebc
000002d0: e5ae d13d eb54 23bc 9ef7 4bbd ba80 a0bd
000002e0: 49c5 a33b b098 6f3d 869e 973d 5955 77bd
000002f0: 25b7 94bd 7425 cd3c c821 213d ff5f 5a3d
00000300: c75a 953d cb83 c83d d7f4 56bc c7d2 013d
00000310: 2e72 42bd 63e0 f23c e8a6 29bd 4923 69bd
00000320: b416 983d 967d 433d d7c4 38bc 4109 8b3d
00000330: 0aa7 e8bc 2fe4 873d 5e24 08bc c871 8d3b
00000340: eff6 7c3d 130a 883d 65e4 423d 428d b1bd
00000350: 2f10 80bd c081 20bd c6ee 6fba 8d72 50bd
00000360: ec97 05bd 204f 863c da88 b0bd 9b5c b2bc
00000370: 9f05 5c3d 3d66 933d 9b6b 663d 3a96 e43d
00000380: 7c19 913d 03ac 863d 2b5f d33c 0555 5ebd
00000390: c295 66bc 4076 573c 0f4f 7dbd 09bd f33d
000003a0: b9de 8fbd 41a1 0fbe a41c dfbc 2b74 28bd
000003b0: a0bd 14bc cbf7 4fbd 53f0 54bd bb2a 233d
000003c0: 0789 c43c 4d47 c3bd 1d11 823d ec82 363d
000003d0: 23b7 97bd ba58 37bb ac80 933c be58 a4bd
000003e0: 0ccf b53b 447e ef3d 63d9 c73c e09b 7abd
000003f0: 8d1e 583d 5828 58bd 29f1 c43d 10c7 f53c
0.037977055 -0.033240594 0.051198278 -0.09288188 -0.059426486 -0.01899936 -0.0063968063 -0.011798347
0.06740741 0.07573064 0.06959562 0.09554064 0.028596764 0.06343612 -0.014149807 -0.032549072
0.11608151 0.061136045 -0.08885025 0.050387926 -0.052967347 0.09283981 -0.02384275 0.014674517
0.01225684 0.03239197 -0.019894628 0.07853679 -0.064880475 0.005479203 -0.05085063 0.05420687
0.061887305 0.063555434 -0.07325114 -0.11913323 -0.063016064 -0.08635959 0.043776296 0.053611528
0.08210638 0.013060457 -0.051248122 -0.023655875 0.0036475395 -0.012946435 0.106838 0.06802775
-0.08438122 -0.0674102 0.033414625 0.003617215 -0.0871326 -0.01562624 0.018259037 0.008409788
0.056883212 -0.005656644 0.0384655 -0.06661464 -0.08942028 0.05372435 -0.060986977 -0.014362304
0.07713864 0.006865115 -0.04530077 -0.0270804 0.03671065 -6.836106e-05 0.03553171 0.005800135
-0.057247907 -0.016381571 -0.017652975 0.12754081 -0.046303377 -0.054129224 -0.04340506 -0.03530645
0.108208925 0.08159081 0.008725444 -0.04047518 0.07600603 0.09761566 0.095018916 -0.050274573
-0.012375073 -0.05650678 -0.0754906 0.023704397 0.060101848 -0.048198555 0.09054302 -0.07882909
-0.10420187 -0.012658723 0.0016900953 -0.030234206 0.015877105 -0.06540714 -0.039692994 0.030723117
0.024369674 0.093636304 0.05316073 0.08750458 0.04282818 -0.04638931 0.04736923 0.051065676
-0.05816887 -0.07540776 0.11096421 0.0043289317 0.069367826 0.047500007 0.06001964 -0.057826698
0.09118892 0.09013661 0.09894677 -0.044015825 -0.007434142 0.018691715 0.08146078 0.03898612
-0.03146026 -0.01565727 -0.06955007 -0.056661617 0.01500569 -0.044612836 -0.032295886 -0.007719967
0.06799487 0.014366192 0.08156405 0.06397568 0.030167479 0.11288355 0.04558675 0.0051985173
0.08571448 0.11024838 -0.06222358 -0.011807517 -0.011794666 0.03352128 0.096868515 -0.043236025
-0.014683345 0.07539029 -0.04036886 -0.07998356 0.00586016 0.036212612 0.04045333 0.0024837437
-0.030656246 0.032047674 -0.011343179 -0.07792214 -0.06677098 -0.04999373 -0.017547142 0.05729209
0.059119612 0.0014995314 -0.08129678 -0.024639951 -0.009028933 0.032105334 0.07748349 -0.039727617
0.053840272 0.012563323 0.024869578 -0.00868336 0.102384366 -0.0099689765 -0.049796693 -0.07837053
0.0049978835 0.058495224 0.07403283 -0.06038413 -0.072614945 0.025042273 0.039338857 0.053314205
0.07292705 0.097907625 -0.013119898 0.031695154 -0.04747217 0.029648012 -0.04141894 -0.056918416
0.07426205 0.04772719 -0.011277399 0.067888744 -0.028399963 0.066353194 -0.008309452 0.0043165423
0.06175893 0.066425465 0.047581095 -0.08669521 -0.06253087 -0.03918624 -0.00091527065 -0.050890494
-0.032615587 0.016395152 -0.08619852 -0.021772673 0.0537163 0.07197235 0.056254964 0.11161466
0.07084939 0.065757774 0.025802216 -0.0542803 -0.014073791 0.013150752 -0.061842974 0.1190129
-0.07024903 -0.14026357 -0.027235337 -0.04112641 -0.009078413 -0.050773423 -0.051987004 0.039835673
0.023991121 -0.09535084 0.0635092 0.04455845 -0.074079774 -0.002797647 0.018005691 -0.08024739
0.0055483636 0.11694005 0.02439565 -0.06118381 0.05276351 -0.05277285 0.0961631 0.030002147

main.3.bias f4 [64]
00000000: 462f ac3d 3605 ddbd 170d 63bd 3d7b a93d
00000010: 83ed b63d de35 5bbd 310d 493d 9126 b9bd
00000020: 5d2e 543d 2943 c93c 45d5 e6bd 9215 46bd
00000030: 8f5c 883c 671d 55bd 1165 eabb 08d9 87bd
00000040: b811 9e3d 186c d3bd f7a2 89bd 686b 783c
00000050: 8013 a8bc 0423 85bd a0a6 59bb 208e 3f3d
00000060: bc88 3c3d 8cda 87bd d612 083d a7e7 69bd
00000070: 4fda a6bd 05ad 903d bfdf b43d 60ec 2dbd
00000080: ac5f 373c 8801 2e3d f1c2 3a3d e2a2 a5bd
00000090: 33dc be3d dee8 ed3d 9cba a7bc 4148 d5bd
000000a0: 26df 2bbd e6db a13c 66c3 54bc b568 b43d
000000b0: 631e a43d c83e 253d 7b62 893b afa8 d6bd
000000c0: ad3c ad3d 3276 3ebd 3021 cc3c 5590 44bd
000000d0: f20c 8ebd 5463 c1bc be3a 40bd 27cf 983d
000000e0: c247 163c cf28 873d 57b1 eebd 841a 63bc
000000f0: 4b5f bfbd 3645 893d 5a46 0ebd 013f e7bd
0.08407454 -0.107920095 -0.055432405 0.08275459 0.089320205 -0.05351817 0.049084846 -0.09040559
0.051802028 0.024568157 -0.11271147 -0.048360415 0.016645698 -0.052029993 -0.0071531613 -0.06633192
0.07718223 -0.103233516 -0.06720536 0.015162326 -0.02051711 -0.06500819 -0.0033210889 0.0467664
0.046028838 -0.066334814 0.03322109 -0.057105687 -0.08147108 0.07064251 0.08831739 -0.042461753
0.011192244 0.04248193 0.045596067 -0.08087708 0.093193434 0.116166815 -0.020474724 -0.10414172
-0.041960858 0.019758176 -0.01298604 0.08809034 0.08013608 0.040343076 0.004192648 -0.104813926
0.084588386 -0.04649944 0.024918169 -0.04798921 -0.06936063 -0.023606934 -0.04693102 0.07461386
0.009172382 0.065995805 -0.11654919 -0.013861302 -0.093443476 0.06702654 -0.03473506 -0.11291314

main.6.weight f4 [64, 64]
00000000: 304f 543d ab0a e43b 6f6b c13b 29c4 81bd
00000010: 60e2 8b3b acc7 f03d 4878 eabd 520b 753d
00000020: d093 e4bc 33b2 c73b b2db c3bd 7765 10bd
00000030: ce8d e3bd 55de 473d f1db 21bd ef78 153d
00000040: be8f e7bd 5864 263c 05da 583c 8095 dabd
00000050: eb1b ecba 2bbb be3c 99b0 06be 7312 3e3d
00000060: 5a65 20bd fdfe cabd 759f 84bd e290 c73d
00000070: d623 d13d d83a f63d 6d40 8f3d 4447 873c
00000080: 2cc9 8dbd 6b33 25bb 6ad4 8a3d b6b7 833d
00000090: 3d8c 453c 35e0 e23d f0f8 3dbd e505 c63d
000000a0: d1e9 e3bc 68cb dfbd 832c 8dbd 0b1d 60bd
000000b0: ad30 07bd 360a bdbd e157 0abd 6818 da3d
000000c0: 24ce e73d b300 563c 580c 3c3c d923 9abd
000000d0: 2c3f 48bc 02f4 41bd 74b5 a6bd 2349 56bd
000000e0: ab7b 523d 0cf5 27bd 76c7 6c3d d8cb c9bd
000000f0: e4bb b2bd 0ce4 963d 47dd ad3d 6858 d43d
00000100: d893 3dbd 431d ba3d 94b4 983c a072 e53d
00000110: ccfb c33d 037f 2dbd a8a2 d3ba e144 47bc
00000120: 6092 7abc 9e16 553c a84e d4bd 9ec6 fd3c
00000130: f07f 0bbe b454 583d e6e9 e6bd 1b2a 7bbd
00000140: 77ff 86bd 26c7 cbbd 51b4 9a3d 677e f53c
00000150: 3338 073d 96cc aa3d 1169 0f3d 6b01 d03c
00000160: 0f37 5abd 690b ac3d 6a6e b7bd 836b adbb
00000170: cce4 83bd 96f6 11ba c8a7 88bd 721a 30bb
00000180: f860 a03d f0a8 9abc 49d9 a53d ecc6 a6bd
00000190: 8daa acbd c5a0 c3bd c207 33bc d6f1 8c3d
000001a0: bf59 a53d c261 9e3b 9d47 6d3c 750d d7bc
000001b0: 3714 863d e1b6 b93c ab42 10bd f54b f1bc
000001c0: 2d43 7139 ff65 083d c460 323c 3f89 d6bc
000001d0: 5e8c ad3d 23ca 433c aaf3 503d d9d0 ab3d
000001e0: f370 413d c5e1 83bd d375 1cbd 201c c4bc
000001f0: e41d 4d3d 1cad db3d 188c f83d b588 8e3d
00000200: 4ad1 46bd 9987 49bd 11c3 f2bc 6788 ce3d
00000210: 67b3 7bbd 44d6 273c 2b5f 64bd 2951 383d
00000220: 2805 95bc 2403 fdbc 82f5 823d c9a6 693d
00000230: 7147 af3b d710 d43d 8e87 bb3d ec49 2c3a
00000240: f025 f93c 6b00 383c 4dfa 793c 7b5b 14be
00000250: ee10 93bd da36 e8bd 2215 a13d 342f fb3c
00000260: 1b59 823d 4878 0ebd 6722 78bd b096 eb3c
00000270: 444f 903b 8852 fb3d b0d1 fe3d ae3b c6bd
00000280: aa34 efba 97cf dc3d 9524 ddbc 9db1 b03d
00000290: 6061 7dbd 4f6c 20bd 6649 233d f3d1 cabc
000002a0: ea0a d43d 2beb 59bd a1dc 233d 6863 80bd
000002b0: 3eeb 783b 46bc b63d d1db adbd 32ad 21bd
000002c0: 2cab 76bd 6bb9 b63d 8c0f 1f3d e1c4 99bd
000002d0: ab9f 70bd 9776 18bd 5a6c db3b ad10 87bc
000002e0: 8e98 883c d511 cf3d 6038 6d3d 1804 2d3d
000002f0: 70b3 983d e80c 2b3c e707 e33d 4c1a 03bc
00000300: 2339 59bb e3a0 8d3d 056e cebd 262c f2bd
00000310: cce9 8fbd e69a 8fbd 86fc 8abd 27d7 36bc
00000320: 7a05 a6b9 64fe a2bd ba83 0d3e 92c4 693d
00000330: 5c60 993d 187b 9b3b f7df 86bd 7198 bb3d
00000340: 457f 45bd b60d 263d 033d 00be 190c b1bd
00000350: 8737 ba3d 3f14 fe3d c882 39bd 8dba 9d3d
00000360: a196 cd3c 5dc9 013d 5e2a 183d 410b 37bc
00000370: c14b 723d d9f7 64bc 82c2 903d a90a f33d
00000380: fb76 323b 33a9 f33d a18f 9abd 6a27 1bbd
00000390: e7f9 cd3b cef7 d4bd 6632 493d 6e89 893d
000003a0: 3040 343d e99c ce3d 5758 87bd dc4b 403d
000003b0: f3d1 293c 326c ae3d 7e42 373d c31d e33c
000003c0: 324b 98bb 105c a4bd 8f2f 61bd 30aa dbbd
000003d0: 8e79 09bd 1f8f 5dbd 338c 8c3b a2fe 3c3d
000003e0: 2e8c 013c 46b4 8bbc 2472 7d3d 2ada 0bbd
000003f0: ebf5 1d3d 646b 8abd f777 323d a2eb 91bd
0.05183333 0.0069592795 0.0059026997 -0.06336243 0.0042689294 0.117568344 -0.11448723 0.05982525
-0.027902514 0.006094241 -0.09563388 -0.035253014 -0.111110315 0.048796017 -0.039516393 0.036492284
-0.113067135 0.01015576 0.013235574 -0.10673046 -0.0018013691 0.023282608 -0.13153304 0.046404313
-0.039159156 -0.099119164 -0.064757265 0.09744431 0.10211913 0.12022942 0.0699471 0.016513474
-0.06923136 -0.002520765 0.06778796 0.064315245 0.012057361 0.1107792 -0.046379983 0.09669093
-0.027821453 -0.109274685 -0.068932556 -0.054715198 -0.033005405 -0.09230463 -0.033775214 0.106491864
0.11318615 0.01306169 0.011477552 -0.07526369 -0.012222093 -0.047351845 -0.08140078 -0.052315842
0.05138747 -0.04100518 0.05780741 -0.09853333 -0.087272435 0.07367715 0.08489471 0.10368425
-0.046283573 0.090876125 0.018640794 0.112035036 0.09569511 -0.042357456 -0.0016146498 -0.012162418
-0.015293688 0.013005881 -0.10366565 0.030978497 -0.13623023 0.052815154 -0.11275081 -0.06131945
-0.06591695 -0.09950094 0.07553924 0.0299675 0.03301258 0.08339803 0.03501231 0.025391301
-0.053275164 0.08400614 -0.08956607 -0.0052923574 -0.06440124 -0.0005568055 -0.06672627 -0.0026871231
0.07830995 -0.018879384 0.080980845 -0.0814341 -0.084309675 -0.09552149 -0.010927143 0.06882064
0.08073758 0.004833431 0.014482406 -0.026251534 0.065468244 0.022670211 -0.03521983 -0.029455164
0.00023008576 0.033300396 0.010887329 -0.02618849 0.084740385 0.011950049 0.051013626 0.08389444
0.047226857 -0.064395465 -0.038198303 -0.023939192 0.050077334 0.10726377 0.12136096 0.069596685
-0.048539437 -0.04920158 -0.02963403 0.100846104 -0.06145039 0.010243956 -0.05575482 0.044999275
-0.018190935 -0.030885287 0.06394483 0.057043824 0.0053490927 0.103547744 0.091567144 0.00065722945
0.030413598 0.011230568 0.01525743 -0.14488022 -0.071809635 -0.11338587 0.07865359 0.030662157
0.06364652 -0.034782678 -0.060579684 0.028758377 0.0044039804 0.12271601 0.124423385 -0.09679352
-0.0018249948 0.10781782 -0.026994983 0.08627627 -0.061860442 -0.03916579 0.03986492 -0.024758315
0.10353644 -0.05320279 0.04000533 -0.0626896 0.0037982012 0.08922629 -0.08489192 -0.039471813
-0.060221836 0.089220844 0.038833186 -0.07508255 -0.05874602 -0.03722247 0.006696266 -0.016487444
0.016674306 0.10110823 0.05791509 0.042240232 0.074561 0.010440089 0.110854916 -0.008001875
-0.0033145628 0.06915452 -0.10079578 -0.11824827 -0.07027015 -0.070119664 -0.06786446 -0.011159695
-0.00031666068 -0.079586774 0.13819781 0.05707223 0.07489082 0.0047448985 -0.06585687 0.09159935
-0.048217077 0.04054042 -0.12523274 -0.086448856 0.09092622 0.124062054 -0.04529074 0.07701597
0.02509624 0.031686176 0.03714978 -0.011172117 0.059154276 -0.013975107 0.070683494 0.11867268
0.0027231562 0.118975066 -0.07546926 -0.037879385 0.006285894 -0.103988275 0.04912033 0.06715666
0.044006526 0.10088522 -0.06608646 0.046947345 0.010364997 0.0851673 0.044741146 0.027724152
-0.004647636 -0.08025372 -0.054976996 -0.1072582 -0.03356319 -0.05409157 0.004289174 0.046141274
0.007906957 -0.017053735 0.06187643 -0.034143604 0.038564604 -0.067587644 0.04357144 -0.071250215

main.6.bias f4 [64]
00000000: b7a2 f8bc a649 03bd d219 a9bd cd44 50bd
00000010: 50a6 69bc 7766 3fbc 1a0d dc3d 6ab8 363d
00000020: 8dc5 153d a10d a03d adac 45bd 8f23 15bd
00000030: be3f 67bd fb06 0cbd 4ce6 64bd 77f5 b1bd
00000040: 2fef c2bd 6520 943d 8fa6 adbc 94fe c4bc
00000050: 637d 8bbc 322c 7cbd d7d3 dabd aa65 2c3d
00000060: 99f9 18bd 2092 b83b 05ce 29bd 2d07 b5bd
00000070: c156 aebd 1e44 c0bd a2cf acbd 3751 99bd
00000080: e46c fabc 94ac 8cbd 2bd1 c83d afd9 8b3d
00000090: 2360 073d 2de6 dbbd d68e ad3d eab0 6bbd
000000a0: 329f bf3c d4d8 dcbd c522 96bd 7487 aa3d
000000b0: a5a9 073c d482 c7bd 965d 9bbd d253 853d
000000c0: 712e 3c3d c82c f03c 6c9f 89bd dc98 5a3d
000000d0: ebd9 87bd fe79 c6bc 27cd 3dbd 9b64 c8bb
000000e0: b0ac f5bc 5f95 02bd 3483 973d 92df c0bd
000000f0: 9ec4 013e 5a9e b23d b85e fdbc bdf4 8dbd
-0.030351026 -0.03205266 -0.08256878 -0.050846864 -0.014260843 -0.011682144 0.107446864 0.044609465
0.036565352 0.078150995 -0.04826038 -0.036410864 -0.056457274 -0.034186345 -0.05588369 -0.08689397
-0.09518277 0.07232741 -0.021197585 -0.024047174 -0.017027562 -0.061565585 -0.106849365 0.042089142
-0.03734741 0.005632654 -0.04145624 -0.08839259 -0.08512641 -0.09387992 -0.0843804 -0.074861936
-0.030569501 -0.06868854 0.098055206 0.06828629 0.033050667 -0.10737262 0.084745094 -0.057541765
0.02339134 -0.10783544 -0.073308505 0.08326617 0.0082801925 -0.0974175 -0.075862095 0.06510128
0.045942727 0.029318228 -0.067198604 0.053368434 -0.066333614 -0.024228092 -0.046338227 -0.0061155087
-0.02998957 -0.031880733 0.07398072 -0.09417643 0.1267266 0.087216094 -0.030928954 -0.06931446

main.9.weight f4 [64, 64]
00000000: 31e9 4d3d eadc 6a38 84b5 c3bd 8c63 9fbc
00000010: f59f c0bc 7203 41bd bfed 39bd fe42 9b3d
00000020: c351 98bb 42c3 bdbd d73f 1bbb c805 76bd
00000030: 4a5a 5bbd dd34 5c3d 8d88 f1bc 136d 8b3d
00000040: 58d3 17be 81d8 923d c8e6 03be 3f0b d93d
00000050: 0b61 8a3d 5915 9ebd 528b 36bb 0b83 ab3c
00000060: ab49 03be 4b94 86bd 0a24 bb3d 194b 57bd
00000070: 7410 2e3c 30f4 36bd 1cb4 b8bd 7d89 1a3d
00000080: 12c9 20bd bd77 adbc 9f3e b43d d6fd b7bd
00000090: 8985 843d c332 9a3c b193 293d 0f9c 47bd
000000a0: 265b d2bb d823 813d ac63 f5bc a7e2 a2bd
000000b0: bca1 5abd da60 393d 47f6 c23c 187f b43d
000000c0: 63c1 b2bc 15ad 023d d34b 873c cd70 b6bd
000000d0: 6b76 24bd 96d0 d13d 9ed1 c6bc de4b dd3b
000000e0: c9ba 0a3b dfb3 e43d 6ea9 fc3d 270a 78bd
000000f0: 4fd6 40bd 8863 1b3c 3cab 85bd d769 d8bd
00000100: 3871 09bd dc3f d5bd 38f6 a6bd 4ed0 bd3d
00000110: 43ae acbd 4448 c13b 4d54 65bd e498 4b3d
00000120: 5b5a 943a 073f 0bbe 6fe8 b93c 21b9 123d
00000130: 8461 82bd e9d8 c73d 43cd c1bb fa98 863c
00000140: 8bf2 893d 5be0 f0bc 99bd 9f3d 6a3d 9c3d
00000150: cfa6 0b3d 8f59 06bd ba96 d33d 499e 823d
00000160: c60b 943c fd28 97bd c358 b2bd ae20 8abc
00000170: c82e f5bb 0f36 c3bd 070f 53bd 7fc0 10bc
00000180: cfd0 b0bd b303 883d 20ea acbc ee1f 4a3d
00000190: 4147 e2bc 95cd a4bd e9b7 463c 38d7 02bd
000001a0: 0978 eabb 06b9 b13d 073c 263d 9fe4 90bd
000001b0: 66fb 953d e577 dcbc 6db9 21bd 0930 08be
000001c0: 1a01 81bd 4df5 503d 25b3 1cbd ed96 d8bc
000001d0: 90dd b13d a82b ccbd d0e9 123e 6880 d0bc
000001e0: b84c 893d d4e7 cebd e119 023c 6141 94bd
000001f0: ecd7 78bd 5081 02bd 7e2c c83d 4e1b 5bbd
00000200: e858 f03b 3dfe a93d 5d1a f43d 6eb1 773b
00000210: d7e7 afbd 3d86 ff3d e86e 5fbc 31e3 b8bd
00000220: a260 493d 08e0 3c3c 8060 8a3d 104b 223d
00000230: 473c 40bd 221b 993d 44c7 c83d eaf7 633d
00000240: e8b9 abbd a766 c9bc 7e41 723d 2100 13be
00000250: 3c2f ae3c c2e6 0c3c 8a2b 493d 53d3 95bd
00000260: 7ce0 7abb 2672 16bd e72f 3c3d c444 9fbc
00000270: 0483 82bd 4f04 04bd 4b8e 78bd 5c92 9b3c
00000280: dfcf 913d 14e4 433c d63b 013e 7865 333d
00000290: 7274 7cbd 641d a23d e005 9dbc 8afa b03d
000002a0: 8ec6 513d 58fc 74bd 7118 39bd 5902 783d
000002b0: 81ae ac3d 2426 c3bd cd10 e4bd 194b d13c
000002c0: a489 0bbd dc32 d6bd 2e97 ec3c 7448 7abd
000002d0: 9a3f c53d 9670 cc3b f8a5 553d 1fff 3cbd
000002e0: e92f 7abc 4fc6 b5bd 951c 053c 5c5b 7bbd
000002f0: 00f2 86bc 1a63 6d3c 42f0 9abd 61e4 353d
00000300: 1e53 8f3d 1b8c 4ebd 7369 c9bd d011 a5bd
00000310: 1917 5ebd 8d87 d0bc 206f e43d cdce 8c3c
00000320: 1f6f 94bd 718b 99bd 8feb 8bbd afbd de3c
00000330: c0ef 7c3d 30b9 06be e379 0e3c 1b57 8e3d
00000340: a4c0 3fbd 626a 3abd 2845 533d 29a3 c7bd
00000350: 45f7 a6bc bf05 e23c ba0d d53c 2889 4c3d
00000360: 52b6 2bbd b72d aabc def6 803c a8b9 8fbd
00000370: 6c0c 5abd 8d54 3b3d 8202 203d c338 da3d
00000380: 850f 603d 75da aa3d 31ac 6fbc da69 9fbd
00000390: bed5 153e 124f 1d3d 5b3d 50bc 66bc adbd
000003a0: 2c3b ac3d 406d 2a3d f841 af3d e156 91bd
000003b0: 6202 fa3d 5f33 5ebc 10fa c1bd 9caa 9e3d
000003c0: 8140 053d 8592 163c be98 903d bdb2 a5bd
000003d0: c099 5abd 3ecb 0fbb 43a4 7d3d 3443 6c3c
000003e0: 9770 ffbd 4e92 a13d 8f80 85bd 5abe ff3c
000003f0: f17b d73d ae60 a33d 0b54 c13c b96c 703c
0.050271217 5.599569e-05 -0.09556106 -0.019456647 -0.023513773 -0.047122426 -0.045392748 0.07581137
-0.0046484186 -0.09265758 -0.0023689175 -0.060064107 -0.053552903 0.05376135 -0.029484058 0.06807914
-0.14826715 0.07170201 -0.12881005 0.10597848 0.06756791 -0.077189155 -0.0027854037 0.02093651
-0.12821071 -0.065712534 0.09137733 -0.052561853 0.01062404 -0.04466647 -0.09018728 0.037728775
-0.039254256 -0.02117526 0.088010065 -0.08983962 0.06470782 0.018823033 0.041400615 -0.048732813
-0.006419557 0.06305665 -0.029954754 -0.07953387 -0.0533769 0.04525838 0.023799075 0.08813304
-0.02182073 0.031903345 0.016515648 -0.08908234 -0.040151995 0.10244863 -0.024269875 0.006753429
0.0021168462 0.1116712 0.12337004 -0.060556557 -0.04707938 0.009484179 -0.06526801 -0.10567062
-0.03355524 -0.10412571 -0.08152431 0.092682466 -0.08431675 0.0058985073 -0.0559886 0.049706355
0.0011318432 -0.13598262 0.02269384 0.035821084 -0.06366256 0.09758169 -0.0059143617 0.016430367
0.067357145 -0.029403856 0.07799835 0.07628901 0.034094628 -0.032800253 0.10331483 0.06377847
0.01807202 -0.07380865 -0.08708336 -0.016861286 -0.0074823834 -0.09531795 -0.051528003 -0.008834957
-0.08633577 0.066413306 -0.021107733 0.049346857 -0.027621867 -0.08047024 0.012128809 -0.03194353
-0.0071554226 0.086778685 0.04058459 -0.07074856 0.07323341 -0.026912639 -0.039483476 -0.13299574
-0.06299038 0.051015187 -0.038256783 -0.026439155 0.08684838 -0.09969264 0.14347005 -0.025451854
0.06704086 -0.101028115 0.00794074 -0.072390325 -0.060752794 -0.031861603 0.09774111 -0.053492837
0.007334817 0.08300445 0.11919091 0.0037794965 -0.08589142 0.12476776 -0.013637282 -0.09027708
0.04916442 0.011528023 0.06756687 0.039622366 -0.046932485 0.07475878 0.09803632 0.05565635
-0.08385068 -0.024585081 0.05914449 -0.14355518 0.021262757 0.008599939 0.049113788 -0.073156975
-0.0038280776 -0.036729954 0.04594412 -0.01944197 -0.063726455 -0.03223067 -0.060682576 0.018990688
0.071197264 0.0119562335 0.12620482 0.04379794 -0.06163449 0.07915762 -0.01916784 0.086415365
0.051214747 -0.059810966 -0.045189325 0.060549114 0.084317215 -0.09528759 -0.11136017 0.025548505
-0.03406681 -0.104589194 0.028880682 -0.061104253 0.09631272 0.006239007 0.052160233 -0.04614174
-0.015270212 -0.08875715 0.00812449 -0.061366424 -0.016472816 0.01448896 -0.07565357 0.044407252
0.06998275 -0.050426584 -0.09834566 -0.08060038 -0.054221246 -0.02545526 0.11154008 0.017188454
-0.07247757 -0.074972995 -0.068320386 0.027190058 0.06175208 -0.13156581 0.008696052 0.06950208
-0.046814576 -0.04551161 0.051579624 -0.09747917 -0.02038158 0.02759063 0.026007522 0.04993549
-0.04192192 -0.020773752 0.015742715 -0.07017833 -0.053234503 0.04573493 0.03906489 0.10655358
0.0547023 0.083424486 -0.014628456 -0.077838615 0.14632317 0.038405485 -0.012709941 -0.084832
0.08409724 0.041608095 0.085575044 -0.07096649 0.12207486 -0.0135620525 -0.09471524 0.07747385
0.03253222 0.009190206 0.07060383 -0.08090732 -0.053369284 -0.002194121 0.06192423 0.014420319
-0.12472647 0.078892335 -0.06518661 0.031218696 0.10521687 0.079774246 0.023599645 0.014674359

main.9.bias f4 [64]
00000000: 0a42 73bd ab71 8c3c b997 8cbc 6f2e b5bc
00000010: 9e1d 59bd 85a7 98bd f4c9 9ebc 08b4 36bd
00000020: e666 9dbb a897 ab3c 10f1 aebd ee35 7a3d
00000030: 9b0e 25bb 253a 2a3c 8dce 16bd 32db 2a3b
00000040: 7727 4d3d ac15 053d ff32 e8bc b77c 2fbd
00000050: e332 bf3b d8a4 0bbd 16a4 86bc 511b de3c
00000060: ca93 7abd 4ebf 523d 9b82 5fbc 637c ad3d
00000070: 9616 23bd d18e 16bd e46d 513c 0caf a53c
00000080: 0cb6 5eba 2d7b 96bd d7e7 463c 4fba 313d
00000090: ee6b 94bb da62 583d 77ab 0abd dfe4 a13d
000000a0: 4f8d 833d afc5 b5bc d2f3 6dbd 0a54 6b3d
000000b0: 0436 873c a5ea 43bc 3095 8fbc 18c3 f3bc
000000c0: 114b 3abd b026 2d3c ed1e 9a3c e28a 91bc
000000d0: d04c 963d 5e50 3bbd 02e0 f9ba 0fde 083d
000000e0: 3c36 cfbc e21c 9c3d 41dc 10bd b87b 483d
000000f0: e4a0 7c3d 7a5e 43bd 830d 80bd a859 923d
-0.05938915 0.017144045 -0.01716219 -0.022116868 -0.05300676 -0.07453827 -0.019383408 -0.044605285
-0.004803526 0.020946339 -0.08542073 0.061086588 -0.0025185707 0.010389839 -0.036818076 0.0026070592
0.050086465 0.03249137 -0.02834463 -0.042843547 0.0058349236 -0.034092754 -0.016435664 0.027112635
-0.0611761 0.051451974 -0.013641979 0.084709905 -0.03981646 -0.036757294 0.012782548 0.02022507
-0.0008495755 -0.07347713 0.012140236 0.04339057 -0.004529468 0.052828647 -0.033854928 0.07904982
0.06423437 -0.02218899 -0.058093853 0.057453193 0.016505249 -0.011957799 -0.017527193 -0.029756114
-0.045481745 0.010568306 0.018813575 -0.01776642 0.073388696 -0.04573094 -0.0019063952 0.033414897
-0.025294416 0.076226965 -0.0353663 0.048946112 0.061676875 -0.04769752 -0.06252577 0.07146007
