models/VANE_node_pred_n2v_model/Generator_epoch_3.pth (torch, 55791 bytes, 8 tensors)

main.0.weight f4 [64, 10]
0.23182254 0.22543518 0.1538782 -0.06989653 -0.05601536 0.2567198 0.18930086 0.1127176
-0.102545604 0.23611367 0.2853645 -0.25113738 0.08465243 -0.22673677 0.00916142 -0.17183805
-0.22578074 -0.11219974 -0.19936833 0.24414349 -0.16370809 0.045400783 -0.20466834 -0.19613971
-0.2530341 0.047128014 0.0023712798 0.19686876 0.105742514 0.12556773 0.22994597 -0.20296027
-0.25727373 -0.12406116 -0.22652498 0.012143134 -0.15767433 -0.109574616 -0.19125363 -0.15177186
0.18631199 -0.0382609 0.067600355 -0.01299709 0.2237234 0.022004208 0.09058304 -0.14252979
-0.05958896 -0.08601474 0.23754068 -0.05578678 0.05093912 0.019078061 0.068407714 0.17948331
-0.056129426 -0.20753005 0.10556806 0.07504601 -0.2641934 -0.14873865 0.050598137 -0.23617804
0.068454854 -0.12610744 0.1674608 0.15750158 -0.218271 0.20533884 0.12639709 -0.24885269
0.09672876 0.11980519 0.022223664 0.16722043 0.2036925 -0.14098871 0.14569356 0.13751674
-0.06397409 -0.16893809 0.08800628 -0.09377777 0.019866185 0.21334499 -0.017062455 -0.22815095
-0.22869022 -0.20728761 0.11795789 -0.16552606 -0.14114624 0.1881603 -0.105020344 -0.18646502
-0.03941651 -0.25890583 0.15643364 0.15485516 -0.06956994 -0.06893373 -0.25837356 0.23263098
-0.0205044 -0.21351673 0.108499795 -0.1716164 -0.23014924 0.0071289334 0.20817654 -0.1016413
-0.08317502 0.2536564 -0.18746221 0.07368008 0.13158913 0.18943931 -0.25617474 -0.12820478
0.1558062 -0.055564545 -0.17628734 0.1820518 0.16160142 0.097076274 -0.066583194 -0.2541648
-0.12860122 -0.24794579 0.075192675 0.057175178 0.15014309 0.25111535 -0.02946868 0.10070397
0.22983526 -0.03318676 0.07563983 -0.049001522 -0.25036162 0.19736062 0.016829528 -0.027920336
-0.063999586 0.18920742 -0.081336714 0.13479723 -0.061340027 0.14939657 -0.01466575 0.1573993
0.16790864 0.21837233 -0.10465306 -0.041128054 -0.09809578 -0.041565668 0.17045036 -0.21817361
-0.0641566 -0.09406103 0.20316686 0.24183357 -0.16626154 0.08759853 -0.18002546 0.10284363
-0.14861219 -0.17442034 -0.06735488 -0.047974493 -0.054546155 -0.24352111 -0.08481678 -0.1504992
-0.245833 0.04976086 0.23338255 0.24345733 -0.2621419 0.019999031 -0.11186832 0.044948097
-0.018028792 -0.14097679 0.14826669 -0.14416106 0.18399012 0.012720099 -0.19308735 -0.011212759
0.15381147 -0.21086088 -0.037427723 -0.10236219 -0.09538524 0.23108459 -0.076482065 0.19252148
-0.20479774 -0.26584017 0.25207767 0.23805988 -0.26124752 0.035549417 -0.0094608255 -0.17015615
0.22138411 -0.040698763 0.09662033 -0.06383046 -0.2443531 -0.22311158 0.16322376 0.1753601
0.26205426 0.025418596 -0.12336901 0.12509377 -0.1392832 -0.20111689 0.12575334 0.04585812
-0.0054578767 0.042624053 0.033832286 0.09966264 -0.11756532 -0.102790155 0.22578023 -0.21292229
-0.26974666 -0.16345198 -0.21433419 0.009350104 0.23398122 0.049517985 -0.117425725 0.19120736
0.20928499 -0.13568886 -0.044755805 0.23479962 -0.2212171 0.06582423 -0.13375846 0.076352075
-0.16957217 0.12611124 -0.034605928 -0.07340039 -0.10002947 -0.19043179 -0.03785782 0.16393901
00000000: e362 6d3e 7bd8 663e 3f92 1d3e e925 8fbd
00000010: 5d70 65bd c770 833e 16d8 413e 7cd8 e63d
00000020: 6e03 d2bd c8c7 713e 4c1b 923e 1495 80be
00000030: 415e ad3d af2d 68be c819 163c 50f6 2fbe
00000040: 1133 67be fac8 e5bd 3627 4cbe c000 7a3e
00000050: 18a3 27be 2cf6 393d 9494 51be d9d8 48be
00000060: b08d 81be 4e09 413d 7967 1b3b f797 493e
00000070: 888f d83d d494 003e f576 6b3e d1d4 4fbe
00000080: 62b9 83be c713 febd 2af6 67be fff3 463c
00000090: 6175 21be a868 e0bd fed7 43be 156a 1bbe
000000a0: 92c8 3e3e 76b7 1cbd 0e72 8a3d bff1 54bc
000000b0: bf17 653e 2b42 b43c 9a83 b93d 54f3 11be
000000c0: 8e13 74bd 7f28 b0bd dd3d 733e ae80 64bd
000000d0: 8aa5 503d 9849 9c3c 5819 8c3d 79ca 373e
000000e0: f8e7 65bd c282 54be 1134 d83d b9b1 993d
000000f0: 5b44 87be f24e 18be fe3f 4f3d a8d8 71be
00000100: 0f32 8c3d 4f22 01be d87a 2b3e 1848 213e
00000110: 6f82 5fbe 5844 523e 3d6e 013e 3dd3 7ebe
00000120: ba19 c63d 6c5c f53d 670e b63c d53b 2b3e
00000130: c494 503e 585f 10be b130 153e 30d1 0c3e
00000140: d904 83bd 1bfe 2cbe a33c b43d 8f0e c0bd
00000150: 69be a23c 1c77 5a3e 90c6 8bbc 67a0 69be
00000160: c52d 6abe 3443 54be e893 f13d aa7f 29be
00000170: a488 10be 18ad 403e e814 d7bd b0f0 3ebe
00000180: 3573 21bd 4e8f 84be 2430 203e 5a92 1e3e
00000190: af7a 8ebd 212d 8dbd 8a49 84be d136 6e3e
000001a0: d8f8 a7bc 21a4 5abe 2435 de3d 36bc 2fbe
000001b0: 3eac 6bbe d499 e93b 3b2c 553e 5029 d0bd
000001c0: aa57 aabd 40df 813e 18f6 3fbe 95e5 963d
000001d0: 4dbf 063e 61fc 413e 5629 83be 1d48 03be
000001e0: a98b 1f3e a697 63bd ab84 34be c96b 3a3e
000001f0: d87a 253e edcf c63d c55c 88bd e321 82be
00000200: 0ab0 03be 80e5 7dbe 9efe 993d 8530 6a3d
00000210: 1cbf 193e 3192 803e 4d68 f1bc e23d ce3d
00000220: ef59 6b3e d7ee 07bd 0ee9 9a3d d2b5 48bd
00000230: 662f 80be e718 4a3e 14de 893c 30b9 e4bc
00000240: 3712 83bd 97bf 413e dd93 a6bd 4908 0a3e
00000250: ae3f 7bbd 6afb 183e 9d48 70bc 482d 213e
00000260: 3ef0 2b3e ff9c 5f3e 5854 d6bd e475 28bd
00000270: 71e6 c8bd c340 2abd 8a8a 2e3e e768 5fbe
00000280: 8964 83bd 12a3 c0bd f90a 503e 38a3 773e
00000290: 7740 2abe dc66 b33d 9858 38be ae9f d23d
000002a0: cb2d 18be 3f9b 32be 5bf1 89bd e780 44bd
000002b0: ca6b 5fbd 995d 79be 6cb4 adbd 761c 1abe
000002c0: a5bb 7bbe 0bd2 4b3d d6fb 6e3e e14c 793e
000002d0: 7737 86be 02d5 a33c 381b e5bd 7f1b 383d
000002e0: 1eb1 93bc 385c 10be 39d3 173e f59e 13be
000002f0: e867 3c3e f667 503c b1b8 45be b8b5 37bc
00000300: c180 1d3e eaeb 57be d04d 19bd 45a3 d1bd
00000310: 5659 c3bd 70a1 6c3e a1a2 9cbd 5a24 453e
00000320: 80b6 51be 341c 88be 5310 813e f8c5 733e
00000330: 3cc2 85be 449c 113d 9401 1bbc 6a3d 2ebe
00000340: 84b2 623e bfb3 26bd e1e0 c53d 8bb9 82bd
00000350: b337 7abe 5d77 64be 2124 273e 9991 333e
00000360: fa2b 863e a93a d03c e4a8 fcbd 9518 003e
00000370: 41a0 0ebe 96f1 4dbe 7cc5 003e b9d5 3b3d
00000380: fdd7 b2bb 8f96 2e3d b993 0a3d ed1b cc3d
00000390: 16c6 f0bd a583 d2bd ef32 673e 4d08 5abe
000003a0: 3c1c 8abe f55f 27be 6c7a 5bbe 2e31 193c
000003b0: c698 6f3e 5fd3 4a3d e67c f0bd ddcb 433e
000003c0: ce4e 563e 05f2 0abe dd51 37bd 506f 703e
000003d0: bc86 62be dbce 863d faf7 08be 7a5e 9c3d
000003e0: 54a4 2dbe 4e23 013e f2be 0dbd f252 96bd
000003f0: 40dc ccbd 8d00 43be cd10 1bbd a1df 273e

main.0.bias f4 [64]
-0.16960518 -0.01445051 0.0021539421 -0.2015494 0.09518096 0.0635722 -0.16564508 -0.03255303
0.18967502 0.22877838 -0.2741576 0.11628234 0.019331466 -0.17529994 -0.26049 0.2933045
0.067827135 -0.013908047 0.1077178 0.24632835 0.25407884 0.078173675 0.20778084 -0.14570168
0.03911167 0.19995682 0.1433223 -0.21614537 0.27887678 0.23929553 0.2349809 -0.045433722
-0.10686041 -0.08818756 0.1663292 -0.15517448 0.017122608 0.09107859 -0.019327903 -0.2082712
-0.0053682225 0.25106186 0.23408452 -0.022984084 -0.14005852 -0.17248812 0.1774801 -0.026469577
-0.013564508 -0.08609212 0.048235904 -0.2934907 -0.005599175 -0.08949221 -0.15438145 -0.12339282
-0.17181616 -0.02193177 0.05343012 -0.044154994 -0.10742684 0.07900001 -0.05620373 -0.06814266
00000000: fbac 2dbe d5c1 6cbc 2729 0d3b f762 4ebe
00000010: 3cee c23d 2432 823d dd9e 29be 5356 05bd
00000020: 2b3a 423e e144 6a3e 635e 8cbe 6f25 ee3d
00000030: 065d 9e3c d481 33be f25e 85be 022c 963e
00000040: f4e8 8a3d 94de 63bc 269b dc3d 803d 7c3e
00000050: 9f16 823e 8519 a03d 80c4 543e d232 15be
00000060: 8f33 203d 7bc1 4c3e 15c3 123e 3655 5dbe
00000070: f0c8 8e3e e309 753e d59e 703e b618 3abd
00000080: a1d9 dabd ae9b b4bd 3452 2a3e 0fe6 1ebe
00000090: b644 8c3c 6987 ba3d 8d55 9ebc 0c45 55be
000000a0: eae7 afbb 2e8b 803e dab3 6f3e 1e49 bcbc
000000b0: 806b 0fbe baa0 30be 58bd 353e bad6 d8bc
000000c0: ac3d 5ebc 1151 b0bd 0393 453d 6a44 96be
000000d0: 4979 b7bb b147 b7bd 2c16 1ebe 60b5 fcbd
000000e0: 93f0 2fbe 41aa b3bc 8bd9 5a3d dedb 34bd
000000f0: 9a02 dcbd c2ca a13d e235 66bd 618e 8bbd

main.3.weight f4 [64, 64]
0.040543985 -0.037387602 0.058620043 -0.08756195 -0.06834222 -0.024710182 -0.003893161 -0.009152377
0.063464746 0.07271532 0.07273867 0.092983335 0.020395193 0.06542178 -0.008770224 -0.038384285
0.11312096 0.06725546 -0.08910265 0.04903192 -0.05546736 0.09066535 -0.029208923 0.020625856
0.010232279 0.030032126 -0.021493861 0.080829576 -0.067596674 0.0043000975 -0.055335745 0.052467387
0.063658714 0.062114388 -0.07615146 -0.118171595 -0.059218295 -0.08463404 0.05135687 0.05697709
0.09299667 0.00739703 -0.052565277 -0.025892153 0.0039231633 -0.010379997 0.10352216 0.070479095
-0.082710095 -0.06258096 0.03013551 0.0071099983 -0.087459154 -0.013941351 0.0197173 0.011091373
0.059839774 -0.00060143566 0.038404558 -0.06752857 -0.09021616 0.053111658 -0.05971322 -0.016297545
0.07167277 0.004872172 -0.050768033 -0.028418237 0.040170927 -0.0027531744 0.03320813 0.0008016152
-0.053984985 -0.0151973115 -0.016622394 0.1292815 -0.042207487 -0.057294875 -0.04628646 -0.031630743
0.1095445 0.07656335 0.016101122 -0.04262341 0.077351145 0.0968754 0.09839926 -0.054206148
-0.016576353 -0.057848513 -0.07545929 0.022486823 0.06178394 -0.046511 0.090133 -0.077942386
-0.110291615 -0.013002776 0.0004411516 -0.034068402 0.020182837 -0.06725294 -0.04170595 0.024476433
0.032485027 0.09780116 0.056714594 0.08719931 0.041560423 -0.049205437 0.049707793 0.051786963
-0.057664208 -0.07376973 0.11262864 0.0022071148 0.0703541 0.04527958 0.05827835 -0.062220037
0.088676 0.09005212 0.09834133 -0.05009594 -0.0025685127 0.017192256 0.083597764 0.041299984
-0.031850927 -0.014961963 -0.06962195 -0.058394283 0.020840753 -0.049142335 -0.034454398 -0.0061746817
0.07027866 0.015669014 0.083189815 0.068058915 0.034898143 0.113140866 0.04620121 0.004449289
0.08698213 0.1045627 -0.063367695 -0.0127757 -0.0158598 0.04072698 0.099019654 -0.038641103
-0.013219235 0.075557016 -0.03754967 -0.08479317 0.007965073 0.033285886 0.04535093 0.007040853
-0.02899569 0.037193988 -0.0102252485 -0.07488243 -0.066111855 -0.04833803 -0.02011623 0.0573137
0.057341333 0.0021588611 -0.082172655 -0.028827805 -0.012211721 0.031221474 0.079398505 -0.045715116
0.05348722 0.012018654 0.027809229 -0.008569157 0.10207478 -0.013773428 -0.04991385 -0.079911515
0.0052303835 0.056052253 0.075768776 -0.06637052 -0.08222604 0.02915218 0.04218523 0.053826325
0.069734305 0.094770774 -0.01203507 0.029271461 -0.04646975 0.040185127 -0.05165327 -0.05605747
0.07449071 0.055336416 -0.01923779 0.07424149 -0.030792216 0.06261631 -0.0156642 0.00977249
0.06626163 0.07175178 0.047763936 -0.08177498 -0.058034405 -0.039493427 0.0025131064 -0.053260297
-0.024403343 0.022964593 -0.08192964 -0.027999895 0.061629254 0.07775342 0.06372117 0.11066921
0.06723624 0.061914645 0.032435887 -0.058788702 -0.023334507 0.021562643 -0.06964328 0.116557755
-0.07364425 -0.13426161 -0.022221023 -0.035902206 -0.01187124 -0.054757603 -0.050099425 0.042844843
0.018827844 -0.099570125 0.06326705 0.037494935 -0.07393973 -0.0040813666 0.012682318 -0.08205087
-6.303715e-06 0.110116236 0.034436837 -0.060266286 0.050635975 -0.050078657 0.092158735 0.024348073
00000000: 7311 263d be23 19bd 921b 703d ae53 b3bd
00000010: 01f7 8bbd 026d cabc 6724 7fbb daf3 15bc
00000020: cef9 813d c5eb 943d 03f8 943d 0c6e be3d
00000030: d213 a73c dbfb 853d fcb0 0fbc d738 1dbd
00000040: f6ab e73d 3bbd 893d 737b b6bd b2d5 483d
00000050: be31 63bd c1ae b93d 8d47 efbc 8ef7 a83c
00000060: 4aa5 273c ef05 f63c e513 b0bc fa89 a53d
00000070: 2070 8abd d5e7 8c3b bca7 62bd 0be8 563d
00000080: 805f 823d a86b 7e3d 4cf5 9bbd f303 f2bd
00000090: e28e 72bd 9d54 adbd 955b 523d cf60 693d
000000a0: 0a75 be3d c962 f23b b04e 57bd c81b d4bc
000000b0: e18d 803b dd10 2abc 6d03 d43d 5857 903d
000000c0: e963 a9bd 722a 80bd bfde f63c fdfa e83b
000000d0: c91d b3bd 446a 64bc 2d86 a13c 97b8 353c
000000e0: 8d1a 753d aaa9 1dba 194e 1d3d 6b4c 8abd
000000f0: 40c3 b8bd 9c8b 593d d995 74bd 6e82 85bc
00000100: 2cc9 923d bea6 9f3b 24f2 4fbd 5dcd e8bc
00000110: 458a 243d 9a6e 34bb 4005 083d 7c23 523a
00000120: 5c1f 5dbd 25fe 78bc b02b 88bc 5f62 043e
00000130: c2e1 2cbd 08ae 6abd df96 3dbd 3d8f 01bd
00000140: de58 e03d 3fcd 9c3d 80e6 833c e295 2ebd
00000150: 476a 9e3d 9c66 c63d 8d85 c93d 4407 5ebd
00000160: 22cb 87bc 90f2 6cbd 668a 9abd 4936 b83c
00000170: 2811 7d3d 5182 3ebd a697 b83d 42a0 9fbd
00000180: 92e0 e1bd 9809 55bc 5e4a e739 4f8b 0bbd
00000190: 7a56 a53c e9bb 89bd dcd3 2abd cd82 c83c
000001a0: 050f 053d f94b c83d 904d 683d 8d95 b23d
000001b0: 433b 2a3d a48b 49bd 669a 4b3d 911e 543d
000001c0: 4e31 6cbd 9614 97bd d8a9 e63d 3ea5 103b
000001d0: cf15 903d 1577 393d 47b5 6e3d 70da 7ebd
000001e0: c39b b53d 3f6d b83d 2e67 c93d 6631 4dbd
000001f0: 7e54 28bb c6d6 8c3c 4e35 ab3d 2c2a 293d
00000200: 1e76 02bd 0523 75bc f495 8ebd d82e 6fbd
00000210: 3aba aa3c 7949 49bd 0e20 0dbd fc54 cabb
00000220: 42ee 8f3d 4e5c 803c 6c5f aa3d 7962 8b3d
00000230: 5bf1 0e3d 66b6 e73d 7b3d 3d3d 57cb 913b
00000240: b023 b23d f824 d63d ecc6 81bd 2b51 51bc
00000250: 69ec 81bc 55d1 263d d1ca ca3d 2246 1ebd
00000260: 7e95 58bc a3bd 9a3d afcd 19bd 0ba8 adbd
00000270: f07f 023c c856 083d e6c1 393d f5b6 e63b
00000280: 5f88 edbc b958 183d cd87 27bc f65b 99bd
00000290: a765 87bd 19fe 45bd cbca a4bc c5c1 6a3d
000002a0: bfde 6a3d ae7b 0d3b 234a a8bd 4a28 ecbc
000002b0: ac13 48bc 2dc4 ff3c af9b a23d c63f 3bbd
000002c0: 6a15 5b3d e3e9 443c 2ed0 e33c a665 0cbc
000002d0: 950c d13d f2a9 61bc 7772 4cbd a6a8 a3bd
000002e0: a363 ab3b 0c97 653d a92c 9b3d 44ed 87bd
000002f0: 2066 a8bd 8dd0 ee3c 6bca 2c3d fe78 5c3d
00000300: dcd0 8e3d 2e17 c23d be2e 45bc b4ca ef3c
00000310: 1157 3ebd 2999 243d 6192 53bd 859c 65bd
00000320: 968e 983d 70a8 623d 9298 9dbc ec0b 983d
00000330: f53f fcbc fb3c 803d 3552 80bc cb1c 203c
00000340: 2db4 873d 99f2 923d 1ea4 433d a479 a7bd
00000350: 7cb5 6dbd dcc3 21bd eeb2 243b 7827 5abd
00000360: 85e9 c7bc 3e20 bc3c baca a7bd 0960 e5bc
00000370: f56e 7c3d 2f3d 9f3d 3f80 823d 8aa6 e23d
00000380: 27b3 893d 369a 7d3d 7edb 043d 6ccc 70bd
00000390: 0228 bfbc 24a4 b03c 23a1 8ebd d5b5 ee3d
000003a0: ccd2 96bd e07b 09be dd08 b6bc 310e 13bd
000003b0: 977f 42bc 8249 60bd 0e35 4dbd 137e 2f3d
000003c0: da3c 9a3c 6ceb cbbd 2892 813d 4a94 193d
000003d0: b76d 97bd fcbc 85bb 7fc9 4f3c 490a a8bd
000003e0: 8084 d3b6 9f84 e13d a40d 0d3d c8d9 76bd
000003f0: ab67 4f3d 471f 4dbd b8bd bc3d 9c75 c73c

main.3.bias f4 [64]
0.07912552 -0.1062604 -0.05415809 0.089583986 0.084425114 -0.0581996 0.04340142 -0.09139194
0.053240098 0.0053113545 -0.10877358 -0.04098173 0.013167241 -0.055112626 0.015753252 -0.03893658
0.07331805 -0.10884954 -0.077776246 0.0074075 -0.019711584 -0.077138774 -0.0006223436 0.030559279
0.041916817 -0.078459926 0.044907548 -0.07586061 -0.09353572 0.082099535 0.09760069 -0.038342994
0.004206663 0.047912173 0.025245829 -0.08796728 0.08540465 0.11798374 -0.025831107 -0.11357052
-0.043000806 -0.0027639046 0.0028413697 0.10124009 0.08662416 0.043220688 0.00291824 -0.09206856
0.077871785 -0.029673751 0.02998573 -0.04660504 -0.079918586 -0.025084946 -0.04763398 0.09167721
-0.005850312 0.07319192 -0.10830311 -0.017449176 -0.084015176 0.05231473 -0.054559708 -0.10610803
00000000: 900c a23d 0d9f d9bd e0d4 5dbd cf77 b73d
00000010: 13e7 ac3d b462 6ebd b0c5 313d b32b bbbd
00000020: 4a12 5a3d df0a ae3b afc4 debd 75dc 27bd
00000030: 69bb 573c c7bd 61bd f70c 813c f77b 1fbd
00000040: c627 963d 82ec debd 2749 9fbd 9dba f23b
00000050: 307a a1bc effa 9dbd c624 23ba 7457 fa3c
00000060: f8b0 2b3d 99af a0bd faf0 373d cf5c 9bbd
00000070: a88f bfbd cd23 a83d dfe2 c73d 8b0d 1dbd
00000080: 0cd8 893b 8e3f 443d 57d0 ce3c 3028 b4bd
00000090: a2e8 ae3d 76a1 f13d c29b d3bc a997 e8bd
000000a0: 9d21 30bd a022 35bb 4636 3a3b f756 cf3d
000000b0: 0268 b13d 2d08 313d f13f 3f3b 718e bcbd
000000c0: 3e7b 9f3d 5e16 f3bc a2a4 f53c ede4 3ebd
000000d0: 5bac a3bd f27e cdbc d91b 43bd 43c1 bb3d
000000e0: f9b3 bfbb a5e5 953d 05ce ddbd 93f1 8ebc
000000f0: 2610 acbd f847 563d 007a 5fbd 2b4f d9bd

main.6.weight f4 [64, 64]
0.04898166 0.004849669 -0.0014637384 -0.064814 0.0038176775 0.11818593 -0.11161933 0.06519087
-0.01832801 0.009425561 -0.09086699 -0.03948017 -0.10175564 0.051538732 -0.03600121 0.03244003
-0.11403278 0.00956074 0.016188752 -0.10401478 0.0011040652 0.033299062 -0.13272187 0.045553647
-0.049465384 -0.10096568 -0.06181 0.10096989 0.1080114 0.11695375 0.061709095 0.021408774
-0.07931808 -0.009475684 0.06705854 0.062448654 0.010019927 0.10804786 -0.04638865 0.10096826
-0.024136817 -0.10359871 -0.0645696 -0.05633155 -0.0330608 -0.088371776 -0.026033511 0.11537328
0.112892814 0.006457319 0.0184508 -0.08182201 -0.020619694 -0.040478062 -0.07711613 -0.057594493
0.05732253 -0.04224945 0.048634406 -0.09872788 -0.0901052 0.06594541 0.09053061 0.10387796
-0.05133029 0.095566005 0.023191627 0.10839842 0.098532654 -0.038225938 -0.0028725553 -0.009915205
-0.014557462 0.006020478 -0.10189892 0.026389189 -0.12942801 0.06545965 -0.12141999 -0.05287987
-0.07370724 -0.07870843 0.06865728 0.026800927 0.02748095 0.09627482 0.038873278 0.0381423
-0.052989133 0.094862334 -0.090556376 -4.2270658e-05 -0.060911976 -0.010109614 -0.06835579 -0.003595708
0.09968159 -0.020514691 0.09328584 -0.086315885 -0.08439257 -0.10314203 -0.02209846 0.075607635
0.08239308 0.012982959 -0.006097467 -0.029560057 0.06513694 0.018651243 -0.055472203 -0.030164655
-0.008514533 0.026090126 0.005000934 -0.026680505 0.0882616 0.008750028 0.04887863 0.08292977
0.04167097 -0.05475654 -0.04623842 -0.023982793 0.04049303 0.10766193 0.123889744 0.067329556
-0.024489488 -0.051350188 -0.029552465 0.10961898 -0.057333454 -0.00030227474 -0.059610702 0.055075258
-0.015019603 -0.035249393 0.058294754 0.073761165 0.008104026 0.0897525 0.094655 -0.0022773633
0.044224977 -0.009612506 0.02316774 -0.13928166 -0.07674037 -0.12580314 0.07522694 0.033837624
0.062852606 -0.057550862 -0.06297977 0.034508873 0.003015861 0.1388163 0.13649102 -0.099563114
-0.03323163 0.11401591 -0.04650435 0.07941478 -0.06174764 -0.034107186 0.0520284 -0.03232078
0.1042073 -0.058949526 0.05831244 -0.071432784 -0.003617386 0.09259219 -0.09247616 -0.023729634
-0.05390759 0.10651916 0.037008144 -0.07462661 -0.06381771 -0.036111023 0.016265709 -0.008284483
0.028829236 0.10940332 0.0759257 0.03740222 0.09053603 0.011811939 0.11283937 0.0067769596
0.0038591814 0.060911607 -0.101988174 -0.12146484 -0.08555849 -0.070614666 -0.06277192 -0.005388201
-0.0036329147 -0.077658385 0.13565293 0.05957517 0.06528712 0.0035876017 -0.06591819 0.09748231
-0.05961892 0.046251625 -0.11631365 -0.08484932 0.09292183 0.11763464 -0.054241702 0.08580673
0.03799895 0.025303077 0.035812814 -0.013516051 0.057927474 -0.010793103 0.074475355 0.11657272
-0.022611283 0.12632115 -0.08641313 -0.036580063 0.01367669 -0.096130855 0.052643877 0.08560198
0.052090682 0.09400881 -0.053891666 0.05442732 0.00811366 0.086965 0.037430555 0.03337282
-0.0036182683 -0.07155705 -0.06744631 -0.1047583 -0.042072874 -0.06477951 -0.00681108 0.05166796
0.003190867 -0.025324304 0.068824485 -0.027257472 0.04686358 -0.06616835 0.045901857 -0.07105104
00000000: fea0 483d f9e9 9e3b e9da bfba 34bd 84bd
00000010: 0032 7a3b 770b f23d ad98 e4bd ca82 853d
00000020: 9f24 96bc ab6d 1a3c 7918 babd f5b5 21bd
00000030: 4365 d0bd 471a 533d 0176 13bd d6df 043d
00000040: 058a e9bd a6a4 1c3c 469e 843c b305 d5bd
00000050: 48b6 903a 9964 083d 3ee8 07be 7696 3a3d
00000060: 379c 4abd 18c7 cebd 7c2c 7dbd 4dc9 ce3d
00000070: 1535 dd3d 7385 ef3d adc2 7c3d 7461 af3c
00000080: 8471 a2bd e63f 1bbc fd55 893d 29ca 7f3d
00000090: 9f2a 243c 3248 dd3d 0602 3ebd 72c8 ce3d
000000a0: 93ba c5bc 8f2b d4bd 113d 84bd e9bb 66bd
000000b0: c36a 07bd 43fc b4bd 3b44 d5bc d448 ec3d
000000c0: 5934 e73d eb97 d33b 2226 973c 4c92 a7bd
000000d0: a2ea a8bc 53cc 25bd 10ef 9dbd 34e8 6bbd
000000e0: 07cb 6a3d c20d 2dbd df34 473d d831 cabd
000000f0: 1389 b8bd 630e 873d 1d68 b93d f8bd d43d
00000100: b63f 52bd 1cb8 c33d 5efc bd3c feff dd3d
00000110: 7dcb c93d cd92 1cbd 7b41 3cbb 6273 22bc
00000120: 6c82 6ebc 6e47 c53b 62b0 d0bd 242e d83c
00000130: c788 04be b50f 863d 0bab f8bd 9098 58bd
00000140: d2f3 96bd e331 a1bd 309c 8c3d 9e8d db3c
00000150: bb1f e13c bc2b c53d 9639 1f3d 1a3b 1c3d
00000160: 220b 59bd 2f47 c23d 9f75 b9bd c64b 31b8
00000170: d67e 79bd cba2 25bc 1ffe 8bbd f8a5 6bbb
00000180: dd25 cc3d 6d0e a8bc a50c bf3d 62c6 b0bd
00000190: 03d6 acbd 213c d3bd d407 b5bc 2dd8 9a3d
000001a0: b4bd a83d 7ab6 543c 43cd c7bb ef27 f2bc
000001b0: 8466 853d 7eca 983c d236 63bd de1b f7bc
000001c0: 8a80 0bbc f6ba d53c e0de a33b 1391 dabc
000001d0: 7fc2 b43d 475c 0f3c f534 483d 15d7 a93d
000001e0: 2eaf 2a3d 6548 60bd 7f64 3dbd 9077 c4bc
000001f0: 05dc 253d dc7d dc3d e8b9 fd3d 14e4 893d
00000200: 2e9e c8bc 9354 52bd 0318 f2bc ea7f e03d
00000210: 7cd6 6abd a17a 9eb9 5a2a 74bd 9896 613d
00000220: c814 76bc ab61 10bd 7bc6 6e3d 1810 973d
00000230: c0c6 043c 29d0 b73d 7bda c13d d13f 15bb
00000240: 4025 353d c67d 1dbc 46ca bd3c da9f 0ebe
00000250: 0e2a 9dbd 8ad2 00be 9510 9a3d 5299 0a3d
00000260: deb8 803d 74ba 6bbd 8afb 80bd 2d59 0d3d
00000270: c0a5 453b dc25 0e3e 4dc4 0b3e bfe7 cbbd
00000280: e41d 08bd 2c81 e93d 587b 3ebd 37a4 a23d
00000290: 18eb 7cbd fab3 0bbd bb1b 553d cb62 04bd
000002a0: a36a d53d 0f75 71bd 06d9 6e3d 5a4b 92bd
000002b0: ab11 6dbb f9a0 bd3d 2464 bdbd a664 c2bc
000002c0: 35ce 5cbd b826 da3d da95 173d d6d5 98bd
000002d0: dcb2 82bd 27e9 13bd aa3f 853c a4bb 07bc
000002e0: 4a2b ec3c d90e e03d ef7e 9b3d 1233 193d
000002f0: f46a b93d dd86 413c 5418 e73d 4211 de3b
00000300: 52ea 7c3b 737e 793d 2ddf d0bd 8fc2 f8bd
00000310: 4a39 afbd 6c9e 90bd 908e 80bd 828f b0bb
00000320: 3216 6ebb 5c0b 9fbd 9ae8 0a3e 1805 743d
00000330: 41b5 853d f81d 6b3b 1e00 87bd cea4 c73d
00000340: f832 74bd 5872 3d3d da35 eebd 7bc5 adbd
00000350: cd4d be3d 6eea f03d 8c2c 5ebd 70bb af3d
00000360: c9a4 1b3d 6648 cf3c 75b0 123d 6d72 5dbc
00000370: 5c45 6d3d 8ed5 30bc 8986 983d aebd ee3d
00000380: 4c3b b9bc 555a 013e 5ef9 b0bd fad4 15bd
00000390: 3214 603c 41e0 c4bd 1ba1 573d 1750 af3d
000003a0: 0a5d 553d b187 c03d 82bd 5cbd 2eef 5e3d
000003b0: 28ef 043c b51a b23d c850 193d f0b1 083d
000003c0: 7820 6dbb 818c 92bd 4a21 8abd 858b d6bd
000003d0: 9b54 2cbd 1fab 84bd 7b2f dfbb c8a1 533d
000003e0: dd1d 513b ea74 cfbc daf3 8c3d 104b dfbc
000003f0: 06f4 3f3d 4683 87bd 9603 3c3d 3583 91bd

main.6.bias f4 [64]
-0.039558277 -0.03787967 -0.07072079 -0.04082632 0.003709048 -0.015214086 0.103701934 0.06400325
0.053844932 0.07994428 -0.04856718 -0.046753846 -0.060400765 -0.018173855 -0.05609273 -0.089841895
-0.082167275 0.06969831 -0.012541844 -0.021378329 -0.025196817 -0.03333406 -0.09760955 0.050775155
-0.044319715 0.0035137914 -0.041372888 -0.09047405 -0.08527256 -0.10439428 -0.08463605 -0.09226792
-0.024944456 -0.08356133 0.09998492 0.061357457 0.028693032 -0.112606354 0.07428085 -0.060436938
0.029226592 -0.1280197 -0.09732337 0.08725067 -0.0009032981 -0.09911567 -0.082336746 0.064356364
0.035167765 0.03611379 -0.082052834 0.053826835 -0.05717477 -0.017329466 -0.07092729 -0.009243741
-0.024218673 -0.029369874 0.075110495 -0.09323299 0.13202131 0.077129446 -0.02636957 -0.06873404
00000000: dc07 22bd b627 1bbd 10d6 90bd 8039 27bd
00000010: 8013 733b 8044 79bc ae61 d43d 2314 833d
00000020: 818c 5c3d d4b9 a33d 61ee 46bd f680 3fbd
00000030: cb66 77bd 56e1 94bc 7ec1 65bd 07ff b7bd
00000040: 5147 a8bd fdbd 8e3d 4e7c 4dbc 9b21 afbc
00000050: 8e69 cebc 4c89 08bd 84e7 c7bd 9cf9 4f3d
00000060: 9788 35bd a347 663b 9e76 29bd 754a b9bd
00000070: 61a3 aebd abcc d5bd aa55 adbd f7f6 bcbd
00000080: 5158 ccbc 3422 abbd e5c4 cc3d f551 7b3d
00000090: a60d eb3c 299e e6bd 8f20 983d b98c 77bd
000000a0: 9b6c ef3c 9917 03be 7a51 c7bd 7bb0 b23d
000000b0: 4fcb 6cba 28fd cabd 2ba0 a8bd 45cd 833d
000000c0: 130c 103d 0eec 133d 510b a8bd 8779 5c3d
000000d0: 1730 6abd 86f6 8dbc 5442 91bd 0f73 17bc
000000e0: 3d66 c6bc 1799 f0bc 88d3 993d f0f0 bebd
000000f0: 9830 073e 0bf6 9d3d ff04 d8bc 6fc4 8cbd

main.9.weight f4 [64, 64]
0.05882189 0.010535714 -0.108562484 -0.005211018 -0.029370574 -0.04186694 -0.048119444 0.06282931
-0.018147111 -0.10106487 -0.008635893 -0.061345052 -0.039117143 0.044810086 -0.020450197 0.07016086
-0.1517054 0.07643893 -0.13002354 0.090932116 0.069747195 -0.07235777 -0.0043174373 0.021540884
-0.12789895 -0.06757219 0.09149648 -0.050656818 0.010884146 -0.05259652 -0.088700645 0.0367053
-0.036054756 -0.021333858 0.08793734 -0.094148226 0.06817885 0.021937668 0.046221457 -0.029057208
-0.010769184 0.06682226 -0.033389788 -0.07433107 -0.051483683 0.047554255 0.024028348 0.090176664
-0.02320232 0.023634959 0.027114965 -0.098064855 -0.040048953 0.08833901 -0.013438102 0.0013981214
-0.0096356105 0.11019765 0.119140536 -0.059760477 -0.050671555 0.026298888 -0.070279755 -0.111319974
-0.031334102 -0.11545018 -0.08329048 0.080790155 -0.07496209 0.0033944584 -0.050602484 0.060317922
0.0020838531 -0.118612915 0.028839393 0.04171411 -0.06762996 0.09915901 0.0018417796 0.012455972
0.06654497 -0.044843584 0.07251979 0.104834706 0.022598047 -0.033225447 0.10864712 0.076974146
0.026597181 -0.078023665 -0.08390285 -0.020039562 -0.0109310355 -0.09009648 -0.05151805 -0.008595712
-0.09625809 0.06585943 -0.021917444 0.060747024 -0.040261183 -0.09169076 0.012160227 -0.06402579
0.0038588587 0.08199064 0.04860572 -0.08412542 0.07132881 -0.039627712 -0.028989533 -0.10887856
-0.06881897 0.05742885 -0.051102016 -0.038085885 0.073959544 -0.1037019 0.13275947 -0.013384598
0.085890524 -0.09928495 -0.0041141827 -0.06938379 -0.059334684 -0.042930335 0.09135109 -0.062133472
0.01612869 0.05833538 0.13460584 -0.017892327 -0.08864923 0.12208289 -0.007862089 -0.06958861
0.06292096 0.026778301 0.071777284 0.024380947 -0.063256964 0.082962885 0.08616239 0.057025343
-0.09440969 -0.026415944 0.047726985 -0.1264668 0.007601579 0.01450643 0.047958527 -0.029071249
-0.008186034 -0.06413338 0.05104697 -0.03254286 -0.07396947 -0.038574755 -0.07116208 0.018569252
0.046551604 -0.0045221206 0.13552679 0.05823405 -0.06583389 0.07208823 -0.018481223 0.052688275
0.06381166 -0.077044405 -0.04356478 0.057440586 0.08319908 -0.09511417 -0.116128534 0.033302203
-0.03247608 -0.09087409 0.03599712 -0.06731877 0.08213115 0.014577092 0.05786344 -0.030273553
0.007922089 -0.083338656 0.0024872215 -0.066728026 0.0029411307 -0.0007863589 -0.09172803 0.034734022
0.07020522 -0.03848787 -0.102754064 -0.06402704 -0.043486457 -0.027462335 0.10257063 0.012556709
-0.080168895 -0.086847536 -0.066973396 0.019922355 0.062805526 -0.12542225 0.015652286 0.07957549
-0.031032009 -0.05173115 0.052959457 -0.10538647 -0.014691558 0.03816965 0.032383136 0.042686023
-0.03391186 -0.018260598 0.011890395 -0.050819326 -0.039747585 0.051486727 0.051150855 0.11285426
0.059741113 0.09240454 -0.023727193 -0.074746855 0.14469966 0.053147864 -0.012255714 -0.066956714
0.07685769 0.05606869 0.087212585 -0.08070585 0.121637404 -0.00979429 -0.083756685 0.07845798
0.025719602 -0.004001082 0.06998304 -0.09475378 -0.053101145 -0.0045113396 0.05889217 0.0057394193
-0.12829043 0.07122269 -0.0753018 0.040051825 0.09940417 0.07543966 0.0205517 0.023453925
00000000: 39ef 703d fd9d 2c3c 0256 debd 30c1 aabb
00000010: 8f9a f0bc ab7c 2bbd e518 45bd a7ac 803d
00000020: 40a9 94bc 19fb cebd 907d 0dbc f344 7bbd
00000030: 4c39 20bd c88a 373d 2c87 a7bc 7fb0 8f3d
00000040: a958 1bbe 048c 9c3d e424 05be 9e3a ba3d
00000050: 9ed7 8e3d 4f30 94bd 4a79 8dbb 8276 b03c
00000060: f1f7 02be 4a63 8abd 8262 bb3d 867d 4fbd
00000070: 6b53 323c 736f 57bd afa8 b5bd 4c58 163d
00000080: 27ae 13bd 58c4 aebc 7e18 b43d c9d0 c0bd
00000090: 5aa1 8b3d a0b6 b33c b652 3d3d 6209 eebc
000000a0: 3b71 30bc 1cda 883d bbc3 08bd e33a 98bd
000000b0: 8ee0 52bd 40c8 423d 19d7 c43c 8bae b83d
000000c0: cb12 bebc 1a9e c13c 3420 de3c 3ad6 c8bd
000000d0: 5f0a 24bd 15eb b43d 7c2b 5cbc 2b41 b73a
000000e0: aede 1dbc 4eaf e13d f4ff f33d 67c7 74bd
000000f0: fa8c 4fbd c470 d73c d5ee 8fbd bafb e3bd
00000100: 3058 00bd 2571 ecbd 3394 aabd 4f75 a53d
00000110: b985 99bd 9075 5e3b 8d44 4fbd ed0f 773d
00000120: 4191 083b 54eb f2bd 9740 ec3c 6adc 2a3d
00000130: 9481 8abd e113 cb3d de67 f13a 2214 4c3c
00000140: bb48 883d e8ad 37bd 4185 943d 94b3 d63d
00000150: 8a1f b93c 6817 08bd 6282 de3d 9fa4 9d3d
00000160: 55e2 d93c dfca 9fbd 42d5 abbd 022a a4bc
00000170: 1618 33bc 8184 b8bd 9704 53bd 07d5 0cbc
00000180: f622 c5bd 4fe1 863d 368c b3bc dfd1 783d
00000190: e9e8 24bd 5dc8 bbbd b03b 473c f41f 83bd
000001a0: e8e4 7c3b b5ea a73d cb16 473d f349 acbd
000001b0: d714 923d ab50 22bd 757b edbc b9fb debd
000001c0: f6f0 8cbd 843a 6b3d 5950 51bd f2ff 1bbd
000001d0: 1a78 973d a961 d4bd 19f2 073e 134b 5bbc
000001e0: 5fe7 af3d e855 cbbd 44d0 86bb 1719 8ebd
000001f0: ed08 73bd b8d7 2fbd 4816 bb3d ab7f 7ebd
00000200: 5120 843c 14f1 6e3d 1dd6 093e ee92 92bc
00000210: ba8d b5bd 9806 fa3d fecf 00bc 7984 8ebd
00000220: b4dc 803d 2b5e db3c f8ff 923d 8dba c73c
00000230: de8c 81bd 72e8 a93d e875 b03d 6893 693d
00000240: de59 c1bd 4066 d8bc 5f7d 433d 8380 01be
00000250: ab16 f93b 61ac 6d3c 2970 443d d426 eebc
00000260: b71e 06bc 5d58 83bd a116 513d a94b 05bd
00000270: 4e7d 97bd 9000 1ebd 6dbd 91bd 8b1e 983c
00000280: e5ac 3e3d 4c2e 94bb 89c7 0a3e d486 6e3d
00000290: ebd3 86bd fea2 933d ef65 97bc a9cf 573d
000002a0: b0af 823d 75c9 9dbd fc70 32bd d246 6b3d
000002b0: 4764 aa3d 38cb c2bd ccd4 edbd e467 083d
000002c0: a305 05bd 321c babd b771 133d 6cde 89bd
000002d0: 6034 a83d c1d4 6e3c 3702 6d3d 3e00 f8bc
000002e0: a6cb 013c 75ad aabd a700 233b b4a8 88bd
000002f0: fcbf 403b a723 4eba e8db bbbd 4345 0e3d
00000300: c1c7 8f3d 75a5 1dbd b970 d2bd 9c20 83bd
00000310: db1e 32bd b1f8 e0bc 8d10 d23d a8ba 4d3c
00000320: 972f a4bd 1fdd b1bd 5929 89bd 3534 a33c
00000330: 2fa0 803d b16e 00be 3939 803c 79f8 a23d
00000340: d736 febc 0be4 53bd 04ec 583d ddd4 d7bd
00000350: dcb4 70bc c757 1c3d 2ea4 043d 8ad7 2e3d
00000360: 2ae7 0abd 4097 95bc eecf 423c ed27 50bd
00000370: 5dce 22bd bfe3 523d 8f83 513d 2220 e73d
00000380: 19b3 743d 973e bd3d 885f c2bc e114 99bd
00000390: 262c 143e 93b1 593d 31cc 48bc 9a20 89bd
000003a0: 9167 9d3d 48a8 653d 839c b23d 1c49 a5bd
000003b0: 081d f93d 3b78 20bc a088 abbd 94ae a03d
000003c0: eab1 d23c 821b 83bb 4553 8f3d 450e c2bd
000003d0: 9680 59bd dcd3 93bb eb38 713d bd11 bc3b
000003e0: 915e 03be 34dd 913d d537 9abd 620d 243d
000003f0: 6a94 cb3d 1c80 9a3d 0a5c a83c 7222 c03c

main.9.bias f4 [64]
-0.06004312 0.015985342 -0.0071797874 -0.03831235 -0.06108782 -0.06150701 -0.045180656 -0.050712846
0.0014500553 0.025635669 -0.085071824 0.05311833 -6.130582e-05 0.01237192 -0.05595932 0.0032836092
0.05347475 0.06183534 -0.027789138 -0.06005691 0.020715972 -0.029636003 -0.021508755 0.036122933
-0.052446406 0.055644028 -0.0103321355 0.10059354 -0.031963117 -0.03349592 0.014947033 0.02557911
-0.014738853 -0.082913056 -0.006887553 0.047451004 -0.0034763243 0.07047278 -0.03114501 0.05744775
0.06673877 -0.014246688 -0.06496 0.06711163 0.013199162 -0.013453411 -0.012344599 -0.018247312
-0.04996846 0.011833427 0.011415379 -0.014062647 0.058645584 -0.041389044 0.01495643 0.045164622
-0.036631126 0.07382904 -0.029793678 0.056606352 0.05330375 -0.054463558 -0.07074536 0.079748124
00000000: c6ef 75bd b1f3 823c 6c44 ebbb 69ed 1cbd
00000010: 3937 7abd c6ee 7bbd 5a0f 39bd 46b8 4fbd
00000020: c80f be3a e501 d23c 233a aebd 9b92 593d
00000030: 5091 80b8 98b3 4a3c 9a35 65bd d231 573b
00000040: 5708 5b3d 0e47 7d3d 0ca6 e3bc 3cfe 75bd
00000050: 8bb4 a93c 34c7 f2bc 2133 b0bc a4f5 133d
00000060: 0bd2 56bd feea 633d 1e48 29bc fc03 ce3d
00000070: c2eb 02bd 0533 09bd 66e4 743c 488b d13c
00000080: 3b7b 71bc 52ce a9bd fbb0 e1bb fc5b 423d
00000090: 0bd3 63bb 0854 903d d223 ffbc 554e 6b3d
000000a0: 56ae 883d f16a 69bc c009 85bd d371 893d
000000b0: 4c41 583c b26b 5cbc 0041 4abc 637b 95bc
000000c0: baab 4cbd fde0 413c 9207 3b3c 0467 66bc
000000d0: 5a36 703d 8f87 29bd d00b 753c 8afe 383d
000000e0: 850a 16bd ae33 973d df11 f4bc 10dc 673d
000000f0: 0855 5a3d 2e15 5fbd f1e2 90bd fc52 a33d
