models/VANE_node_pred_n2v_model/Generator_epoch_9.pth (torch, 55791 bytes, 8 tensors)

main.0.weight f4 [64, 10]
0	0x3e5c8da4	0.21538407
1	0x3e529385	0.20564087
2	0x3e12a9ee	0.14322636
3	0xbd998cb4	-0.0749754
4	0xbd6fb10b	-0.05851845
5	0x3e7c826b	0.24659126
6	0x3e38a865	0.18032987
7	0x3dd7d550	0.10538733
8	0xbdbd8052	-0.09252991
9	0x3e63a9de	0.22232768
10	0x3e8cb025	0.27478138
11	0xbe7f3ba3	-0.24925093
12	0x3da69bfb	0.0813522
13	0xbe65e5b8	-0.22450912
14	0xbb0467b9	-0.0020203425
15	0xbe2925aa	-0.16518274
16	0xbe64c4f4	-0.22340757
17	0xbdf34786	-0.118788764
18	0xbe43f75f	-0.19137333
19	0x3e72c30d	0.23707218
20	0xbe22745d	-0.15864702
21	0x3d312901	0.043251995
22	0xbe4f6b1d	-0.20255704
23	0xbe3c6b16	-0.18400225
24	0xbe7a8b81	-0.24467279
25	0x3d3a2cb7	0.0454528
26	0x3b9f1ad4	0.004855493
27	0x3e4591d0	0.19293904
28	0x3dc25f78	0.094908655
29	0x3dfdfcef	0.12401759
30	0x3e5ff98f	0.21872543
31	0xbe4bce03	-0.19902806
32	0xbe7e4eec	-0.24834794
33	0xbdf61f9e	-0.12017749
34	0xbe63aa24	-0.22232872
35	0x3ba5306a	0.005041172
36	0xbe151f25	-0.14562662
37	0xbde8dc8b	-0.1137019
38	0xbe3a9ec4	-0.18224627
39	0xbe1f7faf	-0.15576051
40	0x3e3a6578	0.1820277
41	0xbd053235	-0.032518584
42	0x3d7004a2	0.05859817
43	0xbca50150	-0.020142227
44	0x3e598f8f	0.2124617
45	0x3c73b848	0.014875479
46	0x3dc84de6	0.09780483
47	0xbe0a443f	-0.13502596
48	0xbd6c09ef	-0.05762666
49	0xbdb40d88	-0.087916434
50	0x3e61d47c	0.22053713
51	0xbd5939e8	-0.05303374
52	0x3d2b3ea0	0.04180777
53	0x3c8ae0d2	0.016952906
54	0x3d9a3f5d	0.07531617
55	0x3e2bdc80	0.16783333
56	0xbd326fd6	-0.043563686
57	0xbe4ba42c	-0.19886845
58	0x3dc265c1	0.09492064
59	0x3d8a2195	0.067446865
60	0xbe807d33	-0.2509552
61	0xbe111f5e	-0.14172122
62	0x3d60cf86	0.05488541
63	0xbe66743e	-0.2250528
64	0x3d8308de	0.06398176
65	0xbe0156a1	-0.12630703
66	0x3e2274c6	0.15864858
67	0x3e1b5d75	0.1517237
68	0xbe52e9cc	-0.20596999
69	0x3e4756f0	0.19466758
70	0x3dfb36b1	0.12266291
71	0xbe763a06	-0.24045572
72	0x3dc41873	0.09574976
73	0x3e037d0c	0.1284067
74	0x3cb69842	0.022289399
75	0x3e1b818c	0.15186137
76	0x3e3f89c1	0.18704893
77	0xbe0837dc	-0.13302559
78	0x3e1146ba	0.14187136
79	0x3dfd5b89	0.123709746
80	0xbd692f4c	-0.05692987
81	0xbe294642	-0.16530707
82	0x3d993e3b	0.07482573
83	0xbdbece43	-0.09316685
84	0x3ca36e6e	0.019950118
85	0x3e5ecc17	0.21757542
86	0xbc5939ff	-0.013258456
87	0xbe5f0919	-0.21780814
88	0xbe68fd9c	-0.22752994
89	0xbe4d1b94	-0.20030051
90	0x3dfeb705	0.12437252
91	0xbe1b91d8	-0.15192354
92	0xbe0ecb05	-0.13944633
93	0x3e3a63b8	0.18202102
94	0xbdba7766	-0.09104805
95	0xbe3c8e72	-0.18413714
96	0xbcdd0382	-0.026979212
97	0xbe7e926a	-0.2486054
98	0x3e10856c	0.14113396
99	0x3e19f55b	0.15035002
100	0xbd7ac325	-0.06122126
101	0xbd9557e8	-0.072921574
102	0xbe7f08c8	-0.24905694
103	0x3e619e5b	0.22033064
104	0xbc738f13	-0.0148656545
105	0xbe539fa1	-0.20666362
106	0x3de7301b	0.11288472
107	0xbe2b47a1	-0.16726543
108	0xbe60ecaa	-0.2196528
109	0x3afed911	0.0019443353
110	0x3e526157	0.20544945
111	0xbdc5d388	-0.09659487
112	0xbdac5734	-0.0841507
113	0x3e7e8140	0.24853992
114	0xbe3b69fe	-0.18302152
115	0x3d89bc51	0.06725372
116	0x3df4dde1	0.119563825
117	0x3e35e028	0.1776129
118	0xbe7e2faf	-0.24822877
119	0xbdee9356	-0.11649196
120	0x3e130759	0.14358272
121	0xbd5b35b5	-0.053518016
122	0xbe2a3d0e	-0.16624853
123	0x3e2eeb8e	0.17082044
124	0x3e1faf2c	0.15594167
125	0x3dd0341a	0.101661876
126	0xbd8bcb4d	-0.06825886
127	0xbe81fe18	-0.2538917
128	0xbe0112e4	-0.12604862
129	0xbe7768ef	-0.24161123
130	0x3d94baab	0.072621666
131	0x3d59d0bc	0.05317758
132	0x3e1bbb83	0.15208249
133	0x3e7d48d1	0.24734809
134	0xbcf59015	-0.02997593
135	0x3dcb952d	0.099405624
136	0x3e5ea3e0	0.21742201
137	0xbd2065ee	-0.039159708
138	0x3da7f4ce	0.0820099
139	0xbd25fd2f	-0.040524658
140	0xbe764895	-0.24051125
141	0x3e3cef61	0.18450691
142	0x3c8f4e28	0.017493322
143	0xbd25cd55	-0.040479023
144	0xbd6f5234	-0.058428004
145	0x3e3c04a1	0.18361141
146	0xbd8f9896	-0.07011525
147	0x3e0b75e1	0.13619186
148	0xbd74d3f5	-0.05977245
149	0x3e0f4240	0.13990116
150	0xbc5348d0	-0.012895778
151	0x3e29cb9d	0.16581579
152	0x3e26a4c2	0.16273788
153	0x3e5d3e23	0.21605735
154	0xbdce9e00	-0.1008873
155	0xbd2d4887	-0.042305496
156	0xbdc51815	-0.09623734
157	0xbd2469fd	-0.04014014
158	0x3e28fcd0	0.1650269
159	0xbe52c727	-0.20583783
160	0xbd8d3df2	-0.06896581
161	0xbda22e45	-0.079189815
162	0x3e4d640d	0.20057698
163	0x3e75f460	0.24019003
164	0xbe1dc13f	-0.15405749
165	0x3db5d8b2	0.08879222
166	0xbe36eb54	-0.17863208
167	0x3dc62f82	0.0967703
168	0xbe17d927	-0.14828931
169	0xbe2ea346	-0.17054471
170	0xbd9228be	-0.07136677
171	0xbd30323c	-0.043016657
172	0xbd475324	-0.048663273
173	0xbe74c7e1	-0.23904373
174	0xbd9f6121	-0.07782198
175	0xbe1b45e5	-0.15163381
176	0xbe787586	-0.24263582
177	0x3d629ba8	0.055324227
178	0x3e68e134	0.22742158
179	0x3e6bbeee	0.23022053
180	0xbe81dae2	-0.25362307
181	0x3caa8954	0.020817436
182	0xbdfa2ce4	-0.122155935
183	0x3d3507ee	0.044197015
184	0xbcc73dd5	-0.024321476
185	0xbe071f3d	-0.1319551
186	0x3e1b36d6	0.15157637
187	0xbe1137e9	-0.14181484
188	0x3e2faec7	0.17156516
189	0x3c8f9bff	0.01753044
190	0xbe3d6250	-0.18494534
191	0xbb8a2c49	-0.004216705
192	0x3e1775bf	0.1479101
193	0xbe4fed27	-0.2030531
194	0xbcdeda13	-0.027203595
195	0xbdce9c26	-0.10088377
196	0xbdb1b875	-0.086777605
197	0x3e65ac0f	0.22428916
198	0xbd9fc97e	-0.078021035
199	0x3e4504c2	0.19240096
200	0xbe469d33	-0.19395904
201	0xbe863a7e	-0.262165
202	0x3e7aac19	0.24479713
203	0x3e7000ea	0.23437849
204	0xbe826ebc	-0.2547511
205	0x3d29cecf	0.041456994
206	0xbb62d649	-0.0034612587
207	0xbe255f29	-0.16149582
208	0x3e5c8e22	0.21538594
209	0xbcf79103	-0.030220514
210	0x3db9c4b8	0.09070724
211	0xbd9a33ad	-0.075293876
212	0xbe77d52e	-0.24202415
213	0xbe603bb3	-0.21897773
214	0x3e293f9e	0.16528174
215	0x3e278d93	0.163626
216	0x3e85a2fe	0.26100916
217	0x3cc4e324	0.02403409
218	0xbdfd1ae2	-0.12358643
219	0x3dfd5917	0.12370508
220	0xbe03774c	-0.12838477
221	0xbe45a519	-0.19301261
222	0x3deb2a83	0.11482718
223	0x3d5d2503	0.053990375
224	0x35da3a40	1.6259219e-06
225	0x3d371c2d	0.044704605
226	0x3d3d84cb	0.04626922
227	0x3dc6a035	0.09698526
228	0xbdf58e71	-0.11990059
229	0xbdbd9ff6	-0.09259026
230	0x3e62a56a	0.22133413
231	0xbe546250	-0.20740628
232	0xbe89f2e4	-0.26943123
233	0xbe2bbbe1	-0.16770889
234	0xbe4c2c79	-0.1993884
235	0x3c0c301a	0.00855639
236	0x3e6eb859	0.2331251
237	0x3d33654e	0.043797784
238	0xbdf0f09b	-0.11764642
239	0x3e3a6566	0.18202743
240	0x3e4f925b	0.20270674
241	0xbe04cd52	-0.12968948
242	0xbd2c64a4	-0.042088166
243	0x3e6d5677	0.23177515
244	0xbe50b92c	-0.20383137
245	0x3d62626d	0.055269647
246	0xbdfa60b8	-0.12225479
247	0x3da792c6	0.08182292
248	0xbe2caeda	-0.16863576
249	0x3df5c712	0.1200086
250	0xbd15d452	-0.036579438
251	0xbd6b08c7	-0.057381418
252	0xbdc377fc	-0.095443696
253	0xbe2b0e72	-0.16704729
254	0xbccfc77c	-0.025363676
255	0x3e26469a	0.1623787

main.0.bias f4 [64]
0	0xbe32d451	-0.17463805
1	0xbc726e3c	-0.01479679
2	0x3c243b94	0.01002397
3	0xbe4a47cf	-0.19753955
4	0x3db649cc	0.089007944
5	0x3d2f19a8	0.042749077
6	0xbe2af05f	-0.16693257
7	0xbcd493ae	-0.025949325
8	0x3e4045b8	0.18776596
9	0x3e645cd2	0.22301033
10	0xbe844fe9	-0.25842217
11	0x3dba725f	0.09103846
12	0x3caa8852	0.020816956
13	0xbe26e1a7	-0.16297017
14	0xbe7d6610	-0.24745965
15	0x3e8d65c3	0.276167
16	0x3d81c7ee	0.06336962
17	0xbc0c0d9a	-0.008548165
18	0x3dcd9910	0.1003896
19	0x3e6e95d8	0.23299348
20	0x3e7b5f74	0.24548131
21	0x3d85b2d6	0.06528251
22	0x3e543705	0.20724113
23	0xbe078598	-0.13234556
24	0x3d39df0b	0.045378726
25	0x3e3db295	0.18525155
26	0x3e0d3a24	0.1379171
27	0xbe60b9ed	-0.21945925
28	0x3e8c2380	0.27370834
29	0x3e703d55	0.23460896
30	0x3e6df399	0.23237456
31	0xbd3306af	-0.043707546
32	0xbdc83dd9	-0.097774215
33	0xbdd810ad	-0.10550056
34	0x3e173c23	0.14769034
35	0xbe120b9e	-0.14262244
36	0x3c480d3d	0.0122101875
37	0x3da3b45a	0.07993384
38	0xbbe0694a	-0.006848489
39	0xbe45e680	-0.1932621
40	0x3bae6a89	0.0053227586
41	0x3e6c4669	0.23073734
42	0x3e659162	0.2241874
43	0xbcac7312	-0.021050964
44	0xbe09e2cb	-0.13465421
45	0xbe2de4ec	-0.16981858
46	0x3e332137	0.17493139
47	0xbcb87db2	-0.022520874
48	0xbbed730b	-0.00724638
49	0xbda9d97c	-0.08293435
50	0x3d1bedf6	0.038068734
51	0xbe90fcb9	-0.28317812
52	0xbc963a14	-0.01833824
53	0xbdb7dfd5	-0.089782394
54	0xbe25898c	-0.16165751
55	0xbde82f9d	-0.113372065
56	0xbe2b44f9	-0.1672553
57	0xbd007b5b	-0.03136764
58	0x3d49e618	0.0492917
59	0xbd8a94aa	-0.06766637
60	0xbdce4178	-0.10071081
61	0x3d910ec9	0.07082898
62	0xbd70e75d	-0.058814395
63	0xbda03e1e	-0.07824348

main.3.weight f4 [64, 64]
0	0x3d10ec4a	0.035381593
1	0xbd06048b	-0.032719176
2	0x3d61b76c	0.055106565
3	0xbdc6b568	-0.09702569
4	0xbd656b6d	-0.056010652
5	0xbc9d6152	-0.019211445
6	0xbbd49b14	-0.0064882133
7	0xbc4a6eaf	-0.012355491
8	0x3d964cae	0.07338844
9	0x3d9fd63c	0.07804534
10	0x3d7d60a8	0.061859757
11	0x3dc81199	0.097689815
12	0x3ccb2a07	0.024800314
13	0x3d6140c0	0.05499339
14	0xbc9969ff	-0.0187273
15	0xbce81173	-0.028328633
16	0x3dee63c0	0.116401196
17	0x3d818c99	0.06325645
18	0xbdaf47c2	-0.085586086
19	0x3d6d760f	0.057973918
20	0xbd440193	-0.047853064
21	0x3dc1c86a	0.09462054
22	0xbc8d2732	-0.017230604
23	0x3c3b01d1	0.011414007
24	0x3c36db0a	0.011160621
25	0x3d20da18	0.03927049
26	0xbc681020	-0.014164001
27	0x3d955c74	0.07293025
28	0xbd759296	-0.05995425
29	0x3c484a90	0.012224808
30	0xbd3fe0ef	-0.046845373
31	0x3d509bc7	0.05092981
32	0x3d6a722a	0.05723778
33	0x3d776557	0.06039938
34	0xbd855d93	-0.065119885
35	0xbdf98a35	-0.12184564
36	0xbd6d67f4	-0.057960466
37	0xbda6eae2	-0.08150269
38	0x3d33c35c	0.04388748
39	0x3d3c02ac	0.045900986
40	0x3daa0613	0.0830194
41	0x3c8c8d08	0.017157093
42	0xbd34eea5	-0.0441729
43	0xbceaad18	-0.02864699
44	0xbb1c82a0	-0.002388157
45	0xbc92692f	-0.017872421
46	0x3de495ca	0.111613825
47	0x3d84da6a	0.06486972
48	0xbdaa9abf	-0.08330297
49	0xbd8d64cb	-0.0690399
50	0x3d1203e7	0.035648253
51	0xbae6666a	-0.0017578129
52	0xbdba0e0c	-0.090847105
53	0xbc93d94a	-0.018047947
54	0x3c50a8a1	0.012735517
55	0x3b40821f	0.0029374433
56	0x3d56fd54	0.052487686
57	0xbb15ffbd	-0.0022888028
58	0x3d1ec0ac	0.038757965
59	0xbd8b1962	-0.06791951
60	0xbdc15037	-0.09439128
61	0x3d6ec573	0.05829377
62	0xbd85637b	-0.06513115
63	0xbc9b44fe	-0.018953796
64	0x3da0d83c	0.078537434
65	0x3c117444	0.008877818
66	0xbd2b78e3	-0.041863333
67	0xbcd05739	-0.025432216
68	0x3cea8618	0.028628394
69	0xbba4496e	-0.0050136363
70	0x3d1cfba4	0.03832592
71	0x3b7157bf	0.0036825982
72	0xbd84b6aa	-0.06480153
73	0xbc9dcf27	-0.019263817
74	0xbc6f2285	-0.014595632
75	0x3df1a469	0.11798937
76	0xbd6e0dc8	-0.05811861
77	0xbd4df6a1	-0.05028403
78	0xbd1eb24f	-0.038744267
79	0xbd17451b	-0.03693114
80	0x3dd88f88	0.105742514
81	0x3db7e4d4	0.089791924
82	0x3c256e63	0.010097119
83	0xbd2a47be	-0.041572325
84	0x3d9aabfa	0.07552333
85	0x3daf485c	0.08558723
86	0x3db9aebd	0.09066532
87	0xbd4c3787	-0.049857643
88	0xbc81617e	-0.015793558
89	0xbd75e5ff	-0.060033794
90	0xbda31253	-0.079624794
91	0x3d0083cc	0.03137569
92	0x3d6db038	0.058029383
93	0xbd470f3d	-0.048598517
94	0x3daeb03f	0.0852971
95	0xbd9e1e6d	-0.07720647
96	0xbdc4b441	-0.09604693
97	0xbc43e3e5	-0.01195619
98	0xbbc9e05a	-0.006160778
99	0xbd012900	-0.03153324
100	0x3c52f4ac	0.012875717
101	0xbd8614a8	-0.065469086
102	0xbd19801f	-0.0374757
103	0x3d09e9f8	0.033670396
104	0x3ce2cc96	0.027685445
105	0x3dbbae9e	0.09164165
106	0x3d561acb	0.052271646
107	0x3db43e2e	0.08800922
108	0x3d474fe2	0.048660167
109	0xbd293a6d	-0.041315485
110	0x3d41aa28	0.047281414
111	0x3d5f8171	0.054566804
112	0xbd5ce815	-0.05393227
113	0xbd966ff2	-0.073455706
114	0x3dd0a768	0.1018818
115	0x3c036a9e	0.008021025
116	0x3d8c7c48	0.06859642
117	0x3d42e617	0.047582712
118	0x3d84f0f6	0.06491272
119	0xbd644258	-0.055727333
120	0x3dbce81e	0.0922396
121	0x3dc01a39	0.093800016
122	0x3dca000f	0.098632924
123	0xbd2eab3e	-0.042643778
124	0xba06f0c5	-0.0005147572
125	0x3c54d1aa	0.012989441
126	0x3dae54bf	0.08512258
127	0x3d1f293c	0.038857684
128	0xbd036374	-0.032077268
129	0xbca88311	-0.02057031
130	0xbd8f31b6	-0.069919035
131	0xbd747e9d	-0.05969106
132	0x3c599568	0.01328025
133	0xbd2ec6b9	-0.042669985
134	0xbd2a8447	-0.041630056
135	0xbc441e95	-0.011970182
136	0x3d811600	0.06303024
137	0x3c843d8b	0.016142627
138	0x3da121a8	0.078677475
139	0x3d7a5ce7	0.061123755
140	0x3cb987c9	0.022647755
141	0x3deb0586	0.11475663
142	0x3d37698d	0.044778395
143	0x3c4346f5	0.011918773
144	0x3db802f1	0.08984936
145	0x3de1e5c3	0.11030152
146	0xbd7a5442	-0.06111551
147	0xbc2ca929	-0.010538378
148	0xbc0e9894	-0.00870337
149	0x3cb79b36	0.022412878
150	0x3dc25f56	0.0949084
151	0xbd54a0ca	-0.051911153
152	0xbc550002	-0.01300049
153	0x3d955ca4	0.072930604
154	0xbd1f10f0	-0.038834512
155	0xbd9c5acc	-0.07634506
156	0x3bb0025c	0.005371375
157	0x3d15f143	0.03660704
158	0x3d28540a	0.04109577
159	0xbb7cfc0b	-0.0038602378
160	0xbce215c0	-0.027598262
161	0x3cdf2c5f	0.027242837
162	0xbc4f1688	-0.012639649
163	0xbda71769	-0.08158762
164	0xbd996c06	-0.07491307
165	0xbd4bf183	-0.04979087
166	0xbca90372	-0.020631526
167	0x3d748338	0.059695452
168	0x3d67dec0	0.056608915
169	0x3bec020f	0.007202394
170	0xbda28c9a	-0.07936974
171	0xbc024c5e	-0.007952778
172	0xbb367316	-0.0027839593
173	0x3cf301f8	0.029664025
174	0x3da14081	0.07873631
175	0xbd3b0d38	-0.045666903
176	0x3d56f256	0.052477203
177	0x3c34bed1	0.011031822
178	0x3c6da8b8	0.014505558
179	0xbc1c90a6	-0.009555971
180	0x3de0800a	0.109619215
181	0xbc652608	-0.013986118
182	0xbd48598c	-0.048913524
183	0xbd95e27f	-0.07318591
184	0x3bbe59d9	0.0058090505
185	0x3d72d853	0.059288334
186	0x3daee8a8	0.085404694
187	0xbd73b66e	-0.05950015
188	0xbd79d0ac	-0.06099002
189	0x3cb3b9a6	0.02193911
190	0x3d34b43b	0.044117194
191	0x3d5a3636	0.053274356
192	0x3d933bf3	0.07189169
193	0x3dbe4f2e	0.09292446
194	0xbc870ca0	-0.016485512
195	0x3d00e4fa	0.03146837
196	0xbd3b02fd	-0.045657147
197	0x3d0b3cb4	0.033993438
198	0xbd3ae481	-0.045628075
199	0xbd566d34	-0.052350238
200	0x3d963eab	0.07336172
201	0x3d44f216	0.048082434
202	0xbc3fd51e	-0.011708526
203	0x3d8e40b1	0.06945933
204	0xbccc5150	-0.024941117
205	0x3d8ad026	0.067779824
206	0xbc1deef9	-0.009639495
207	0x3bc42a6f	0.005986504
208	0x3d7a9188	0.061173946
209	0x3d80b393	0.06284251
210	0x3d43744b	0.047718327
211	0xbdb2733a	-0.08713384
212	0xbd7b7a56	-0.061395966
213	0xbd29fe75	-0.041502435
214	0xbb002614	-0.0019553946
215	0xbd56c3f2	-0.05243296
216	0xbd017301	-0.031603817
217	0x3c781c37	0.015143446
218	0xbdace9ac	-0.08443007
219	0xbca32045	-0.019912848
220	0x3d5806ca	0.05274085
221	0x3d906d4e	0.07052098
222	0x3d67cf30	0.056594074
223	0x3ddfb91c	0.10923979
224	0x3d8d6832	0.06904639
225	0x3d8312bf	0.0640006
226	0x3cc3a9b9	0.023884641
227	0xbd64f165	-0.055894274
228	0xbc5da7fb	-0.013528819
229	0x3c5c0a09	0.013430127
230	0xbd84ebbf	-0.064902775
231	0x3df5b87c	0.11998078
232	0xbd8b2fe1	-0.067962416
233	0xbe0bd222	-0.13654378
234	0xbcf7ee2c	-0.030264936
235	0xbd0a993f	-0.033837553
236	0xbb9626f9	-0.0045822826
237	0xbd4dd4c4	-0.050251737
238	0xbd5ca2c4	-0.053866163
239	0x3d2788ef	0.040902074
240	0x3ca1082d	0.019657219
241	0xbdbc9aa4	-0.09209183
242	0x3d6c4ef1	0.057692472
243	0x3d3149c9	0.043283258
244	0xbd8e9023	-0.06961086
245	0xbc1cade2	-0.009562941
246	0x3c935739	0.017985927
247	0xbda36fc6	-0.079803035
248	0x3ba65d55	0.005077044
249	0x3de21dc9	0.11040837
250	0x3cf38899	0.02972822
251	0xbd6249ae	-0.055246048
252	0x3d50f7e4	0.051017657
253	0xbd59b8f4	-0.0531549
254	0x3dbe07ed	0.092788555
255	0x3cd98f89	0.0265577

main.3.bias f4 [64]
0	0x3dba7933	0.09105148
1	0xbde79a8b	-0.113087736
2	0xbd5c770d	-0.053824473
3	0x3da98f82	0.08279325
4	0x3daf3cd6	0.085565254
5	0xbd62c4c5	-0.055363435
6	0x3cf17fe7	0.029479934
7	0xbdb7c39b	-0.08972856
8	0x3d387424	0.045032635
9	0x3c4f3754	0.012647469
10	0xbdea2d8d	-0.11434469
11	0xbd1bcfa0	-0.038039804
12	0x3c793496	0.015210291
13	0xbd492ca6	-0.049114846
14	0x3bcc22be	0.0062297275
15	0xbd37a112	-0.044831343
16	0x3d967c46	0.07347922
17	0xbdd8d34b	-0.10587176
18	0xbd994875	-0.07484523
19	0x3c014c97	0.007891796
20	0xbbbce6a2	-0.0057647983
21	0xbd870b27	-0.06593924
22	0xbb5ceb37	-0.0033709535
23	0x3d74a54f	0.059727963
24	0x3d4e3c76	0.05035063
25	0xbd72c72d	-0.05927198
26	0x3d23796f	0.03991073
27	0xbd611412	-0.05495078
28	0xbdbfb150	-0.093599916
29	0x3dafcfb0	0.08584535
30	0x3db131bb	0.086520635
31	0xbcfc544a	-0.03080191
32	0x3cd85ed0	0.026412398
33	0x3d435840	0.047691584
34	0x3d35d316	0.04439076
35	0xbdc33fb1	-0.095336325
36	0x3db6af7c	0.0892019
37	0x3deedf1d	0.11663649
38	0xbc7eed14	-0.0155594535
39	0xbde7fe7b	-0.11327835
40	0xbd3974fa	-0.045277573
41	0x3c02a1a0	0.007973105
42	0xbca79c93	-0.020460403
43	0x3dc14ffe	0.094390854
44	0x3db81635	0.08988611
45	0x3d3c0736	0.045905314
46	0x3bc7a3e9	0.0060925377
47	0xbdc4f5d6	-0.09617202
48	0x3d90547b	0.07047363
49	0xbd467a73	-0.04845662
50	0x3cd5d6fa	0.026103485
51	0xbd225856	-0.039635025
52	0xbd8cb204	-0.06869891
53	0xbcd56289	-0.026047962
54	0xbd50c165	-0.050965685
55	0x3dc6ce05	0.09707264
56	0xbb3a7a06	-0.002845408
57	0x3d93294f	0.07185613
58	0xbdef65ab	-0.116893135
59	0xbc9999f3	-0.018750167
60	0xbdc56548	-0.096384585
61	0x3d65b004	0.056076065
62	0xbd236282	-0.039888866
63	0xbdd3c827	-0.103409104

main.6.weight f4 [64, 64]
0	0x3d938115	0.07202355
1	0xbba27f47	-0.0049590203
2	0x3b659873	0.0035033494
3	0xbd691416	-0.05690392
4	0xbbaf862a	-0.00535657
5	0x3de113b8	0.10990089
6	0xbe05fcf0	-0.13084769
7	0x3d97e05f	0.07415842
8	0xbd04a579	-0.03238437
9	0x3b827028	0.003980655
10	0xbdd2a7fa	-0.10285945
11	0xbcb0207c	-0.021499865
12	0xbde8e4c0	-0.113717556
13	0x3d255014	0.04035957
14	0xbd56909f	-0.052384015
15	0x3d443076	0.04789778
16	0xbdeaddcd	-0.114680864
17	0x3b3f3546	0.002917604
18	0x3c3046c9	0.010759064
19	0xbde88463	-0.11353376
20	0x3b5f4ec6	0.0034074052
21	0x3c71b429	0.014752426
22	0xbe0074b2	-0.12544516
23	0x3da688b4	0.08131543
24	0xbcb62e16	-0.022238772
25	0xbda7417e	-0.081667885
26	0xbd7a11a8	-0.061051995
27	0x3e01195e	0.12607333
28	0x3dc39ad1	0.09551013
29	0x3e089c3d	0.1334085
30	0x3da005ba	0.07813592
31	0x3c88515a	0.016640354
32	0xbd4452ea	-0.047930636
33	0x3c17800c	0.009246837
34	0x3d4f524d	0.050615598
35	0x3d6761d7	0.05648979
36	0x3c9065b1	0.017626615
37	0x3deb97ef	0.115035884
38	0xbce47cb6	-0.027891498
39	0x3d9b3dc7	0.075801425
40	0xbcc82118	-0.024429843
41	0xbde517f7	-0.111862116
42	0xbdaf5cd2	-0.08562626
43	0xbd519249	-0.0511649
44	0xbcedcd26	-0.029028486
45	0xbdb91c2f	-0.09038579
46	0xbcf5a3b1	-0.02998528
47	0x3dea1718	0.11430186
48	0x3decd8ee	0.115648136
49	0x3bcc5e2e	0.006236813
50	0x3c010626	0.007875001
51	0xbd900db1	-0.070338614
52	0xbc68def6	-0.014213314
53	0xbd4daf4d	-0.050216008
54	0xbdaf1c08	-0.085502684
55	0xbd24b35f	-0.040210124
56	0x3d5d90b9	0.054093096
57	0xbd23e995	-0.040017683
58	0x3d6c778f	0.057731207
59	0xbdb367b4	-0.08760014
60	0xbdaa9131	-0.08328474
61	0x3d8f38df	0.06993269
62	0x3db5c2db	0.08875056
63	0x3e02a4f7	0.12758242
64	0xbcfd02ff	-0.030885218
65	0x3d9b868c	0.07594022
66	0x3ce2814e	0.027649548
67	0x3deb933a	0.115026906
68	0x3dbf5622	0.093426004
69	0xbd3fc828	-0.046821743
70	0xbb7e582c	-0.0038809879
71	0xbcc30c99	-0.023809718
72	0xbca5429c	-0.020173363
73	0x3a3baa87	0.00071588944
74	0xbde42ba4	-0.11141136
75	0x3cf97c40	0.030454755
76	0xbe20c715	-0.15700944
77	0x3d4dd0a4	0.050247803
78	0xbdec4d47	-0.11538177
79	0xbd197658	-0.037466377
80	0xbd8a88f2	-0.067644015
81	0xbddde0a8	-0.108338654
82	0x3da45bba	0.08025308
83	0x3d00f3b3	0.03148241
84	0x3d0fde47	0.03512409
85	0x3d9446ac	0.07240042
86	0x3d6052d5	0.054766495
87	0x3cedcb3a	0.02902757
88	0xbd79327e	-0.06083917
89	0x3daaf2d0	0.08347094
90	0xbda79beb	-0.08184036
91	0x3b1956b5	0.0023397629
92	0xbd990160	-0.074709654
93	0x3c1e888c	0.00967611
94	0xbd864770	-0.06556594
95	0x3c0082f6	0.0078437235
96	0x3da46d5b	0.080286704
97	0xbc2ca337	-0.01053696
98	0x3d8c2cc2	0.068444744
99	0xbdb6643f	-0.08905839
100	0xbdaa72a9	-0.08322651
101	0xbdb29125	-0.0871909
102	0xbb21ebb3	-0.0024707138
103	0x3d4e008a	0.050293483
104	0x3d882130	0.06646955
105	0xbb13ba47	-0.002254145
106	0x3a41a286	0.00073865836
107	0xbbd02c7e	-0.00635296
108	0x3d86fe75	0.065915026
109	0x3cc8d406	0.024515163
110	0xbcd81643	-0.026377803
111	0xbd0a7d33	-0.033810806
112	0xbb1fcb34	-0.0024382593
113	0x3ca5f7e6	0.020259809
114	0x3c1bfa65	0.009520148
115	0xbc92e69b	-0.017932227
116	0x3da51b0c	0.080617994
117	0x3bf9eaa3	0.007626848
118	0x3d4c4c70	0.049877584
119	0x3dce4c89	0.10073192
120	0x3d2df326	0.042468213
121	0xbd5e5979	-0.054284547
122	0xbd0cc302	-0.03436566
123	0xbd0e24d0	-0.034703076
124	0x3d5f4d9a	0.054517366
125	0x3ddf86ef	0.109144084
126	0x3df18a0c	0.117939085
127	0x3d999412	0.07498945
128	0xbd1f3e3b	-0.038877707
129	0xbd89a49a	-0.067208484
130	0xbca00f4a	-0.01953854
131	0x3dcf168a	0.10111721
132	0xbd80dae0	-0.06291747
133	0x3bc451d0	0.005991198
134	0xbd7a4d06	-0.06110861
135	0x3d288cf1	0.041150037
136	0xbcc2b857	-0.02376954
137	0xbd2e7920	-0.042595983
138	0x3d4360bf	0.047699686
139	0x3d7d6b55	0.061869938
140	0x3bb06733	0.005383396
141	0x3ddbee04	0.10738757
142	0x3dc304e5	0.09522418
143	0x3ce724a4	0.028215714
144	0x3d14eab6	0.03635665
145	0x3c34584d	0.011007381
146	0x3c706348	0.014672108
147	0xbe1a17ba	-0.15048113
148	0xbd8a6e3f	-0.06759309
149	0xbdf51d98	-0.11968535
150	0x3db4a6b7	0.08820861
151	0x3d2ed4a6	0.042683266
152	0x3d92b876	0.071640894
153	0xbce82211	-0.028336557
154	0xbd4bb6b8	-0.0497348
155	0x3ca87647	0.020564212
156	0xbc1c4a00	-0.009539127
157	0x3df945e8	0.12171537
158	0x3e04a6bd	0.1295423
159	0xbda4c982	-0.08046247
160	0x3d065cf9	0.03280351
161	0x3df4ee12	0.11959471
162	0xbd29f056	-0.041488968
163	0x3d92e2e9	0.07172186
164	0xbd9d51d7	-0.07681625
165	0xbd19fee8	-0.037596613
166	0x3d31181a	0.043235876
167	0xbce600b1	-0.028076502
168	0x3db26443	0.0871053
169	0xbd479579	-0.048726533
170	0x3cf97c6d	0.030454839
171	0xbd3d2873	-0.046181154
172	0x3ce1a449	0.027544158
173	0x3db71fd1	0.089416154
174	0xbddf52e5	-0.10904483
175	0xbd36a2d5	-0.044588882
176	0xbd87b5d5	-0.066264786
177	0x3d8f8217	0.070072345
178	0x3d052dba	0.03251431
179	0xbd8cd585	-0.06876663
180	0xbd4d9a5f	-0.050196048
181	0xbd35284a	-0.044227876
182	0x38ad76a8	8.271384e-05
183	0xbc0ee968	-0.008722641
184	0x3c804f04	0.015662678
185	0x3dd7903d	0.10525558
186	0x3d7a61c9	0.06112841
187	0x3d4b4657	0.04962763
188	0x3d864fc5	0.065581836
189	0x3be53f87	0.0069960984
190	0x3dcfff61	0.101561315
191	0xbb831b82	-0.004001082
192	0xbbf99905	-0.0076171183
193	0x3da50a52	0.08058609
194	0xbdb4cf7e	-0.088286385
195	0xbdf65860	-0.12028575
196	0xbd59003b	-0.052978735
197	0xbd8c4353	-0.068487786
198	0xbd8442db	-0.06458064
199	0xbcd4dd5d	-0.02598446
200	0xb9938204	-0.00028134894
201	0xbdb50468	-0.08838731
202	0x3e0670d2	0.13128975
203	0x3d807c57	0.06273716
204	0x3d94f7bb	0.07273813
205	0x3be4c7b9	0.0069818166
206	0xbd8b6b1b	-0.06807538
207	0x3dbe2d58	0.092859924
208	0xbd0b452b	-0.03400151
209	0x3cfe3f99	0.031036185
210	0xbdff03d2	-0.124519005
211	0xbd982696	-0.07429235
212	0x3db5307b	0.088471375
213	0x3df144ce	0.117807016
214	0xbd4967aa	-0.049171127
215	0x3d8b10db	0.06790324
216	0x3c826ac6	0.015920054
217	0x3c3f395f	0.011671393
218	0x3d356c9f	0.044293042
219	0xbc9be031	-0.019027801
220	0x3d61b2c2	0.055102117
221	0xbc76984b	-0.015050958
222	0x3d920c13	0.07131209
223	0x3df81f06	0.12115292
224	0x3beb00bd	0.007171719
225	0x3dff1cc3	0.12456658
226	0xbd90b816	-0.070663616
227	0xbd404462	-0.046940215
228	0x3c481ecc	0.012214374
229	0xbdca590b	-0.09880265
230	0x3d47eeee	0.048811845
231	0x3da1606a	0.07879718
232	0x3ce997f7	0.028514845
233	0x3dde154c	0.10843906
234	0xbd920df2	-0.07131566
235	0x3d2f7588	0.042836696
236	0x3c51820e	0.012787355
237	0x3da88707	0.082288794
238	0x3d0a5fb7	0.033782687
239	0x3c4a8200	0.012360096
240	0xbbf39e3d	-0.007434635
241	0xbda47708	-0.08030516
242	0xbd6c5a63	-0.057703387
243	0xbdcd3062	-0.10018994
244	0xbcf79159	-0.030220674
245	0xbd6ad820	-0.05733502
246	0x3c1e516b	0.009662966
247	0x3d30c2f5	0.043154676
248	0x3a41305c	0.0007369572
249	0xbb9feca7	-0.004880506
250	0x3d838a44	0.064228565
251	0xbd2eb17c	-0.04264973
252	0x3d0f567c	0.034994587
253	0xbd7566c4	-0.059912458
254	0x3d0a3304	0.03374006
255	0xbda13c65	-0.078728475

main.6.bias f4 [64]
0	0xbca3885e	-0.019962486
1	0xbcb4c664	-0.022067256
2	0xbd98afc2	-0.07455398
3	0xbd46f95d	-0.048577655
4	0xbcc5ab51	-0.024129542
5	0xbc379fe3	-0.011207554
6	0x3dd3678e	0.10322486
7	0x3d1d70e1	0.038437728
8	0x3cf42628	0.02980335
9	0x3dac2b2d	0.084066726
10	0xbd3f6598	-0.046727747
11	0xbd48c488	-0.04901555
12	0xbd31073d	-0.043219794
13	0xbcecf851	-0.028927
14	0xbd3c8415	-0.0460244
15	0xbd9d9567	-0.07694512
16	0xbdc65c69	-0.096855946
17	0x3d6e1c6e	0.05813258
18	0xbca99cbf	-0.020704625
19	0xbcff5434	-0.03116808
20	0xbcadb73d	-0.021205539
21	0xbd0cdfad	-0.034393
22	0xbdd49944	-0.103807956
23	0x3d21b3d0	0.039478123
24	0xbd59da87	-0.05318692
25	0x3a978962	0.0011561329
26	0xbd45296a	-0.0481352
27	0xbdb042ce	-0.08606492
28	0xbdcc8a1a	-0.09987278
29	0xbdb1f66c	-0.08689579
30	0xbdb038ab	-0.086045586
31	0xbda13222	-0.0787089
32	0xbd0587f2	-0.03260035
33	0xbd958485	-0.07300667
34	0x3de2e2b1	0.11078394
35	0x3d42ddf4	0.047574952
36	0x3cec78fb	0.028866282
37	0xbdc758c9	-0.09733731
38	0x3d8301ad	0.06396804
39	0xbd665e87	-0.056242492
40	0x3cd43e70	0.025908679
41	0xbe009a41	-0.12558843
42	0xbdb0d5b0	-0.08634508
43	0x3daa94f7	0.08329194
44	0x3c2f8e0d	0.01071502
45	0xbdd27d93	-0.10277858
46	0xbd9f531c	-0.07779524
47	0x3d86a707	0.06574827
48	0x3cae9411	0.021310838
49	0x3d06c18f	0.032899436
50	0xbd925276	-0.071446344
51	0x3d59eacc	0.053202435
52	0xbd8b7d5d	-0.068110205
53	0xbc74a2ec	-0.014931422
54	0xbd7e774a	-0.06212548
55	0xbbb5d738	-0.0055493377
56	0xbd2eebba	-0.042705275
57	0xbcb8a075	-0.02253745
58	0x3d9a50cf	0.07534944
59	0xbdcd1b42	-0.10014965
60	0x3df3eefc	0.11910817
61	0x3dbf13c2	0.093299404
62	0xbcbda9df	-0.02315229
63	0xbd75a105	-0.059968013

main.9.weight f4 [64, 64]
0	0x3d5f3c09	0.054500613
1	0x3b5ec866	0.0033993958
2	0xbdb6c14c	-0.08923587
3	0xbc24d98c	-0.010061633
4	0xbd03dc9c	-0.03219281
5	0xbd2613ac	-0.040546104
6	0xbd3f4205	-0.04669382
7	0x3d58b70e	0.05290895
8	0xbc84c3e9	-0.016206698
9	0xbda905cf	-0.08253061
10	0xbc0f2ab4	-0.008738209
11	0xbd8dfda7	-0.06933146
12	0xbd321321	-0.043475274
13	0x3d631c54	0.055446938
14	0xbcddfdb2	-0.02709851
15	0x3d92bbe7	0.07164746
16	0xbe0ffaca	-0.14060512
17	0x3d9b268e	0.07575713
18	0xbe0121a9	-0.12610497
19	0x3db79969	0.089648075
20	0x3d90631b	0.07050153
21	0xbd98cddb	-0.07461139
22	0xb9c6330e	-0.00037803542
23	0x3c2f0444	0.010682169
24	0xbe05d519	-0.13069572
25	0xbd8cc98c	-0.068743795
26	0x3da3f491	0.08005632
27	0xbd4d36b4	-0.050100997
28	0x3c88f899	0.016720103
29	0xbd40bbee	-0.047054224
30	0xbdbea797	-0.09309309
31	0x3d0b03ce	0.033939175
32	0xbd361b3c	-0.044459566
33	0xbce532da	-0.02797835
34	0x3dbc4cb2	0.09194316
35	0xbdb08482	-0.08619024
36	0x3d89d9e6	0.06731014
37	0x3cbd2c02	0.023092274
38	0x3d1095d6	0.035299145
39	0xbcf83f18	-0.030303523
40	0xbbae3d79	-0.0053173867
41	0x3d6bd345	0.05757453
42	0xbd6f2d31	-0.058392707
43	0xbda6aaff	-0.08138084
44	0xbd3b2575	-0.04569002
45	0x3d0dcb44	0.034617677
46	0x3c9d6538	0.019213304
47	0x3d8fe21f	0.07025551
48	0xbcbfe0da	-0.023422647
49	0x3d0e0747	0.03467491
50	0x3c83d952	0.016094837
51	0xbdb22dc7	-0.087001376
52	0xbd12d492	-0.035847254
53	0x3dda33ab	0.10654386
54	0xbcf98c50	-0.030462414
55	0x3bdba290	0.0067027286
56	0xbc470987	-0.012148268
57	0x3df15824	0.117843896
58	0x3dfa4444	0.12220052
59	0xbd8305cd	-0.06397591
60	0xbd4721d0	-0.04861623
61	0x3c419002	0.011814119
62	0xbd7d1b8a	-0.06179384
63	0xbdcf0cd8	-0.101098716
64	0xbd2af150	-0.04173404
65	0xbddce6c7	-0.10786205
66	0xbdb44e4b	-0.08803996
67	0x3db9754c	0.09055576
68	0xbd9a0d64	-0.07522085
69	0xbb478258	-0.003044268
70	0xbd6ffdde	-0.058591716
71	0x3d7baaf6	0.061442338
72	0x3c3f1b41	0.011664213
73	0xbe1c0e68	-0.1523987
74	0x3cc07338	0.02349244
75	0x3d45e9da	0.04831872
76	0xbd9e78a0	-0.07737851
77	0x3dbdd22a	0.09268601
78	0xbb678b97	-0.0035331005
79	0x3ca773ce	0.020440962
80	0x3da0a407	0.07843786
81	0xbce403c5	-0.027833829
82	0x3d98bdf7	0.07458108
83	0x3d9c32ab	0.07626852
84	0x3d398697	0.04529437
85	0xbd1912eb	-0.037371557
86	0x3dd12817	0.10212725
87	0x3d97ea51	0.07417739
88	0x3cab7223	0.020928448
89	0xbd893e61	-0.06701351
90	0xbd983b70	-0.07433212
91	0xbc5b6b49	-0.013392278
92	0xbb968d0c	-0.004594451
93	0xbdb81be4	-0.08989695
94	0xbd5d1b93	-0.053981375
95	0xbbcc4149	-0.0062333685
96	0xbda3fce0	-0.080072165
97	0x3d9b727a	0.07590194
98	0xbcbd10c2	-0.02307928
99	0x3d3bfec6	0.045897268
100	0xbd37a7c1	-0.044837717
101	0xbd9a2620	-0.07526803
102	0x3c9ffaf9	0.019528853
103	0xbd024ede	-0.031813495
104	0xbbe899ec	-0.007098427
105	0x3dc0231f	0.09381699
106	0x3d868914	0.06569114
107	0xbd7b04c4	-0.06128384
108	0x3d8bed20	0.068323374
109	0xbc0c465c	-0.008561697
110	0xbd18e3e6	-0.037326716
111	0xbdf28539	-0.118418165
112	0xbd655f63	-0.05599917
113	0x3d3da662	0.046301253
114	0xbd13fd8e	-0.03613048
115	0xbcef59e1	-0.029217662
116	0x3daf7538	0.085672796
117	0xbde117be	-0.109908566
118	0x3e23eb92	0.16007832
119	0xbcf8d41f	-0.030374585
120	0x3da48609	0.08033378
121	0xbdd85208	-0.10562521
122	0x3c2377a8	0.009977259
123	0xbd89165b	-0.06693717
124	0xbd85fee9	-0.06542761
125	0xbd05750d	-0.03258233
126	0x3dbd48b8	0.092423856
127	0xbd6330a2	-0.0554663
128	0x3c60d80d	0.0137233855
129	0x3dcff483	0.10154059
130	0x3dbd6522	0.09247805
131	0xbbbe3ea3	-0.0058058067
132	0xbdc6ab38	-0.09700626
133	0x3dee1f52	0.116270676
134	0xbc159c46	-0.009131497
135	0xbdd35555	-0.1031901
136	0x3d4ee615	0.050512392
137	0x3cf0dac4	0.02940119
138	0x3d6b6356	0.05746778
139	0x3d25c086	0.040466808
140	0xbca5040d	-0.020143533
141	0x3d78c9e2	0.060739405
142	0x3dd6b549	0.10483796
143	0x3d837ddf	0.064204924
144	0xbdc0cf26	-0.094145104
145	0xbc3bbc9d	-0.011458543
146	0x3d2eabaa	0.04264418
147	0xbe1cd81d	-0.15316816
148	0x3c1418ce	0.009039117
149	0x3c899b72	0.016797755
150	0x3d022ca5	0.031780858
151	0xbd9e62cf	-0.0773369
152	0xbb84e987	-0.004056159
153	0xbd865ee0	-0.06561065
154	0x3d6537eb	0.05596153
155	0xbcd2dff8	-0.025741562
156	0xbda7f6db	-0.08201381
157	0xbd1ea398	-0.038730234
158	0xbd8894f4	-0.066690356
159	0x3c2757c5	0.010213797
160	0x3d41a6a8	0.047278076
161	0xbb29c9fe	-0.002590775
162	0x3e08148c	0.13289088
163	0x3d56e0a7	0.05246034
164	0xbd432ec0	-0.047652006
165	0x3d989b2c	0.07451472
166	0xbc5aa04c	-0.013343882
167	0x3da1cf31	0.07900847
168	0x3d4d48ef	0.050118383
169	0xbd6fae1e	-0.05851566
170	0xbd3a1292	-0.045427866
171	0x3d92b068	0.07162553
172	0x3dbaaca8	0.09114963
173	0xbda605a9	-0.08106548
174	0xbde74435	-0.11292306
175	0x3ced1615	0.028941194
176	0xbd09b3a7	-0.033618595
177	0xbdbeedb8	-0.09322685
178	0x3cb01ee9	0.021499114
179	0xbd1a2634	-0.03763409
180	0x3da280cd	0.07934723
181	0x3ca0e53c	0.019640557
182	0x3d353fee	0.04425042
183	0xbcdf7974	-0.027279593
184	0xbd0a154c	-0.033711717
185	0xbdbd8e42	-0.09255649
186	0x3c804592	0.015658174
187	0xbd89e606	-0.067333266
188	0xbc0a586b	-0.008443932
189	0x3cee12ef	0.029061763
190	0xbdac9969	-0.08427698
191	0x3c5847cf	0.013200714
192	0x3da09c11	0.07842267
193	0xbd4ebeeb	-0.050475042
194	0xbdc64734	-0.0968155
195	0xbda42eb1	-0.08016718
196	0xbd8a334d	-0.06748066
197	0xbc97b7cc	-0.018520258
198	0x3df4b96e	0.119494304
199	0x3c19d6f1	0.009389625
200	0xbdb0dc63	-0.086357854
201	0xbd660b60	-0.05616319
202	0xbd95c1e4	-0.07312372
203	0x3c8f7d01	0.017515661
204	0x3d8bf0e3	0.06833055
205	0xbe09e0a9	-0.13464607
206	0x3c3ef0e0	0.011654109
207	0x3d8eb0ff	0.06967353
208	0xbd6eafca	-0.058273114
209	0xbd2e6f9a	-0.0425869
210	0x3d562ea8	0.05229059
211	0xbdc8dae9	-0.09807379
212	0xbcd1ff37	-0.025634391
213	0x3cde4437	0.027132137
214	0x3ca0e2b9	0.01963936
215	0x3d40f95a	0.0471128
216	0xbd57e7c2	-0.052711256
217	0xbccc3605	-0.024928102
218	0x3c6332ad	0.0138670625
219	0xbd97ac37	-0.07405894
220	0xbd80acd8	-0.06282967
221	0x3d1e1bd8	0.038600773
222	0x3d0f09e3	0.034921538
223	0x3dd5454b	0.10413607
224	0x3d249bda	0.040187694
225	0x3d8bb6c9	0.06821973
226	0xba27dd68	-0.00064035365
227	0xbd914cd8	-0.07094735
228	0x3e1e5828	0.15463316
229	0x3d19b615	0.037527163
230	0xbc932f77	-0.017966969
231	0xbdaaf9ca	-0.08348425
232	0x3db08ecf	0.086209886
233	0x3cfb882e	0.030704584
234	0x3d91dac0	0.071218014
235	0xbd8ccc56	-0.068749115
236	0x3e03c966	0.12869796
237	0xbc86ae7a	-0.016440619
238	0xbdce821f	-0.100834124
239	0x3d88460b	0.06653985
240	0x3ce0fb4d	0.02746358
241	0x3cae0aa1	0.021245303
242	0x3d9f5f59	0.07781858
243	0xbd9b13cc	-0.07572135
244	0xbd674835	-0.056465346
245	0x3b80399f	0.003913119
246	0x3d3af8af	0.04564732
247	0x3cad1702	0.021129135
248	0xbe0f4b47	-0.1399356
249	0x3db673d9	0.08908815
250	0xbd5ca9ae	-0.053872757
251	0x3cc84000	0.02444458
252	0x3ddb541c	0.10709402
253	0x3db59d67	0.08867913
254	0x3cdfc9d5	0.02731792
255	0x3c2b555c	0.010457363

main.9.bias f4 [64]
0	0xbd6b4b24	-0.057444707
1	0x3c322a15	0.010874291
2	0xbbb29e0e	-0.0054509705
3	0xbc386a5c	-0.011255827
4	0xbd4fd4e7	-0.05074015
5	0xbd9d49db	-0.076801024
6	0xbd23a6be	-0.03995394
7	0xbd6699ee	-0.056299143
8	0x3ad50688	0.0016252557
9	0x3c8ccbee	0.017187085
10	0xbda6f598	-0.08152312
11	0x3d430ce9	0.047619734
12	0x3b4d1f1e	0.0031299065
13	0xba5f1a5f	-0.00085107045
14	0xbd3d0168	-0.04614392
15	0x3c76518a	0.015034089
16	0x3d49bf2f	0.049254593
17	0x3d0345d2	0.032049008
18	0xbcbe5d49	-0.023237841
19	0xbd3e4246	-0.046449922
20	0xbbdaa444	-0.006672414
21	0xbca90d9e	-0.020636376
22	0xbc5f13e2	-0.01361558
23	0x3c4639cb	0.01209874
24	0xbd8543aa	-0.065070465
25	0x3d5c6e88	0.05381635
26	0xbc788e92	-0.01517071
27	0x3d9d969d	0.07694743
28	0xbd5b93cf	-0.053607758
29	0xbd0917e4	-0.03347005
30	0x3bf06220	0.007335916
31	0x3cb8d5af	0.02256283
32	0xbcbdf2d2	-0.023187075
33	0xbdb1746c	-0.08664784
34	0x3a3481ff	0.0006885826
35	0x3d6167e8	0.055030733
36	0x3c3499c1	0.011022986
37	0x3d338767	0.0438303
38	0xbc02a913	-0.007974881
39	0x3d93e68f	0.0722171
40	0x3d843f83	0.064574264
41	0xbc8d6a6d	-0.017262662
42	0xbd5768d9	-0.052590225
43	0x3d84da08	0.06486899
44	0x3c6d04c6	0.01446647
45	0xbb52965c	-0.0032133078
46	0xbc21f820	-0.009885818
47	0xbcf221fc	-0.02955722
48	0xbd2ea9cb	-0.042642396
49	0x3c3cc957	0.011522613
50	0x3cbddd1e	0.023176726
51	0xbbb036f8	-0.0053776465
52	0x3d804dec	0.062648624
53	0xbd802582	-0.06257154
54	0xbc3f7448	-0.011685438
55	0x3d1cf21c	0.03831683
56	0xbcc486e5	-0.023990104
57	0x3dae436b	0.08508953
58	0xbd15a200	-0.03653145
59	0x3d3d44fd	0.04620837
60	0x3d83b6fc	0.06431386
61	0xbd17deb0	-0.037077606
62	0xbd924e31	-0.0714382
63	0x3da8f091	0.082490094
